v1_TrainAI_ep0.pth (torch, 126063 bytes, 8 tensors)

linear_relu_stack.0.weight f4 [256, 16]
000000 d0 a1 fb bc 66 3e 6e 3e 80 fd 3f 3d fe c8 33 be
       -0.030716807 0.2326599 0.046872616 -0.17557141
000010 e0 1a 1a bd c8 92 d9 3d 10 f7 61 be 44 99 55 be
       -0.037623286 0.106236994 -0.22066903 -0.20859247
000020 da 6f 14 3e 90 7f 62 3e 68 ad 69 3d 02 a6 6c be
       0.14495793 0.22118974 0.05705014 -0.23110202
000030 16 5e 31 be b0 00 0b 3d 54 a9 cd 3d 14 a7 60 3e
       -0.17321047 0.033936203 0.100420624 0.21938735
000040 c0 9b 33 be 18 0b 39 3d 08 2d 19 3e b0 78 80 bc
       -0.17539883 0.045176595 0.14958584 -0.015682548
000050 7e 7c 44 be 5e b2 28 3e 20 4d 7b 3c 44 02 ea 3d
       -0.19188115 0.16474292 0.015338212 0.114262134
000060 48 8b 1e 3d 78 ee 02 be 92 4f 3a 3e 38 5e 7a 3d
       0.038707048 -0.12786281 0.18194416 0.06112501
000070 2c ba de 3d 26 aa 0d 3e 88 ca bc 3d c0 fd 5a 3e
       0.10875353 0.13834438 0.09218317 0.2138586
000080 b8 ff 64 3e c8 1b 29 be 5e 9e 32 be 08 42 f4 3d
       0.22363174 -0.16514504 -0.17443225 0.11926657
000090 4c 5f a5 3d b0 c7 34 bd 4e 0b 54 3e 74 52 92 bd
       0.08074817 -0.04413575 0.20707437 -0.07144633
0000a0 80 ba db bc a0 0b c2 3d d6 80 1b 3e 90 dd ac bc
       -0.026822329 0.094748735 0.15185866 -0.021101743
0000b0 90 cd 0b 3d 22 bc 65 be 4a 19 10 3e 0e 69 04 be
       0.034131587 -0.22435048 0.14072147 -0.129307
0000c0 dc a8 94 bd a8 bf 8a bd 22 5b 61 3e 62 69 67 3e
       -0.0725877 -0.06774837 0.2200742 0.22598794
0000d0 e8 29 a4 3d 6a 13 14 be 14 0f c1 bd e0 15 48 3c
       0.080158055 -0.14460531 -0.09426704 0.012212247
0000e0 3a c5 7a 3e e4 ee 2a 3e 6c 88 e7 bd 18 94 76 bd
       0.24489298 0.16692692 -0.11305317 -0.060199827
0000f0 60 3d 57 be d4 59 1b 3e f4 be c3 3d 26 d5 09 3e
       -0.21019506 0.15170985 0.09557906 0.13460216
000100 b8 8e 9f 3d 38 2c 3e 3e da f4 17 3e 78 d1 1a be
       0.07790893 0.18571556 0.14839497 -0.15118968
000110 b0 44 b4 3c a6 31 24 be de 3f 11 be 50 9e 0a bd
       0.022005409 -0.16034564 -0.1418452 -0.033842385
000120 c0 7e c3 3c 50 f8 ac bd 68 a6 e1 3d 6c 38 04 3e
       0.02386415 -0.08445799 0.110180676 0.12912148
000130 32 f2 65 be f2 87 64 be c0 7e 0e be a0 9f 3c bd
       -0.22455671 -0.22317484 -0.13915539 -0.046050668
000140 14 70 c3 3d ac 31 42 3e d4 e8 eb 3d 50 1b d1 bd
       0.095428616 0.18964261 0.11519018 -0.102102876
000150 5a f9 1b 3e c2 34 1a be 4c cb 74 3e 04 59 56 be
       0.15231839 -0.15059188 0.23905677 -0.20932394
000160 40 a9 69 bc d0 96 52 bd dc 32 0a be ac 62 f8 bd
       -0.014261544 -0.051413357 -0.13495964 -0.12128195
000170 58 ec 70 be 78 fe 1d 3d 30 2d d1 bc 68 cb 93 3d
       -0.23527658 0.03857276 -0.025534242 0.07216531
000180 24 d4 e6 bd f0 1b 03 3e 80 80 b0 bb 4c 49 1f be
       -0.11270931 0.12803626 -0.005386412 -0.15555304
000190 0e 62 77 3e e0 15 3e 3c 4e f9 51 be 48 4b 01 be
       0.24158499 0.011601895 -0.20505258 -0.12626374
0001a0 6c bc fb 3d 00 8c 69 ba 00 ae 9c 3b ba 5c 3e 3e
       0.12291798 -0.0008909106 0.0047814846 0.1859006
0001b0 48 99 65 bd 20 61 77 bd 90 dd cf bc b4 bc 16 3e
       -0.056054384 -0.06039536 -0.025374204 0.14720422
0001c0 30 fd ac bd 70 93 63 be 00 8f dd 3a 26 07 56 3e
       -0.08446729 -0.22224212 0.0016903579 0.20901164
0001d0 ec 67 a2 3d 00 c3 67 bd e0 d6 0a 3d 00 f3 93 bc
       0.07929978 -0.05658245 0.033896327 -0.018060207
0001e0 68 5d 35 3d be fa 38 3e 10 d8 e1 bd c0 90 63 3e
       0.044278532 0.180644 -0.11027539 0.22223186
0001f0 7c ab 0e be 94 e8 c7 3d 90 0a ab 3c f2 f2 42 3e
       -0.13932604 0.09761158 0.02087906 0.19037989
000200 20 5f 6e 3e e2 8a 24 3e ec 0e 84 3d 12 b4 53 3e
       0.23278475 0.16068605 0.064481586 0.2067416
000210 d6 b5 6a be de 82 3b be e4 69 85 3d 54 11 07 3e
       -0.22920927 -0.1831164 0.06514338 0.13190204
000220 f8 a1 37 3e 78 b6 c2 3d 40 ce bc 3d 6c cd 5d 3e
       0.1793288 0.095074594 0.092190266 0.21660393
000230 9a 51 7a be 2c 3c a0 bd 36 00 7b be cc 0e c3 3d
       -0.24445191 -0.07823977 -0.24511799 0.09524307
000240 46 35 3f be 6c 96 28 be 50 fb 1b 3d dc 02 4f 3e
       -0.18672666 -0.16463631 0.038081467 0.20215935
000250 8a c1 02 3e a8 28 1e be 76 ad 7f be a0 0d 11 be
       0.12769142 -0.15445197 -0.24968514 -0.14165354
000260 a0 90 bd bc 94 6e da 3d fa 5f 39 3e e0 6d 5b 3d
       -0.023140252 0.10665622 0.18103018 0.05357158
000270 90 2c 3f 3d 3c b8 db bd 20 76 6d bc d2 73 43 be
       0.046673357 -0.10728499 -0.014493495 -0.1908715
000280 5c d5 9e bd 50 32 ca 3c 1c ac c6 bd bc 79 28 3e
       -0.07755539 0.024682194 -0.09700796 0.16452688
000290 fa f0 4a be 7e 15 6b be d2 0f 7a be 00 6c 04 3e
       -0.19818488 -0.22957417 -0.24420097 0.12931824
0002a0 5e 59 42 be 4c b4 e3 bd c8 2a 05 bd d4 df ed 3d
       -0.18979403 -0.11118373 -0.032511503 0.116149575
0002b0 40 50 68 bd 60 c7 88 3c 48 b7 5f 3e 2e 39 05 3e
       -0.056717157 0.016696632 0.2184726 0.13010094
0002c0 80 f2 e2 bc da 3b 5d 3e 52 ba 74 3e 70 c1 35 3d
       -0.027703524 0.21604863 0.238992 0.04437393
0002d0 b8 5e 9e bd 76 80 6b 3e c0 a0 ec 3d 00 4f 7d be
       -0.0773291 0.22998223 0.11554098 -0.24737167
0002e0 e4 38 7f be f2 65 10 3e 90 c4 c5 bc 84 2e e5 bd
       -0.24924046 0.14101389 -0.02414158 -0.11190513
0002f0 10 01 d8 bc 20 0b 48 3c b4 2a 88 3d 16 1c 0a 3e
       -0.026367694 0.012209684 0.0664877 0.13487276
000300 bc 04 6b 3e ce fc 48 3e 38 d1 a1 3d 30 4b 17 be
       0.22951025 0.19627687 0.079012334 -0.14774776
000310 2a 65 5b be 70 a0 bc bd c2 f4 76 be 4c e0 70 be
       -0.2142531 -0.092102885 -0.24116805 -0.23523062
000320 f0 6c b7 bd b0 46 40 be 5c a0 2d be 1c 17 a8 bd
       -0.08956325 -0.18776965 -0.16955703 -0.08207533
000330 14 14 a6 bd bc b1 1a 3e a0 bd 08 be 26 5e 64 3e
       -0.08109298 0.15106863 -0.13353586 0.2230154
000340 dc 26 60 be 28 29 43 bd 90 48 19 3d 80 7a 37 3d
       -0.21889824 -0.04764667 0.037422717 0.04479456
000350 20 bb ac 3d bc 0b 69 3e 44 7a 49 be d0 e4 8d bd
       0.08434129 0.22758383 -0.19675547 -0.06928408
000360 cc 70 cf bd 38 f0 3f 3d 08 56 7a 3d e4 68 4a be
       -0.10128936 0.04685995 0.061117202 -0.19766575
000370 00 59 fe ba d2 64 37 3e 78 33 23 bd 40 d7 1f bd
       -0.0019405186 0.17909554 -0.039844006 -0.039023638
000380 f0 d1 87 bd e4 47 c4 bd 60 ed 41 bd 0e f6 4a 3e
       -0.06631839 -0.095840245 -0.04734552 0.19820425
000390 40 43 7f bd dc 06 7f 3e 86 fb 20 be da 8b 2b be
       -0.062319994 0.2490496 -0.15720949 -0.16752568
0003a0 26 d3 30 3e 48 01 38 be c8 73 95 3d 8a 52 12 be
       0.17268047 -0.17969239 0.07297474 -0.14289299
0003b0 84 cf c1 3d fe 41 51 be 04 b8 cc 3d 0c ac eb bd
       0.094634086 -0.2043533 0.09996036 -0.11507425
0003c0 86 fc 0a 3e 36 16 6b 3e ac 1d 35 3e 3a d4 57 be
       0.13572893 0.22957692 0.176871 -0.21077052
0003d0 aa 3d 3f 3e 60 1f 96 bc ec 3c 7c 3e e6 88 65 3e
       0.18675867 -0.018325508 0.24632615 0.22415504
0003e0 16 e7 69 3e 64 9c 79 be 20 35 eb bd a6 9f 23 be
       0.22842059 -0.24376065 -0.11484742 -0.1597887
0003f0 94 11 23 be e0 48 c6 bc b8 63 61 be 90 98 ca 3d
       -0.15924674 -0.024204671 -0.22010696 0.0989238

linear_relu_stack.0.bias f4 [256]
000000 08 68 cd bd 82 7a 49 3e ce 2d 01 be 80 69 33 bd
       -0.10029608 0.1967564 -0.1261513 -0.043801785
000010 1a a8 46 be 68 fc 78 bd 0c 3b ac bd 80 a5 8c 3c
       -0.19400063 -0.06078759 -0.084097 0.01716876
000020 9a 0d 0b 3e bc ca f4 bd 92 9c 30 3e 2c 62 33 3e
       0.13579407 -0.11952731 0.17247227 0.17517918
000030 20 e1 d1 3c 00 f9 b7 ba 08 b7 54 3d 00 d8 53 bb
       0.025620043 -0.0014036 0.051932365 -0.003232479
000040 48 df 32 3e b6 e4 38 be a8 aa 1e 3d 00 e2 6a bd
       0.17467988 -0.18055996 0.03873697 -0.057344437
000050 e0 36 4f 3d f0 6f 8b 3d 5a 90 1c 3e a0 1c 4d 3c
       0.050589442 0.0680846 0.15289441 0.012519032
000060 5a 64 0a be 04 bd 6d be 90 5d 00 3e 20 cb 68 3d
       -0.13514844 -0.23216635 0.12535691 0.05683434
000070 88 3f a7 3d 2c 92 40 3e bc c6 ea 3d e0 f2 e0 3c
       0.081664145 0.1880576 0.11463687 0.027459562
000080 20 09 ea bd 82 46 30 be e4 53 e5 bd 30 ec 3a bd
       -0.11427522 -0.17214397 -0.111976415 -0.045635402
000090 c0 c4 f6 3c 12 e7 64 3e 04 59 c6 3d 20 37 9f 3d
       0.030123115 0.22353771 0.09684947 0.07774186
0000a0 98 3e f0 bd d6 37 46 3e 90 6d 32 3d 40 f8 71 3e
       -0.11730689 0.19357237 0.04356152 0.23629856
0000b0 44 79 92 3d 7c ab a2 bd 6e 5c 6e be 68 71 66 3d
       0.07152036 -0.07942864 -0.23277447 0.056260496
0000c0 c8 92 59 bd 78 8a 35 3d c0 ad 99 3c 9e 28 74 be
       -0.053118497 0.044321507 0.018759608 -0.23843619
0000d0 70 de b4 3c 7e 3c 76 be 90 41 dd bc f4 8c f4 3d
       0.022078723 -0.24046513 -0.027008802 0.11940947
0000e0 e0 17 ed 3c 38 34 67 3d 14 f8 87 3d 80 a0 0f 3c
       0.028942049 0.056446284 0.06639114 0.0087662935
0000f0 7a 2e 56 3e 90 d7 ad bd 50 5f 70 be 96 07 55 3e
       0.20916167 -0.08488381 -0.23473859 0.20803675
000100 d4 a7 f5 bd 56 56 0f be 38 f8 dc 3d ac be d2 bd
       -0.11994901 -0.13997778 0.107895315 -0.10290274
000110 20 57 60 bd a2 8d 23 be ae 3f 2a 3e 78 2a 7f bd
       -0.05477059 -0.15971997 0.16625854 -0.06229636
000120 80 a0 42 bb f4 74 4d be a0 c3 1b 3d e8 2d 49 bd
       -0.0029697716 -0.20064145 0.03802836 -0.049116045
000130 58 49 21 bd fe d5 10 be 30 e3 71 bd 88 4f aa bd
       -0.039376587 -0.14144132 -0.059054554 -0.08315951
000140 c0 38 35 3c 88 00 69 3d 28 f0 30 be ce ec 46 be
       0.011060894 0.056885272 -0.17279112 -0.19426271
000150 b4 93 b6 3d 46 ea 37 be e6 03 66 3e 68 8a 5f be
       0.08914891 -0.17960462 0.22462425 -0.21830142
000160 18 7c df 3d 94 98 08 3e 6c cf 9c bd dc aa 87 bd
       0.10912341 0.13339454 -0.0765675 -0.06624386
000170 5a 47 2a be 50 aa 28 be 80 e4 c5 3c ac 8c 06 be
       -0.16628781 -0.16471219 0.024156809 -0.131396
000180 60 59 c6 3c 92 85 7a be 00 60 ce b9 08 a1 03 bd
       0.02421254 -0.24465016 -0.00039362907 -0.032135993
000190 ea ac 41 3e 7a 10 6b 3e c0 65 4a be a0 d6 ff 3c
       0.18913618 0.22955504 -0.19765377 0.03123027
0001a0 04 ab 04 be f8 40 36 3e f0 bc f9 bd 98 3c 5d be
       -0.12955862 0.17798221 -0.1219424 -0.21605146
0001b0 40 8d 5a 3e 50 0e 7e 3e b0 c8 47 be 48 5d 68 3d
       0.21342945 0.24810147 -0.1951015 0.056729585
0001c0 f0 57 1c 3e 6c fd 4d 3e 32 29 77 be 84 f1 58 3e
       0.1526792 0.20116204 -0.24136809 0.21185881
0001d0 26 1a 24 3e 8c 39 aa bd 90 dc 97 3c 70 61 75 bd
       0.160256 -0.083117574 0.01853779 -0.059907377
0001e0 00 ef 59 3d 40 51 10 be 76 29 0d 3e c0 25 9c 3c
       0.053206444 -0.14093494 0.13785347 0.01906097
0001f0 9c 75 3f be 8c 8c d2 3d 20 27 15 bc 3a 9d 12 3e
       -0.18697208 0.102807134 -0.009103566 0.1431779
000200 f2 37 1f 3e a0 2a 1e 3c 70 f3 a8 bd a4 e7 5a 3e
       0.15548685 0.009653717 -0.08249557 0.21377426
000210 48 a9 f9 bd 44 be a3 3d c0 69 ad 3b ea ad 01 be
       -0.12190491 0.07995275 0.0052921474 -0.12663999
000220 60 5c ae bd 34 14 87 3d 00 27 ec bd 54 3a ba bd
       -0.08513713 0.0659565 -0.11530876 -0.090931565
000230 8e 32 0e be 8e 95 38 be 7c b5 31 3e fa dd 72 3e
       -0.13886473 -0.180258 0.17354387 0.2371749
000240 a8 fe d5 bd 92 a8 35 3e 44 cd 63 3e 48 f0 b6 bd
       -0.104489625 0.17740086 0.22246271 -0.08932549
000250 86 95 1c 3e 00 10 a7 3a c8 a9 61 bd 5c 0c 4a be
       0.15291414 0.0012745857 -0.055093557 -0.19731277
000260 60 43 8c 3d 2e ba 5b 3e 60 41 85 3c 60 53 9d bc
       0.06848788 0.2145774 0.016266525 -0.019204795
000270 e2 3e 57 3e 44 a9 af bd d8 a2 93 3d 24 ff 69 3e
       0.21020082 -0.08577207 0.07208794 0.22851235
000280 e0 6c ae bc 48 67 dc bd 2c fd 6a be 30 ed e0 bc
       -0.02129215 -0.10761887 -0.2294814 -0.02745685
000290 ce ef 1d 3e d4 e7 db bd dc f8 84 3d 9e 78 12 be
       0.1542351 -0.10737577 0.06492779 -0.14303824
0002a0 a8 bc 17 be d0 fd 80 bc ac aa f0 3d 8c d3 bc bd
       -0.1481806 -0.015746027 0.11751303 -0.09220037
0002b0 30 fc 4f 3d 80 d7 7c 3c 30 67 79 3d 8c a7 1a 3e
       0.050777614 0.015432239 0.060889423 0.15102977
0002c0 80 ef 7a 3d 78 74 1a 3d d8 16 e5 3d 82 c7 1d be
       0.06126356 0.03770873 0.11185998 -0.15408137
0002d0 a0 0c 14 bd a4 b7 f6 bd 3c f7 18 be 70 c4 9a bd
       -0.036144853 -0.120467454 -0.14938062 -0.07556999
0002e0 40 c1 38 3d e6 4f 51 be c6 20 2e 3e 68 ae 96 3d
       0.045106173 -0.20440635 0.1700469 0.07357484
0002f0 9c 96 85 bd 24 87 e5 bd 60 6a 6b 3c 8c 31 a2 3d
       -0.06522867 -0.11207417 0.0143686235 0.079196066
000300 44 8a eb bd e0 3d ac 3c 14 59 e4 3d a8 f9 e0 3d
       -0.115009815 0.021025598 0.11149803 0.10985118
000310 5e 07 24 3e e4 03 58 be 78 ee c8 bd 94 63 bd bd
       0.16018435 -0.21095234 -0.09811109 -0.09247509
000320 fa da 48 be a0 ba 70 3d e4 31 1d be 00 bc 5c bb
       -0.19614783 0.05877173 -0.15351063 -0.0033681393
000330 d4 2c 95 bd f4 bd dc 3d 14 05 a0 3d 88 1f 6e be
       -0.07283941 0.10778418 0.078134686 -0.23254216
000340 18 0b 33 be a8 7c 36 bd 40 ba a9 3d 5e 7b 1d 3e
       -0.174847 -0.044552475 0.082874775 0.15379092
000350 a0 4f 39 be 50 1d 12 bd d0 24 a9 bc e0 9d 67 3d
       -0.18096781 -0.035672486 -0.020647436 0.056547046
000360 e8 41 1d bd 54 60 41 3e 64 aa 0d be a0 1e 45 bc
       -0.03839293 0.18884403 -0.1383453 -0.012031227
000370 60 d0 16 3c 20 77 f9 3d 80 fc 63 3b 9c aa 5a be
       0.009204954 0.121809244 0.0034787953 -0.21354145
000380 b8 3e 4a be 38 9d 57 be 38 43 19 3d e8 90 70 be
       -0.19750488 -0.21056068 0.03741762 -0.23492777
000390 8a c1 6e 3e 60 58 f9 bc 38 3c 39 3d e0 70 fe bc
       0.23316017 -0.030437648 0.045223445 -0.031059682
0003a0 84 88 a4 bd a2 cf 53 be 78 60 80 3d 10 77 e5 bd
       -0.08033851 -0.20684674 0.062684 -0.1120435
0003b0 20 38 81 bd 0a d4 22 3e 64 43 17 3e 9a 12 49 be
       -0.06309533 0.15901199 0.14771801 -0.19636002
0003c0 46 e8 07 be 12 c7 72 3e 04 ad 3b be b0 88 62 be
       -0.13272199 0.23708752 -0.18327719 -0.22122455
0003d0 4c 84 5d be 0e f6 52 be 7c 90 ac bd 90 28 e4 3c
       -0.21632499 -0.20601675 -0.08425996 0.027851373
0003e0 c8 4a 86 bd 5c 1a 31 3e a0 1c ca 3c 48 e7 ba bd
       -0.06557232 0.17295212 0.024671853 -0.09126145
0003f0 d4 64 8d bd 00 f1 9f 3d 40 c7 a8 3d 2c d2 c5 3d
       -0.06903997 0.07809639 0.08241129 0.09659228

linear_relu_stack.2.weight f4 [96, 256]
000000 1c 06 48 3d c8 cd 0c bd d0 2b b5 bb 78 0b cf 3c
       0.04883395 -0.034375936 -0.0055289045 0.025274023
000010 90 58 ea 3b 5c 1b da bc 2c 93 8f 3c 1e 6e 54 3d
       0.0071516708 -0.026624374 0.017526232 0.05186283
000020 90 03 fd bb 70 df e4 3b d0 bb e2 3b 5c 3c 9d 3c
       -0.007721372 0.0069846436 0.0069193617 0.01919382
000030 00 f2 b9 3c c0 59 6a bd 68 9e 5f 3c 30 6c 49 bd
       0.022698402 -0.0572145 0.013648607 -0.04917544
000040 c8 57 0e 3d f0 8c 63 3d c6 d2 51 3d 4c bf 1e 3d
       0.034751683 0.05555433 0.0512264 0.038756654
000050 78 19 0b bc 20 a6 fe bb 06 23 68 bd 88 81 b3 3c
       -0.008489959 -0.0077712685 -0.056674026 0.021912351
000060 10 43 5e bd c0 f3 ca bc 48 14 5e 3c 00 3d 3c 3c
       -0.054263175 -0.024774432 0.01355464 0.011489153
000070 f4 a2 da 3c b0 d2 52 3c 10 6e 61 bd 24 a1 50 bd
       0.02668903 0.012867615 -0.055036604 -0.050934926
000080 24 1e f2 3c ac 7f e5 3c 48 cc d2 bc 80 cb 70 3a
       0.029555388 0.02801498 -0.025732175 0.00091855973
000090 d0 9c 11 3d 00 19 3a 3b 24 78 64 bd 20 21 ee bc
       0.03554994 0.0028396249 -0.055778638 -0.02906853
0000a0 92 85 51 3d 96 69 5a bd 58 ca 43 bd 40 97 b1 ba
       0.051152773 -0.05332335 -0.047800392 -0.0013549104
0000b0 80 72 37 3c 34 12 60 3d 10 6d 4e bd f0 c4 eb 3b
       0.0111967325 0.05470486 -0.05039698 0.0071951076
0000c0 80 03 93 3b 34 de 7d bd be 62 73 bd 0a d0 59 3d
       0.004486501 -0.061979488 -0.05942034 0.053176917
0000d0 38 ef 2d bc cc 61 78 bd 50 95 56 bd 84 39 b3 bc
       -0.010616116 -0.06064014 -0.05238849 -0.021878012
0000e0 34 b9 aa 3c 92 c1 05 bd 48 dd 9f 3c da 20 14 bd
       0.020840265 -0.032655306 0.019514695 -0.036164142
0000f0 a8 91 a4 3c 8c d3 60 3d 9c 8d 63 3d 60 e6 39 bb
       0.020088986 0.054889247 0.05555497 -0.0028366074
000100 20 50 ad 3b a0 2c 04 3c 00 54 40 bc e6 80 2c 3d
       0.0052890927 0.00806728 -0.011738777 0.042115115
000110 52 25 75 bd f2 77 03 3d 00 4b 44 3c 52 43 62 3d
       -0.059850045 0.03209681 0.011980772 0.055239983
000120 c6 20 15 bd bc d2 03 3d 20 6c 54 3c 96 9f 7a bd
       -0.03640821 0.032183394 0.012965232 -0.06118735
000130 60 5a 0d 3c ac df 7b 3d 6a 7b 10 bd 20 97 91 3c
       0.008627504 0.061492607 -0.035273947 0.017772257
000140 80 f7 84 ba 98 a7 cd 3c ca 4b 21 bd d0 86 ed 3c
       -0.0010144562 0.025104329 -0.03937892 0.028994948
000150 a0 5e 4b 3b 08 f2 43 bc 02 69 58 3d 00 f4 1e 3a
       0.0031031743 -0.01195956 0.05283452 0.00060635805
000160 40 7a 55 3b 20 34 06 bc 30 00 68 3c c8 84 3d 3d
       0.0032574087 -0.0081911385 0.014160201 0.04626921
000170 86 50 66 bd 4c da cf 3c 80 5e 95 bc 04 04 1c bd
       -0.056229137 0.025372647 -0.018233538 -0.038089767
000180 3c 40 a7 bc bc 5a 1b bd a2 04 19 3d b8 0f 5a 3c
       -0.020416372 -0.037928328 0.037357934 0.013309412
000190 d6 01 3e 3d 00 d6 9d 39 7a c1 00 3d 52 8a 5a 3d
       0.04638847 0.00030104816 0.031434514 0.05335457
0001a0 4c 4c a6 3c d0 eb 4f bd 98 5e 66 bd dc 67 e9 bc
       0.020300053 -0.050761998 -0.056242555 -0.028491907
0001b0 14 c1 37 bd 3e 80 36 3d e0 df 28 bd e2 f7 3b bd
       -0.044861868 0.044555895 -0.04122913 -0.045890696
0001c0 0a 10 4c bd c0 be 51 3b 90 8f 57 bd 90 16 c6 bb
       -0.049819984 0.0032004565 -0.052627146 -0.00604517
0001d0 60 4c d5 3c 20 78 6c bc e0 96 c6 bb 10 51 ce 3c
       0.026037395 -0.014432937 -0.006060466 0.025185138
0001e0 12 64 72 bd ac c1 6a bd 5c 3c c9 bc 10 60 b3 3b
       -0.059177466 -0.057313606 -0.024564914 0.005474098
0001f0 24 a2 88 3c 8c f3 93 bc 7c 27 54 3d ec 19 20 bd
       0.016678877 -0.018060468 0.051795468 -0.03908722
000200 be fe 79 bd 9c cc 2e bd ea 8f 35 3d 80 f5 52 bc
       -0.061033957 -0.0426756 0.0443267 -0.012875915
000210 e0 87 a7 bb 0c a5 c0 bc 48 fd e1 3c 2e 1d 34 bd
       -0.005112633 -0.0235162 0.027586594 -0.04397314
000220 9a 90 17 3d 06 9a 07 3d d8 2e 68 bc f2 a1 74 3d
       0.037003137 0.033105873 -0.014171325 0.059724756
000230 c8 72 79 bc b0 84 da 3c 8a 33 1b 3d 46 09 65 3d
       -0.01522512 0.026674598 0.03789095 0.055917047
000240 c0 08 ad ba 10 f2 d0 bc b8 74 3f 3c f4 5a d7 3c
       -0.001320146 -0.02550605 0.011685543 0.026288487
000250 bc 77 9a 3c 5a 17 25 bd a2 67 3e 3d a0 b1 df 3b
       0.018855922 -0.040305473 0.04648555 0.0068265945
000260 4c 1a db 3c 78 71 4f 3d 1e f3 67 3d 46 b2 22 bd
       0.026745938 0.05064532 0.05662834 -0.039720796
000270 ec e4 32 bd 04 b7 75 bd 88 8e 62 3d aa cd 4b 3d
       -0.04367535 -0.05998899 0.05531171 0.049756683
000280 6c 61 ac 3c e0 d9 72 3b d0 78 0b 3c 68 62 7e 3d
       0.021042548 0.0037056133 0.008512691 0.062105566
000290 d2 20 31 3d 00 58 68 38 5e 82 68 3d 46 24 3f 3d
       0.04324419 5.5395067e-05 0.056764953 0.046665452
0002a0 b8 7a 6a 3d 70 a7 2c bc 24 5d e1 3c f6 a0 30 3d
       0.05724594 -0.010537967 0.027510233 0.043122254
0002b0 54 44 63 3d 30 5b 3e 3d 1a 43 79 bd d0 4e 8b 3c
       0.055485085 0.046473682 -0.06085501 0.017005354
0002c0 e4 97 51 3d de ca 5d 3d 94 34 91 bc 1a 34 1a 3d
       0.051170245 0.054148547 -0.017725267 0.037647344
0002d0 98 36 2b bc b4 be dc 3c 20 78 07 3c f0 3f 26 3c
       -0.010450028 0.026946403 0.008268386 0.01014708
0002e0 94 35 0c 3d 40 34 9e bc c0 af 54 bb cc 65 6d bd
       0.034230784 -0.019312024 -0.0032453388 -0.05795841
0002f0 98 f1 b0 bc 20 23 e7 3c 7c 0e 71 3d 8e a1 70 bd
       -0.021599576 0.028214991 0.058851704 -0.05874782
000300 14 bc 2b 3d 00 55 dc 3b 04 66 89 3c 48 0d 6e 3d
       0.041927412 0.006724 0.016772278 0.058118135
000310 6c 6f 8c bc 64 00 8a 3c f0 92 ac bb 3c 3c 86 bc
       -0.017142974 0.01684589 -0.0052665398 -0.016386144
000320 00 dd 93 bc 86 ed 35 3d 1a c0 72 bd 22 20 16 bd
       -0.018049717 0.044415973 -0.059265234 -0.036651738
000330 2e cf 51 3d 08 0b 1d bc d0 97 77 3d b4 ea ae bc
       0.051222973 -0.00958515 0.060447514 -0.02135215
000340 70 ae 1a 3c 98 78 73 bc f0 b3 93 3b 70 6a 97 3c
       0.009441003 -0.014860295 0.004507534 0.01848337
000350 b4 06 5d 3d d4 32 74 3d 24 e0 09 3d f0 af cc 3c
       0.05396147 0.059618786 0.033661023 0.024986237
000360 3e ef 44 3d 20 74 95 3b e0 4b 42 3b 18 0a 02 3d
       0.04807972 0.0045609623 0.0029647276 0.031747907
000370 90 7d 65 bc 4c 59 e7 bc 56 11 04 3d 28 80 5b bc
       -0.014006987 -0.028240822 0.032243095 -0.013397254
000380 f0 40 92 bb 7e ff 6a 3d 94 1d 9f 3c d0 af 83 bb
       -0.0044633076 0.057372563 0.019423284 -0.004018761
000390 aa 7b 72 bd b4 5c 5d bd 48 c6 2b 3d 66 2c 45 bd
       -0.059199966 -0.054043487 0.041937143 -0.048138045
0003a0 58 6f 12 bd 40 3b 23 bd ae a5 71 bd 6c ae 35 3d
       -0.035750717 -0.039851427 -0.058995895 0.044355795
0003b0 0c f0 f8 3c b2 96 6a bd 46 31 2c 3d 64 d5 ed bc
       0.0303879 -0.05727262 0.04203918 -0.029032417
0003c0 0e e5 3d 3d 64 c3 63 3d 50 82 22 3d 18 45 14 bc
       0.04636102 0.05560626 0.039675057 -0.009049676
0003d0 08 6a 70 bc a8 e9 80 3c e8 96 57 3c c4 f6 3d 3d
       -0.014673717 0.015736416 0.013158537 0.046377912
0003e0 3a 04 0d 3d 20 a4 87 bc 08 30 52 bc 86 89 4d bd
       0.03442786 -0.016557753 -0.012828834 -0.05017998
0003f0 6e 08 13 3d 38 2e bd 3c c2 84 4c 3d 70 60 27 bd
       0.03589671 0.023093328 0.049931295 -0.040863454

linear_relu_stack.2.bias f4 [96]
000000 d4 65 00 3d 1c 82 53 3d 80 22 e9 3c b8 55 7a bd
       0.03134711 0.051637754 0.028458834 -0.061116904
000010 00 a4 bf bc 68 33 25 3d c8 46 27 bd d8 27 03 bd
       -0.023393631 0.040332228 -0.040838987 -0.03202042
000020 24 9f 9e 3c ee a5 5a bd 3c a7 c1 bc 80 f6 d0 ba
       0.019362994 -0.0533809 -0.023639314 -0.0015942603
000030 66 fd 7f 3d 34 db 0b 3d d8 63 a0 3c 48 5e 68 3d
       0.06249752 0.034144595 0.01957886 0.05673054
000040 d0 e0 5a 3d 00 00 e6 b7 58 63 95 bc 6a 99 5a 3d
       0.053437054 -2.7418137e-05 -0.018235847 0.053368963
000050 50 b3 f1 bc 80 ef 8d ba 7c 39 82 bc 68 b4 38 bd
       -0.029504448 -0.0010828823 -0.015896551 -0.045093924
000060 5c 94 37 bd e8 32 ed bc d8 6c 57 3d c8 c7 74 bc
       -0.04481922 -0.028954938 0.052594036 -0.01494021
000070 f2 13 5b 3d a0 7a cf 3b a4 90 fb bc 74 0e 36 bd
       0.05348582 0.0063317567 -0.030708618 -0.044447377
000080 e0 02 d9 bb b8 65 21 bc 4c 5e b7 bc 60 e1 e8 bb
       -0.006622657 -0.009850912 -0.022383831 -0.007106945
000090 0e a3 01 bd d0 7a b6 3c c4 d3 23 3d c0 d3 2a 3c
       -0.03164964 0.022275358 0.039996877 0.010426462
0000a0 66 a8 77 3d e8 a3 2e bc 0c 81 e0 3c 80 a2 0b 3c
       0.06046333 -0.0106591955 0.027405284 0.00852263
0000b0 80 5e 75 bc 90 da b2 3c 0c 52 88 3c 6a cc 08 3d
       -0.014976144 0.021832734 0.016640685 0.03339807
0000c0 b6 19 78 3d fc a1 07 3d f0 d8 f2 3c 30 85 2d 3c
       0.060571395 0.033113465 0.02964446 0.010590836
0000d0 e0 7c 62 3d 8e 16 57 3d 00 91 28 3c 06 78 4d 3d
       0.05529487 0.052511744 0.010288477 0.05016329
0000e0 26 d9 20 3d 34 a0 f2 bc 40 4d 77 bb 28 7c 21 bc
       0.03926959 -0.029617406 -0.0037735254 -0.009856261
0000f0 96 61 43 3d 80 c8 ab bc 8e 4f 30 bd 1c d5 1e 3d
       0.047700487 -0.02096963 -0.04304462 0.038777456
000100 c0 5a 10 3b 68 45 ac bc bc 47 4e bd 80 a3 5c 3d
       0.0022026747 -0.02102919 -0.05036138 0.053866863
000110 04 2f af 3c 7c c1 7a 3d fe b0 23 bd 2a 21 59 3d
       0.021384723 0.061219677 -0.039963715 0.053010143
000120 4c 1c b1 bc 08 b3 34 bd 2c 67 1c 3d 56 14 3f bd
       -0.021619938 -0.04411605 0.03818433 -0.046650253
000130 fa ac 4f bd 92 df 62 bd 8c 94 45 bd c0 2c ef ba
       -0.050702073 -0.055388995 -0.04823737 -0.001824759
000140 36 2d 33 3d 00 7d a6 bb b8 00 ed 3c 3e e6 6b 3d
       0.04374429 -0.005080819 0.028931007 0.057592623
000150 40 20 61 bd 08 fe 6a 3c 5a 1c 60 3d 5c 65 d0 3c
       -0.054962397 0.014342792 0.05471454 0.025438957
000160 40 2e 54 3c a6 20 02 3d e4 a6 2e bd 60 8e cb 3b
       0.01295048 0.031769417 -0.042639628 0.006212041
000170 c0 44 b9 3c 00 9d fb 3a bc 18 e0 bc de 8e 75 bd
       0.02261579 0.001919657 -0.027355544 -0.059950702

linear_relu_stack.4.weight f4 [16, 96]
000000 30 d8 af 3c 7c aa 2c bd 82 bc 5b bd 05 a2 b5 bd
       0.02146539 -0.042154774 -0.053646572 -0.088687934
000010 d6 cf 90 bd 8c 0b 13 3d 44 c0 b9 bd 80 87 11 bb
       -0.070708916 0.035899684 -0.09069875 -0.0022206008
000020 b8 24 cd bd b4 84 93 bc da dc 20 bd 54 cb 8b 3c
       -0.10016769 -0.018007614 -0.03927312 0.017064728
000030 40 2d aa bd 7c 96 69 3d 00 81 29 3d cc d8 d3 bc
       -0.08309412 0.05702828 0.04138279 -0.025860213
000040 16 7e a1 bd 00 a2 dc 3c 26 59 a5 bd c0 5b 91 bc
       -0.07885377 0.026932716 -0.08073644 -0.017743945
000050 ed db 4f bd a6 fd 98 3d 2c 34 cb bc 76 f8 4c bd
       -0.050746847 0.074702546 -0.02480515 -0.05004164
000060 00 69 bd 3a c0 a8 8f 3c 60 68 c7 bb 94 8f 99 3d
       0.0014450848 0.017536521 -0.0060854405 0.074980885
000070 f8 99 ed 3c 00 a4 71 bb a4 25 8b 3d 8f b5 31 bd
       0.029004082 -0.0036871433 0.06794289 -0.04338604
000080 84 84 23 3d 5a ca 8f bd b0 02 a8 bc a0 bc 85 bc
       0.0399213 -0.070210174 -0.020509094 -0.016325295
000090 90 f8 2c bd 28 01 3c bd f8 a4 93 bd ae 4a 14 bd
       -0.042229235 -0.04589954 -0.072092 -0.036204033
0000a0 60 58 36 bb f0 87 9c 3b 68 f7 9c bd d7 8d 76 bd
       -0.0027823672 0.004776947 -0.076643765 -0.060193863
0000b0 b6 d3 cc bd c0 7f b1 3b 30 58 35 bd 18 96 ca 3c
       -0.10001318 0.0054168403 -0.044273555 0.024729773
0000c0 a8 b6 e9 3c 66 b6 31 bd be d3 bd 3d a6 d8 a3 3d
       0.02852948 -0.04338684 0.09268902 0.08000307
0000d0 60 a7 b7 bc 00 17 c3 ba 68 44 c1 3d 66 92 08 bd
       -0.022418678 -0.0014884174 0.094368756 -0.03334274
0000e0 4a f3 8f 3d 4e 46 8b bd 00 09 4d 3d 4c ff 51 bd
       0.070288256 -0.06800519 0.05005741 -0.05126886
0000f0 e0 bf d1 bb 58 c2 07 3c f0 ac 40 3d e4 c7 73 3d
       -0.006401047 0.008286081 0.047039926 0.059516802
000100 d4 60 a4 3d f8 46 a1 3c d4 7d 76 3d 0c c7 1b bd
       0.08026281 0.01968716 0.060178593 -0.038031623
000110 bc c9 a2 bc 28 6c a8 3d 5c 05 98 bc 18 45 24 3c
       -0.019871585 0.08223754 -0.018557243 0.010026239
000120 c8 8b ac 3c 96 71 43 bd fe 01 b0 3d 30 d1 56 bc
       0.021062747 -0.047715746 0.0859413 -0.013111398
000130 88 64 11 bd 92 a0 b3 3d 48 e8 3a 3d dc d8 4b 3d
       -0.035496265 0.08770861 0.045631677 0.04976736
000140 80 d7 96 bc 44 21 ba 3c c7 d9 3a bd a1 7d b1 bd
       -0.018413305 0.02272094 -0.045617845 -0.0866654
000150 34 81 a8 3d 65 fd 97 bd 70 0b 88 bb 10 3f f3 bc
       0.082277685 -0.07421378 -0.004151754 -0.029693156
000160 bc fd 89 bd 12 5d be bd 23 34 c1 bd 00 ac 18 39
       -0.06737849 -0.092950955 -0.094337724 0.00014559925
000170 00 04 84 bb 06 f1 bd 3d 44 6c 4e 3d 38 f0 73 3c
       -0.004028797 0.09274487 0.05039622 0.014888816
000180 2f 02 24 bd 70 99 f8 3c f8 02 da 3c d8 1e 62 bc
       -0.040041145 0.030346602 0.026612744 -0.013801299
000190 9a b2 86 bd 80 9d eb 3c 94 6e d0 bd c0 67 d6 3b
       -0.06577034 0.028761625 -0.10177341 0.0065431297
0001a0 b8 76 bd bd 20 15 ce 3c 00 a6 bd 3d 29 3e 8e bd
       -0.092511594 0.025156558 0.092601776 -0.0694545
0001b0 de af 71 bd 26 e7 8e bd 80 c0 c2 3b ec f3 aa 3d
       -0.05900561 -0.06977682 0.005943358 0.08347306
0001c0 7d b7 b9 bd 1a 5a 4b bd be b3 b1 bd 5c 15 20 bd
       -0.09068201 -0.049646474 -0.08676861 -0.03908287
0001d0 50 ab 91 3b 54 1d 63 3d eb 60 58 bd b0 a9 5c bc
       0.004445471 0.05544789 -0.052826803 -0.013468191
0001e0 65 fe c7 bd b0 98 e9 3c 80 cb 8d ba 31 33 8d bd
       -0.09765319 0.02851519 -0.0010818094 -0.068945296
0001f0 ce 01 39 bd 5c 9e 27 3d dd 66 be bd 02 4f 9b bd
       -0.045167737 0.040922508 -0.09296963 -0.07583429
000200 f6 5e b5 3d 00 c6 49 3b 60 5c 2a 3b b4 e6 67 bd
       0.08856003 0.0030788183 0.0025995001 -0.0566165
000210 44 99 16 3d 40 5b f1 3a 2a ba 90 3d a0 f6 fd 3c
       0.03676726 0.0018414035 0.07066758 0.031001389
000220 30 b8 50 3d f3 d7 8e bd 68 9e 1e bd a0 2e 11 3d
       0.050956905 -0.06974783 -0.038725287 0.035444856
000230 bd b5 97 bd a4 1a 54 3d 28 fd a7 3c 30 f2 57 3c
       -0.07407711 0.05178322 0.020506456 0.013180301
000240 43 a9 b9 bd 14 04 e5 bc 30 e5 87 3d 0c 01 96 bd
       -0.09065487 -0.027956046 0.06635511 -0.073244184
000250 00 b9 49 bb ac d4 9d bc 24 82 17 3d 9d 04 38 bd
       -0.0030780435 -0.019266449 0.036989346 -0.044926275
000260 c4 88 53 3d 31 d9 23 bd a4 83 ab bc 4e e9 b0 bd
       0.0516441 -0.04000205 -0.020936795 -0.08638249
000270 1c 8f 43 3d c0 a4 a4 bb b4 68 9d bd fa 66 d0 3d
       0.0477439 -0.0050245225 -0.07685986 0.10175891
000280 80 0e e2 bc 70 45 1f 3d 10 6d e8 3c 81 77 64 bd
       -0.027594805 0.03888458 0.028372318 -0.05577803
000290 30 1a db 3c 68 13 b1 bc 5c de 12 3d 54 71 b2 bc
       0.026745886 -0.021615699 0.03585659 -0.021782555
0002a0 d5 40 4e bd 0b 1c 84 bd 64 48 31 bd 9c ba 08 3d
       -0.050354797 -0.06450661 -0.043281928 0.03338109
0002b0 5e f8 04 bd 80 5c c9 3b 06 9a 44 bd 30 47 68 3d
       -0.032463424 0.00614506 -0.04799845 0.056708515
0002c0 3e c3 8d 3d 84 e8 50 bd 58 cc 9e bc 88 cd 77 3d
       0.06922005 -0.051002994 -0.019384548 0.060498744
0002d0 0c 00 75 3d a8 07 32 3c bd 1f 61 bd 1f 1b 32 bd
       0.059814498 0.010866083 -0.05496191 -0.043482896
0002e0 f4 5a b8 bc 00 3c 3a 39 56 1e 98 3d 2b f2 a6 bd
       -0.022504307 0.00017760694 0.07427661 -0.081516586
0002f0 e3 f4 32 bd 80 45 b7 3c b8 0e f0 3c 3c 50 7d 3d
       -0.043690573 0.022372007 0.029303893 0.061844096
000300 20 2a 25 bd 50 1e 91 bc a0 4a 56 3b 60 16 b9 3d
       -0.040323377 -0.01771465 0.0032698289 0.09037471
000310 66 6e be 3d d0 20 93 3b c4 f1 29 3d 8c ec 1d bd
       0.092984006 0.0044899955 0.04149033 -0.038555667
000320 c0 e2 13 3d f0 74 4b 3d 24 28 7b 3d 50 30 9d 3d
       0.036104918 0.049672067 0.061317578 0.076752305
000330 68 c5 68 bc bc 29 d0 3d 70 6a 0a bc b2 bc ce 3d
       -0.014207222 0.1016421 -0.008448228 0.100945845
000340 5c b5 5a 3d a6 3d 8b 3d 4e a2 04 bd 30 67 bd 3c
       0.053395614 0.06798868 -0.03238135 0.023120493
000350 be 2f 87 3d b6 cb 74 bd 22 95 8b 3d e3 52 2d bd
       0.06600903 -0.059764586 0.06815554 -0.042315375
000360 28 0e 11 3c b2 88 a0 3d 2c 7b b4 3c 64 8c 15 bd
       0.008853473 0.078385726 0.02203139 -0.03651084
000370 2a b2 83 3d ff 30 80 bd bf 9f 2f bd c0 8f b0 3d
       0.064304665 -0.06259345 -0.042876955 0.08621168
000380 dc 0b 78 bd 52 12 b8 bd aa 2d c3 bd 00 c7 13 3b
       -0.060558185 -0.08987869 -0.09530194 0.0022549033
000390 d0 7a 9b 3c fb f8 c9 bd 40 26 32 bc d8 76 85 3c
       0.01897946 -0.098619424 -0.010873377 0.01629202
0003a0 25 be a8 bd 56 cc 9e 3d 94 5e a6 3d 5c 0a c6 3d
       -0.08239392 0.07753818 0.08123508 0.09669945
0003b0 bc d5 09 3d 2e b3 96 bd 28 00 d5 3c f4 6c ae 3c
       0.0336511 -0.073583946 0.026001051 0.021292187
0003c0 44 5c 85 3d 06 07 46 bd 60 6b c3 3c 00 71 6d 3c
       0.06511739 -0.04834654 0.023854911 0.014492273
0003d0 99 94 8d bd 3c 6d 39 3d 4c 8e cc 3d 5c 31 bd bd
       -0.069131084 0.04527019 0.099880785 -0.0923793
0003e0 f4 0d 8a bd 08 be 94 3c c6 68 a5 3d 6a e1 cc bd
       -0.067409426 0.01815702 0.080766246 -0.10003932
0003f0 40 34 83 3d c4 d5 8c 3c d8 f6 69 3d a2 25 9f bd
       0.0640645 0.017191775 0.057120174 -0.0777085

linear_relu_stack.4.bias f4 [16]
000000 e5 fd 3f bd c0 f9 1d bc f1 4c 5b bd 7c 2d 14 3d
       -0.046872992 -0.009642065 -0.053540174 0.03617619
000010 f9 ff 32 bd 22 d7 86 bd dc 37 f3 bc 50 5b 5a bc
       -0.043701146 -0.06584002 -0.029689722 -0.013327435
000020 8b 6a bc bd ca 6e 99 bd 46 5d b5 3d a6 e9 63 bd
       -0.09200009 -0.074918345 0.08855681 -0.055642746
000030 80 e3 3c 3d c4 03 6c 3d e8 a3 89 3d 9c 21 9a bc
       0.0461154 0.05762078 0.06720716 -0.018814854

linear_relu_stack.6.weight f4 [4, 16]
000000 20 7b 99 3d 22 e6 4f be a8 5b 98 3d 74 7e a2 3d
       0.07494187 -0.20302632 0.07439357 0.07934275
000010 60 22 9e 3d 98 9e 47 3d 10 94 df bc f0 80 8f 3d
       0.077214 0.04873523 -0.027292281 0.07007015
000020 5e 28 13 3e 98 28 ac bd a4 ae f3 bd 78 f6 67 be
       0.14370868 -0.0840618 -0.118985444 -0.22652614
000030 90 ee 9a bc 1a 16 60 be 34 92 4b 3e 38 e3 b0 bd
       -0.018912584 -0.21883431 0.19879991 -0.086370885
000040 14 2c 90 3d 9c cc 50 be 46 23 18 3e 40 fe 24 3d
       0.07039657 -0.20390552 0.14857206 0.040281534
000050 d2 4f 27 be 50 2e 41 be 94 f3 53 3e e4 0a 63 3e
       -0.16339043 -0.18865323 0.20698386 0.22172123
000060 5a e1 66 3e 9a 22 3c be 28 27 66 3e 7c 1a 42 be
       0.22546902 -0.18372574 0.22475874 -0.18955415
000070 44 e9 e7 3d 10 39 38 bd 7c a4 b7 3d 56 2b 2b be
       0.11323789 -0.044976294 0.0896692 -0.1671575
000080 f0 22 fe bd 10 ce 08 bd 0e b1 65 3e c6 e2 4a 3e
       -0.124090075 -0.03339964 0.22430822 0.1981307
000090 3c 25 77 be 20 46 00 3c d4 9e 35 3e 58 17 5c be
       -0.24135298 0.007829219 0.1773637 -0.2149328
0000a0 3e 4b 28 3e 04 4c f1 bd d0 58 2d bd c4 51 74 3e
       0.16434953 -0.11782077 -0.042321026 0.23859316
0000b0 c0 59 86 bc 1c 07 11 3e 4a f6 58 be e0 15 bb 3c
       -0.016400218 0.14162868 -0.21187702 0.02283758
0000c0 a0 93 03 3d 1a 18 4c 3e 4c f5 1a 3e 5e be 4b 3e
       0.032123208 0.19931069 0.15132636 0.19896838
0000d0 00 48 5c bd 74 88 59 be 74 c9 97 3d 70 86 19 3e
       -0.053779602 -0.21243459 0.07411471 0.1499269
0000e0 f4 f9 05 be 3a 98 25 be 10 c7 49 3e 80 20 f2 bc
       -0.13083631 -0.16171351 0.19704843 -0.029556513
0000f0 42 30 17 3e 8c a0 0d be 0a 94 1f 3e 2c 75 cf bd
       0.14764503 -0.13830775 0.15583816 -0.10129771

linear_relu_stack.6.bias f4 [4]
000000 88 09 b2 bd 44 31 46 be f0 55 6f 3d 7c 6d 53 3e
       -0.08693224 -0.19354731 0.058431566 0.20647234
