v1_TrainAI_ep100.pth (torch, 375855 bytes, 24 tensors)

linear_relu_stack.0.weight f4 [256, 16]
0.089816615 0.15381669 -0.09392687 0.11485296 -0.048224524 -0.012624225 -0.08827962 0.16292231
0.1046132 -0.057268076 -0.047876768 0.11228276 0.1790221 -0.15103492 -0.1638226 -0.18302396
0.051372025 0.040768314 0.1385177 -0.099031426 -0.06420969 -0.19807449 0.123370074 0.031158648
0.10998261 -0.12258979 -0.079944685 -0.2256889 -0.19633792 0.09652022 0.1509444 -0.24092089
0.06923744 0.17689858 0.1337926 -0.048120137 0.21999887 0.006509756 0.24239887 0.20077522
0.028266646 0.030494994 0.12312477 -0.08140403 -0.048088897 -0.09434709 0.065620996 -0.06858756
-0.034649976 -0.043215953 -0.015138036 0.13650204 -0.18184993 -0.02958464 0.20745955 -0.098459706
-0.06918438 -0.17605402 0.09645742 0.18451795 0.009802608 0.048862625 -0.018603893 0.14086618
0.030278625 -0.14694868 -0.1496015 -0.13313678 0.21804892 0.0005003796 -0.24285188 0.08166441
-0.18004572 -0.18615144 -0.049252167 -0.010972809 -0.019767191 0.24274999 -0.24733327 0.10784908
-0.017324587 -0.117588654 0.13141981 -0.03616466 0.11629435 0.039300654 -0.15921532 -0.016665729
0.23913218 0.02026934 0.19095221 -0.121926725 -0.22354475 0.23573859 0.11112375 -0.20540962
0.06652457 -0.19821627 -0.022674717 0.14273956 0.14247324 -0.120524354 -0.23206301 0.235686
0.059414197 0.008618964 -0.24529113 0.21274436 -0.07095306 0.018238245 -0.24951561 0.13709189
0.06283475 -0.11355737 0.12254676 0.24138317 -0.19215347 0.18843733 -0.091973096 0.13932177
-0.10711712 -0.11301932 0.034258205 0.029626591 -0.18934606 0.21125633 0.21663621 0.046991117
0.08884655 -0.18563458 0.20701689 -0.07850877 -0.0051820204 0.16578013 0.04611957 -0.03804061
-0.06744189 -0.20210628 0.22576003 -0.082052514 -0.052797616 0.22075821 0.067547545 -0.068357706
-0.01158102 -0.12558675 0.08803873 0.21398072 0.005836118 -0.03658886 -0.04417114 -0.12604901
-0.049433842 -0.14980121 -0.009559585 -0.11255472 -0.15794754 0.0082725175 0.15791379 0.19510308
-0.21662457 0.24011847 -0.0034344757 -0.175812 -0.00048029763 -0.15367153 0.20072368 0.22720626
-0.019359356 -0.09247863 -0.18834254 0.09565909 0.027263014 0.2461839 -0.20353954 0.12584579
0.15567867 -0.082511805 -0.07383719 -0.2350601 -0.10585472 0.025048712 0.17168657 0.008355379
-0.110124506 -0.078390956 -0.15413116 0.080927216 -0.0072426517 -0.010644565 0.0534196 -0.1845606
0.09179121 -0.0741208 0.052584577 0.013529134 -0.22493865 -0.050309844 0.24042204 -0.045874972
-0.10834794 -0.17206135 -0.05914942 -0.17877793 -0.13154115 0.10084585 -0.10283248 -0.14360818
0.21165714 -0.0056753024 -0.14808801 -0.21992868 0.13393043 -0.04092799 0.13766415 -0.17918444
-0.10069681 -0.05025755 -0.0025452755 -0.18432899 -0.042516403 0.037712786 -0.027447758 0.11250072
0.11689995 0.05368298 -0.23041861 0.12152977 -0.05671752 0.21848468 -0.18492366 -0.104167074
-0.104055546 -0.23893873 0.24278174 0.11016721 0.20473154 0.24389993 -0.15896651 0.210832
0.11439377 -0.18268996 -0.0044104517 0.2281784 -0.010729304 -0.19491944 0.017496774 0.08357586
0.21910082 -0.1019313 -0.008757693 0.116603605 -0.06420731 0.13544606 -0.10907087 0.12329477
00000000: c6f1 b73d 1f82 1d3e bb5c c0bd 0738 eb3d
00000010: 1487 45bd d6d5 4ebc f2cb b4bd 1bd5 263e
00000020: 723f d63d ee91 6abd 6e1a 44bd 81f4 e53d
00000030: 9251 373e e6a8 1abe 1dc1 27be a26a 3bbe
00000040: 796b 523d adfc 263d 95d7 0d3e fdd0 cabd
00000050: 5f80 83bd 0ad4 4abe 73a9 fc3d 6c40 ff3c
00000060: 903e e13d 5b10 fbbd 0aba a3bd fe1a 67be
00000070: cf0c 49be 65ac c53d 2b91 1a3e f7b3 76be
00000080: 5ccc 8d3d e724 353e ed00 093e 9f19 45bd
00000090: 6247 613e cb4f d53b 6937 783e 0598 4d3e
000000a0: 748f e73c a3d0 f93c d728 fc3d 28b7 a6bd
000000b0: ddf8 44bd 0c39 c1bd 4d64 863d a277 8cbd
000000c0: 22ed 0dbd 3603 31bd 8605 78bc 31c7 0b3e
000000d0: de36 3abe 7d5b f2bc 4770 543e 3ea5 c9bd
000000e0: 8ab0 8dbd 8147 34be 788b c53d 46f2 3c3e
000000f0: 1e9b 203c 2d24 483d 3167 98bc 393f 103e
00000100: e10a f83c b779 16be 2331 19be 0255 08be
00000110: 3748 5f3e e82b 033a 2aae 78be ac3f a73d
00000120: e85d 38be 7c9e 3ebe a4bc 49bd 4cc7 33bc
00000130: ceee a1bc 7493 783e ef44 7dbe fadf dc3d
00000140: 4bec 8dbc 52d2 f0bd ea92 063e 6521 14bd
00000150: bb2b ee3d b9f9 203d 5709 23be 9186 88bc
00000160: 11df 743e e30b a63c fa88 433e b8b4 f9bd
00000170: eae8 64be 7565 713e d994 e33d e656 52be
00000180: 093e 883d 35f9 4abe 54c0 b9bc 522a 123e
00000190: 81e4 113e 79d5 f6bd eda1 6dbe ac57 713e
000001a0: 4d5c 733d 8e36 0d3c 992d 7bbe a8d9 593e
000001b0: d74f 91bd 5f68 953c 0581 7fbe d161 0c3e
000001c0: 81af 803d c490 e8bd ccf9 fa3d 262d 773e
000001d0: e1c3 44be b7f5 403e 645c bcbd 5eaa 0e3e
000001e0: 3860 dbbd ac76 e7bd 5552 0c3d 77b3 f23c
000001f0: efe3 41be 9453 583e e2d5 5d3e c279 403d
00000200: 2ef5 b53d fe16 3ebe 3cfc 533e 35c9 a0bd
00000210: f0cd a9bb 44c2 293e e0e7 3c3d 78d0 1bbd
00000220: f91e 8abd f3f4 4ebe a32d 673e 260b a8bd
00000230: 5042 58bd 710e 623e 5e56 8a3d 20ff 8bbd
00000240: 52be 3dbc d099 00be a64d b43d c31d 5b3e
00000250: e83c bf3b 33de 15bd ccec 34bd fe12 01be
00000260: 247b 4abd 7d65 19be ce9f 1cbc 1783 e6bd
00000270: 00bd 21be 7489 073c 27b4 213e 1ac9 473e
00000280: d5d2 5dbe 9ee1 753e f114 61bb 1008 34be
00000290: 75d0 fbb9 125c 1dbe 828a 4d3e c2a8 683e
000002a0: 8397 9ebc 7065 bdbd dedc 40be eae8 c33d
000002b0: af56 df3c a217 7c3e ab6c 50be b8dd 003e
000002c0: 3b6a 1f3e f3fb a8bd f437 97bd 98b3 70be
000002d0: 5cca d8bd f532 cd3c 9bce 2f3e 00e5 083c
000002e0: f588 e1bd 708b a0bd 8fd4 1dbe 2bbd a53d
000002f0: c453 edbb 8b66 2ebc 83ce 5a3d 74fd 3cbe
00000300: 08fd bb3d a5cc 97bd ed62 573d 4da9 5d3c
00000310: 5156 66be b211 4ebd 3231 763e 65e7 3bbd
00000320: 86e5 ddbd da30 30be aa46 72bd 9011 37be
00000330: b9b2 06be 4588 ce3d d699 d2bd 060e 13be
00000340: a6bc 583e e3f7 b9bb 62a4 17be fc34 61be
00000350: 0f25 093e 1ca4 27bd d5f7 0c3e 207c 37be
00000360: 213a cebd dcda 4dbd a3ce 26bb bdc0 3cbe
00000370: ae25 2ebd b978 1a3d 1fda e0bc c766 e63d
00000380: 3e69 ef3d afe2 5b3d dbf2 6bbe 9ae4 f83d
00000390: a150 68bd 73ba 5f3e a15c 3dbe 8c55 d5bd
000003a0: 131b d5bd 5bac 74be c79b 783e 599f e13d
000003b0: 25a5 513e e7c0 793e 1ec8 22be 58e4 573e
000003c0: 4847 ea3d 1413 3bbe 8d85 90bb 99a7 693e
000003d0: f6c9 2fbc f698 47be 6555 8f3c d229 ab3d
000003e0: f75b 603e 5bc1 d0bd 6d7c 0fbc dfcd ee3d
000003f0: 1f7f 83bd 5fb2 0a3e 8c60 dfbd f881 fc3d

linear_relu_stack.0.bias f4 [256]
-0.22326426 -0.11862716 0.18713816 0.14483273 -0.028571066 -0.023261633 0.15375893 0.11588969
0.20390883 0.14259918 -0.012835533 0.053346734 0.043369602 0.16146834 0.24453816 0.018765902
0.23583482 -0.012252807 0.11638214 0.07490128 -0.21178539 0.011078296 0.14129151 -0.19771358
0.02461617 0.15454529 -0.09687656 0.036350444 0.024361439 -0.010862414 -0.07786935 0.015324664
0.035324186 0.16020344 -0.0026665214 0.066801116 -0.107077345 -0.14087437 -0.17390108 0.035474434
-0.17714745 -0.08065943 -0.16890912 -0.14956944 -0.056652475 0.12690514 0.18958025 0.003349655
0.22072403 0.032415293 -0.07895791 -0.20299989 -0.11155592 0.028151581 -0.11468848 -0.021554925
0.004176721 0.22256504 -0.23852418 0.07268282 0.034789335 -0.14933833 0.22687167 0.096647225
-0.030894222 0.21099775 0.17835674 0.038118612 0.083863854 0.017272385 -0.14645754 -0.19026175
-0.16177715 -0.10247671 -0.23641106 0.1685874 0.1943842 0.03264413 0.12872204 0.16327274
0.11879383 0.01121836 0.19659202 0.15631019 -0.06320221 0.09018808 -0.18826637 0.11020228
-0.025130156 -0.03259235 -0.035220224 0.14778276 0.1175287 0.24872674 -0.22291 0.24869724
-0.14741372 0.06693516 0.122153364 0.2173496 0.2403855 -0.12829414 -0.09269372 0.04424162
-0.034206353 0.10774062 0.012966546 -0.1290591 -0.17368889 -0.11523744 -0.052840594 -0.05680871
-0.07732443 0.05633814 0.06864496 -0.04407511 -0.028202737 -0.11324904 -0.19323213 0.14167759
-0.102749534 0.20369324 0.076225884 0.0238312 -0.18817846 0.001219651 -0.15351176 0.19060847
-0.22511594 0.07500395 0.22293507 0.22422323 -0.20161766 -0.06556658 -0.12261024 0.13525869
-0.18862936 0.11386922 0.11087163 0.117657825 -0.055495508 -0.19619237 0.044146102 -0.13973038
-0.033534642 0.22064619 0.17328751 -0.029330356 -0.23307268 -0.043413784 -0.088634335 -0.21448518
-0.21750742 0.10983168 -0.20144224 -0.20599534 -0.12614591 -0.246536 0.19930422 0.1452836
0.20876935 0.09113896 0.062002983 -0.13529813 0.030375063 -0.243844 0.20226206 -0.1541184
-0.080791384 0.24025054 -0.11701979 0.07234052 -0.20523456 -0.05373487 0.18607545 0.03075779
0.2489351 0.17024347 -0.116506204 0.1019826 -0.21521148 -0.0061197276 0.030875565 -0.02041762
-0.18045017 -0.010393859 0.14368741 -0.21142119 -0.08966029 0.14505003 0.2424303 -0.23875687
0.16951038 0.03396683 -0.1180975 -0.21325375 0.09124219 -0.17810744 0.2287962 -0.15281974
-0.20901659 0.12225078 -0.17980807 -0.0460603 -0.07583535 -0.05809563 0.20273669 0.21815796
-0.17359711 -0.025202941 0.052763615 -0.17197372 -0.16913238 -0.07645462 0.20902789 0.05100111
0.20176472 -0.059076864 0.14406647 -0.13069516 -0.084922984 -0.17112581 -0.22572713 -0.20089896
-0.12335258 -0.0896364 -0.13826379 -0.121181704 0.18751146 -0.16440038 0.042344004 0.15369383
-0.14845672 -0.044339996 0.01711433 -0.087302946 0.13109788 -0.24163513 0.18773331 0.0040375916
0.22196446 -0.071835496 -0.033963464 -0.14029722 -0.013059024 -0.05576022 0.107836835 0.075412825
0.23422194 -0.07126211 0.20690358 0.10167983 -0.17031433 0.19429292 0.19880126 -0.036213856
00000000: 639f 64be ccf2 f2bd 25a1 3f3e 084f 143e
00000010: de0d eabc 2e8f bebc fb72 1d3e 9357 ed3d
00000020: 7acd 503e 8505 123e 214c 52bc 1b82 5a3d
00000030: 53a4 313d f557 253e 3668 7a3e f3ba 993c
00000040: af7e 713e ffbf 48bc c259 ee3d d865 993d
00000050: 45de 58be be81 353c b9ae 103e 6e75 4abe
00000060: daa7 c93c 1f41 1e3e 3867 c6bd 34e4 143d
00000070: a491 c73c 44f8 31bc f779 9fbd 4d14 7b3c
00000080: 18b0 103d 5f0c 243e cec0 2ebb 06cf 883d
00000090: 5e4b dbbd 5f41 10be 2013 32be a44d 113d
000000a0: 2466 35be c530 a5bd 83f6 2cbe bb28 19be
000000b0: 6d0c 68bd 6cf3 013e 5321 423e e385 5b3b
000000c0: 7b05 623e e6c5 043d afb4 a1bd 34df 4fbe
000000d0: 6e77 e4bd 259e e63c cbe1 eabd f493 b0bc
000000e0: e0dc 883b 17e8 633e af3f 74be bbda 943d
000000f0: 437f 0e3d 26ec 18be 0c51 683e fbee c53d
00000100: e115 fdbc cb0f 583e 26a3 363e 4322 1c3d
00000110: d0c0 ab3d d17e 8d3c f7f8 15be fad3 42be
00000120: e9a8 25be 4fdf d1bd be15 72be 2da2 2c3e
00000130: a70c 473e dab5 053d b6cf 033e f830 273e
00000140: 2e4a f33d 36cd 373c 6b4f 493e c70f 203e
00000150: 2970 81bd 87b4 b83d e6c8 40be bcb1 e13d
00000160: c2dd cdbc 8e7f 05bd 1543 10bd 5d54 173e
00000170: e3b2 f03d 39b2 7e3e 8542 64be 7daa 7e3e
00000180: 9ff3 16be 4d15 893d 8b2b fa3d e590 5e3e
00000190: 9e27 763e 8a5f 03be 34d6 bdbd b336 353d
000001a0: f61b 0cbd 1da7 dc3d a371 543c 1228 04be
000001b0: 80db 31be 9b01 ecbd 616f 58bd 40b0 68bd
000001c0: 455c 9ebd d2c2 663d bb95 8c3d 1a88 34bd
000001d0: 6d09 e7bc 1def e7bd a5de 45be ee13 113e
000001e0: 596e d2bd f694 503e 511c 9c3d a639 c33c
000001f0: dbb1 40be b2dc 9f3a 3032 1dbe de2e 433e
00000200: cb84 66be ac9b 993d 1749 643e c69a 653e
00000210: dc74 4ebe c547 86bd 141b fbbd 4181 0a3e
00000220: 0e28 41be 4434 e93d aa10 e33d 96f6 f03d
00000230: 424f 63bd a7e6 48be 8bd2 343d 7b15 0fbe
00000240: 9f5b 09bd 13f1 613e 4872 313e 3746 f0bc
00000250: 9baa 6ebe a7d2 31bd eb85 b5bd 01a2 5bbe
00000260: 44ba 5ebe 6fef e03d e046 4ebe 71f0 52be
00000270: 652c 01be ef73 7cbe 6816 4c3e 39c5 143e
00000280: a2c7 553e 10a7 ba3d d7f6 7d3d 988b 0abe
00000290: 20d5 f83c 3eb2 79be c91d 4f3e 37d1 1dbe
000002a0: f475 a5bd 3d04 763e 12a8 efbd 4427 943d
000002b0: 0229 52be 1819 5cbd 908a 3e3e c3f7 fb3c
000002c0: d8e8 7e3e 4e54 2e3e ce9a eebd 41dc d03d
000002d0: 6660 5cbe ff87 c8bb c1ee fc3c da42 a7bc
000002e0: eec7 38be 014b 2abc cb22 133e cc7e 58be
000002f0: d09f b7bd ff87 143e a63f 783e ae7c 74be
00000300: 2194 2d3e cd20 0b3d 1add f1bd 315f 5abe
00000310: 2fdd ba3d cc61 36be 8d49 6a3e c77c 1cbe
00000320: 7208 56be 9e5e fa3d 9b1f 38be baa9 3cbd
00000330: 904f 9bbd aff5 6dbd 359a 4f3e cd64 5f3e
00000340: 71c3 31be 6676 cebc a91e 583d e119 30be
00000350: 0a31 2dbe 3d94 9cbd 680b 563e 8ae6 503d
00000360: 699b 4e3e 95fa 71bd 2986 133e f4d4 05be
00000370: 1aec adbd 9b3b 2fbe 0325 67be 75b8 4dbe
00000380: 47a0 fcbd 4a93 b7bd 0695 0dbe 1d2e f8bd
00000390: 0103 403e 9358 28be e870 2d3d ea61 1d3e
000003a0: 0a05 18be db9d 35bd 5a33 8c3c e3cb b2bd
000003b0: 863e 063e 336f 77be 293d 403e c64d 843b
000003c0: a74a 633e 7d1e 93bd 461d 0bbd 13aa 0fbe
000003d0: 84f5 55bc d464 64bd 8fd9 dc3d 0a72 9a3d
000003e0: e0d7 6f3e def1 91bd 88de 533e 843d d03d
000003f0: e166 2ebe b9f4 463e 8f92 4b3e fb54 14bd

linear_relu_stack.2.weight f4 [96, 256]
0.03698292 0.035887547 -0.013357871 -0.026827957 -0.057533413 9.1941e-05 -0.013945501 -0.059098735
0.036830515 -0.010624297 0.05244405 -0.021609642 -0.021018378 -0.01220532 -0.018079577 0.047899414
0.040287722 -0.025309943 -0.056958523 0.02395448 -0.005535122 0.010261399 0.012115319 0.020101547
-0.028016176 0.050057944 -0.00070832705 -0.017564671 -0.032793343 -0.0025722934 0.032025818 0.033681612
-0.059203424 -0.033349514 -0.019677643 0.011623269 -0.0071833218 -0.051079478 -0.060956202 0.042100895
0.047436528 -0.02155445 0.0057014604 -0.011303056 0.036205385 0.012947477 0.04607162 0.049704984
-0.04674072 -0.017537188 -0.036933675 0.034083154 -0.01722451 0.040089503 0.0074214134 0.038723562
-0.035725653 -0.046784166 -0.0047775093 0.0027710646 0.024073625 0.007005145 0.053265017 0.045702633
-0.002853883 -0.027060626 -0.046450336 -0.041844442 -0.004630586 0.010194892 0.044995893 0.049278267
0.032703716 -0.0066874838 0.03180087 0.056537803 -0.04521479 0.042219806 0.025392164 0.0012874719
0.054982413 0.035251446 0.0032233445 0.036269728 -0.018133525 -0.008308881 0.02666236 -0.042130426
-0.02492695 0.028858675 -0.024081446 0.059553348 0.049698796 -0.048022565 -0.051254883 0.04022919
0.026423568 -0.010106666 -0.042838436 -0.021233646 0.059440583 0.048228253 0.048575044 -0.04226233
0.039559845 0.039980978 0.007741447 0.030233173 -0.021954888 -0.030099127 0.057550054 0.028985946
0.02759416 0.0042511486 -0.056572404 0.03990687 -0.04325407 0.0609157 0.020132117 0.050086822
-0.04153032 -0.017315201 0.0021413171 -0.043366052 -0.059579566 -0.05849029 0.0021012968 0.046274897
-0.058150288 -0.011808066 0.046366144 -0.054861084 -0.0028221328 -0.05308085 0.03654562 0.022398612
-0.04213821 -0.045456357 -0.026733147 -0.02154789 0.05695654 0.01569464 -0.043495584 -0.055264212
0.04033592 -0.028566314 -0.00885961 -0.060132455 0.0034589444 -0.04621122 0.05301078 -0.012917554
-0.036020044 0.025919814 0.053830475 -0.043712225 0.029056104 -0.054716017 0.030458946 -0.043082308
0.060782187 0.062979236 0.029536743 -0.026938058 -0.030957555 -0.002576067 0.04047183 0.027229246
0.032679766 0.03231806 -0.04508353 -0.03595416 -0.032006584 0.04025462 -0.004017673 0.015396779
-0.030206801 -0.0014484294 0.054648776 -0.0030570864 -0.018229235 0.052532945 -0.042916883 0.005561334
0.00032799173 0.0191541 -0.016195629 0.03659026 0.05514229 -0.038266893 -0.05864067 0.012716537
0.035610024 0.0014543517 0.015455419 0.03310689 0.022854446 -0.011802252 -0.05610755 -0.019688172
0.035936736 0.052884202 -0.024831224 0.056641363 -0.005693071 0.04695077 0.035586935 0.04102716
0.0493392 -0.06055365 0.01932858 0.012886175 0.011008118 -0.019866167 -0.022018055 -0.025145402
-0.029152475 0.016764244 0.04517323 -0.02177895 0.026259102 -0.0067938846 0.00063056155 0.050762217
0.0123858005 0.02522915 -0.052930404 -0.040300097 -0.027671626 -0.008075371 -0.05375747 -0.016407207
0.03217004 0.031669043 -0.047892824 0.034811355 -0.0589124 0.049052592 -0.036342874 -0.04830961
0.048554335 0.046730615 -0.055178147 -0.011449043 -0.039027635 -0.0064942418 0.054648217 -0.023642046
0.048242215 -0.06282973 -0.045426384 -0.041936513 -0.05185675 0.007303986 0.055379078 0.02178489
00000000: 677b 173d d2fe 123d f9da 5abc 4ec6 dbbc
00000010: 28a8 6bbd 73d0 c038 ac7b 64bc 8411 72bd
00000020: 98db 163d 8811 2ebc 92cf 563d b406 b1bc
00000030: bc2e acbc d3f8 47bc 9f1b 94bc 2d32 443d
00000040: bd04 253d cc56 cfbc 574d 69bd 303c c43c
00000050: f85f b5bb 6d1f 283c 557f 463c 00ac a43c
00000060: 2e82 e5bc 8f09 4d3d 06af 39ba c9e3 8fbc
00000070: 5052 06bd ec93 28bb 812d 033d bbf5 093d
00000080: 4a7f 72bd 8099 08bd 0233 a1bc 866f 3e3c
00000090: 1262 ebbb b738 51bd 36ad 79bd fd71 2c3d
000000a0: ce4c 423d f592 b0bc 51d3 ba3b 7430 39bc
000000b0: 194c 143d a821 543c 98b5 3c3d 7497 4b3d
000000c0: 3273 3fbd 26aa 8fbc c447 17bd c79a 0b3d
000000d0: 6a1a 8dbc e434 243d 542f f33b 999c 1e3d
000000e0: 1055 12bd c1a0 3fbd a78c 9cbb c09a 353b
000000f0: 0d36 c53c 6a8b e53b 6b2c 5a3d af32 3b3d
00000100: 3608 3bbb 3fae ddbc b542 3ebd 1465 2bbd
00000110: 2cbc 97bb 7a08 273c 9d4d 383d 02d8 493d
00000120: 55f4 053d ae22 dbbb a141 023d 2f94 673d
00000130: 2533 39bd adee 2c3d 3a03 d03c 63c0 a83a
00000140: 3d35 613d d263 103d bf3e 533b 918f 143d
00000150: c28c 94bc f921 08bc 066b da3c f490 2cbd
00000160: 9a33 ccbc 0769 ec3c 7446 c5bc 36ee 733d
00000170: f790 4b3d 4fb3 44bd a4f0 51bd 5dc7 243d
00000180: 3d76 d83c 6e96 25bc 5b77 2fbd 2ff2 adbc
00000190: f877 733d fd8a 453d a0f6 463d 441b 2dbd
000001a0: 8109 223d 18c3 233d f7ab fd3b 8fab f73c
000001b0: bdda b3bc 7292 f6bc 9bb9 6b3d ef73 ed3c
000001c0: 260d e23c 384d 8b3b 77b8 67bd 6375 233d
000001d0: 2e2b 31bd be82 793d 1cec a43c d727 4d3d
000001e0: b21b 2abd 9cd8 8dbc 5755 0c3b 9aa0 31bd
000001f0: b409 74bd 8493 6fbd e9b5 093b bf8a 3d3d
00000200: ff2e 6ebd 9e76 41bc 6dea 3d3d 04b6 60bd
00000210: 88f3 38bb 4e6b 59bd dcb0 153d 4b7d b73c
00000220: 1e99 2cbd 7230 3abd 79ff dabc 3385 b0bc
00000230: 434b 693d 0c92 803c 6d28 32bd ba5c 62bd
00000240: 4737 253d e703 eabc e627 11bc 734d 76bd
00000250: 75af 623b fa47 3dbd d521 593d 26a4 53bc
00000260: c189 13bd ca55 d43c 587d 5c3d 970b 33bd
00000270: 1107 ee3c e71d 60bd 0a85 f93c 1377 30bd
00000280: bef6 783d 42fb 803d 0af7 f13c 34ad dcbc
00000290: b39a fdbc 3cd3 28bb cac5 253d de0f df3c
000002a0: 38db 053d f15f 043d 82a9 38bd ab44 13bd
000002b0: 5619 03bd 07e2 243d afa6 83bb c642 7c3c
000002c0: 4174 f7bc 3ad9 bdba 65d7 5f3d 6659 48bb
000002d0: 7a55 95bc c92c 573d 9dc9 2fbd da3b b63b
000002e0: 4ef6 ab39 0fe9 9c3c b2ac 84bc abdf 153d
000002f0: e2dc 613d bfbd 1cbd 3331 70bd 0659 503c
00000300: d1db 113d f29f be3a ba38 7d3c 179b 073d
00000310: 3f39 bb3c 3c5e 41bc 08d1 65bd 1749 a1bc
00000320: 6632 133d 1b9d 583d da6a cbbc c600 683d
00000330: f18c babb 734f 403d 9bc3 113d 180c 283d
00000340: e717 4a3d 1b07 78bd f856 9e3c 8920 533c
00000350: 655b 343c 5fbe a2bc 355f b4bc bbfd cdbc
00000360: 2cd1 eebc 2b55 893c 9107 393d c569 b2bc
00000370: 541d d73c 3c9f debb 454c 253a 0bec 4f3d
00000380: d0ed 4a3c 5dad ce3c 8dcd 58bd b711 25bd
00000390: 9baf e2bc 904e 04bc cb30 5cbd 6868 86bc
000003a0: bbc4 033d 66b7 013d 442b 44bd 5a96 0e3d
000003b0: 214e 71bd 5feb 483d 44dc 14bd 4ce0 45bd
000003c0: e9e0 463d 9a68 3f3d 7b02 62bd c494 3bbc
000003d0: 71db 1fbd a6cd d4bb cfd6 5f3d f7ac c1bc
000003e0: a199 453d e0ac 80bd 0411 3abd 9fc5 2bbd
000003f0: be67 54bd 4756 ef3b 2cd5 623d 3a76 b23c

linear_relu_stack.2.bias f4 [96]
0.057281367 -0.01429399 0.01844787 0.041110132 -0.05489585 0.034567617 0.02554159 0.04669217
-0.010063461 0.021900665 0.020834306 0.025279287 0.022869349 0.037462395 -0.048231438 0.058680896
-0.021820601 0.029327428 -0.031471252 -0.04765802 -0.013763255 0.009128632 -0.04877098 -0.0308449
-0.05981538 0.04941132 0.04710086 -0.03808197 0.06306221 -0.025729252 -0.047214728 -0.052379586
-0.021804439 -0.009285428 -0.05432764 0.060230464 -0.006035547 0.025598785 -0.0065611643 -0.00858712
0.051631097 0.016960157 0.021771774 0.043789674 0.026357424 -0.02465225 0.0595445 0.04540603
0.053020507 0.06178386 0.0014889035 -0.048980493 -0.0057426034 -0.015935669 0.024107289 0.009166045
-0.020357575 -0.006186579 0.047869116 -0.029424425 -0.0123472065 0.034315582 -0.049353976 0.037369013
-0.0062138946 0.044244636 -0.05758785 0.012786189 0.0032575857 0.011692845 -0.022079982 -0.061859418
0.031052504 0.054592434 -0.027944015 -0.046662442 0.014354649 0.024733579 -0.027584843 -0.06138409
-0.0010732759 0.0060899467 -0.0074648536 -0.057557665 0.048301704 -0.017398663 -0.046250343 0.005160775
0.04971048 -0.044298153 -0.030046627 0.06283153 -0.01889889 0.056639053 -0.013462764 0.033800066
00000000: de9f 6a3d 5731 6abc fd1f 973c 1963 283d
00000010: 79da 60bd c696 0d3d 993c d13c 4a40 3f3d
00000020: 37e1 24bc 0669 b33c b5ac aa3c 8216 cf3c
00000030: 8058 bb3c 2b72 193d 548e 45bd 615b 703d
00000040: 1ec1 b2bc 1340 f03c 00e8 00bd 0e35 43bd
00000050: 477f 61bc 4290 153c 14c4 47bd 72ae fcbc
00000060: f900 75bd 8663 4a3d d5ec 403d d7fb 1bbd
00000070: c326 813d 27c6 d2bc 3b64 41bd fa8b 56bd
00000080: 399f b2bc e821 18bc a986 5ebd 38b4 763d
00000090: d6c5 c5bb 8bb4 d13c 09ff d6bb feb0 0cbc
000000a0: 217b 533d 07f0 8a3c b85a b23c cd5c 333d
000000b0: 86eb d73c 84f3 c9bc efe4 733d acfb 393d
000000c0: 082c 593d 1311 7d3d 5027 c33a c59f 48bd
000000d0: 732c bcbb 858b 82bc a67c c53c 2e2d 163c
000000e0: eec4 a6bc c9b8 cabb 6812 443d 7e0b f1bc
000000f0: f04b 4abc 7f8e 0c3d 6527 4abd 4010 193d
00000100: ed9d cbbb dd39 353d 3de1 6bbd 2a7d 513c
00000110: 387d 553b 5993 3f3c 14e1 b4bc 4d60 7dbd
00000120: d261 fe3c 519c 5f3d d9ea e4bc 1e21 3fbd
00000130: c32f 6b3c 139e ca3c 9cf9 e1bc e26d 7bbd
00000140: 2aad 8cba 2d8e c73b bb9b f4bb 96c1 6bbd
00000150: 02d8 453d a487 8ebc 0071 3dbd b81b a93b
00000160: 379d 4b3d fb71 35bd 5824 f6bc d1ad 803d
00000170: d8d1 9abc 5afe 673d ed92 5cbc f071 0a3d

linear_relu_stack.4.weight f4 [16, 96]
0.08766425 0.051163156 0.013787834 -0.07683449 -0.07239253 0.08814921 0.07645265 0.08505613
0.068105526 0.058327198 0.04468394 0.0012821798 0.07731265 0.09947631 0.0022955062 0.012563458
0.04122324 0.04590096 -0.023980906 0.06562754 -0.08178281 -0.063266896 0.030643761 0.00078257045
0.032791544 -0.08969734 -0.011409724 -0.0024082018 0.0858245 0.051198952 0.025783287 -0.015891194
-0.054866027 -0.017838905 -0.052222133 -0.09464529 -0.08536564 -0.08674117 0.0063069495 -0.052454986
-0.07812547 -0.017199887 0.06791813 0.00942097 -0.047370844 0.067513086 -0.08149428 -0.098244146
0.044652842 0.0024499658 0.08302883 -0.03926952 0.052013107 0.04443827 -0.08223509 0.0794557
-0.0054958086 -0.040009033 -0.010124814 -0.0258936 0.058251604 -0.022317722 -0.09730069 -0.082794294
-0.0542543 0.041251637 -0.036940735 0.047340807 0.0668836 0.100344084 0.041146565 0.07284807
0.059146456 -0.039986122 0.01462764 -0.083714254 -0.007083674 -0.072572105 0.035589673 0.0700206
-0.033849888 -0.023124231 0.06359927 0.017378781 0.04709692 0.07883729 -0.044296835 -0.074081644
0.04787974 0.036844 -0.018595073 0.020357234 -0.091536365 0.015727824 -0.01536942 -0.08962578
-0.027529337 0.032471325 -0.03608688 -0.018624866 -0.07966097 -0.082986906 0.08674666 0.026159832
0.061621223 -0.012116001 -0.05656382 0.083800055 -0.04013422 -0.09078815 -0.018104944 0.05487573
0.05003431 0.001767106 -0.09574016 -0.06038817 0.092416696 -0.037145074 -0.05294292 -0.0067062867
0.08005999 0.095541246 -0.01872355 -0.07633588 -0.057773896 -0.058741774 -0.100099735 -0.018455846
0.07359494 0.07127623 -0.08300144 0.061282218 0.063107826 -0.073065065 -0.07226756 0.024035394
-0.020236954 0.0064620813 0.052751362 -0.0053805336 -0.06882022 0.076581456 0.009281635 -0.040340237
-0.0691325 0.06899984 -0.08944807 -0.06885658 -0.013293696 -0.055801872 -0.057127684 -0.061393794
0.017002385 0.074331924 -0.0065629994 -0.0064772293 -0.09991529 0.07791651 -0.060341686 -0.022774689
0.10021258 0.07933808 -0.0042048134 -0.06277743 0.0040248614 -0.021665718 -0.017527703 0.030605137
-0.0036289971 0.06302245 -0.04345853 0.020418815 0.08467156 0.0053690267 -0.09624391 0.092320845
-0.02027975 0.017520582 -0.084937476 0.0013507977 -0.067512654 0.06988448 0.09950146 0.043827217
-0.08948546 -0.016374463 0.047461092 0.033359565 0.022527564 -0.10220794 0.09030841 -0.09723531
-0.0118843615 0.075033836 0.06835937 0.009570093 -0.0018955943 -0.09170912 0.06801445 -0.09058755
-0.08809538 0.014637243 0.038104642 0.047447003 -0.015344342 0.0646213 0.03148461 0.056669496
-0.053809196 -0.04266504 -0.06816766 -0.093943395 -0.042237308 -0.057579592 0.029231653 0.069146626
0.047922052 -0.035032716 0.08467745 0.05732745 0.02030123 0.09109165 0.086171 0.100700475
-0.023777261 0.002912391 -0.01634322 0.047165558 -0.073096156 0.044199657 0.08722562 -0.08465371
0.056787163 -0.020956855 0.0370347 -0.08955979 -0.03868716 0.06697306 -0.10161036 -0.056292042
-0.07326663 0.026938176 -0.0023001726 0.027607214 0.064858615 -0.02300976 -0.025734821 -0.08420404
0.05679579 0.08076334 0.01452226 0.042564876 0.09447667 -0.047044728 -0.023898177 -0.023527324
00000000: 5089 b33d 7590 513d 5ee6 613c 675b 9dbd
00000010: 8942 94bd 9387 b43d 3593 9c3d e931 ae3d
00000020: e97a 8b3d 80e8 6e3d 8206 373d d10e a83a
00000030: 1856 9e3d 3cba cb3d 3470 163b f6d6 4d3c
00000040: b3d9 283d a502 3c3d 9b73 c4bc bb67 863d
00000050: bf7d a7bd 1392 81bd a008 fb3c 6a25 4d3a
00000060: 6d50 063d 3db3 b7bd daef 3abc ecd2 1dbb
00000070: c1c4 af3d feb5 513d 7937 d33c 402e 82bc
00000080: 33bb 60bd e522 92bc e0e6 55bd 64d5 c1bd
00000090: 2ed4 aebd 5ba5 b1bd 87aa ce3b 0adb 56bd
000000a0: 3f00 a0bd c7e6 8cbc a918 8b3d 6a5a 1a3c
000000b0: ee07 42bd 4d44 8a3d 79e6 a6bd 3a34 c9bd
000000c0: e6e5 363d 9b8f 203b 050b aa3d 14d9 20bd
000000d0: b20b 553d e704 363d df6a a8bd acb9 a23d
000000e0: 2f16 b4bb 83e0 23bd 8ce2 25bc d11e d4bc
000000f0: 3c99 6e3d a8d3 b6bc 9645 c7bd 0e90 a9bd
00000100: c239 5ebd 7af7 283d 2b4f 17bd 6fe8 413d
00000110: 45fa 883d 3381 cd3d 4d89 283d 5e31 953d
00000120: 8e43 723d 7dc8 23bd c5a8 6f3c 6172 abbd
00000130: 2a1e e8bb afa0 94bd 7ac6 113d f666 8f3d
00000140: 2ea6 0abd 076f bdbc 5640 823d f25d 8e3c
00000150: b3e8 403d 7275 a13d 9970 35bd 1eb8 97bd
00000160: 8c1d 443d bce9 163d b254 98bc 37c4 a63c
00000170: 6b77 bbbd a3d7 803c 05d0 7bbc b98d b7bd
00000180: 3485 e1bc a700 053d d6cf 13bd 2d93 98bc
00000190: 4a25 a3bd 0af5 a9bd 3ca8 b13d 254d d63c
000001a0: 8966 7c3d 3182 46bc 77af 67bd 5d9f ab3d
000001b0: c863 24bd 23ef b9bd d250 94bc 60c5 603d
000001c0: c7f0 4c3d 3d9e e73a 6b13 c4bd 9659 77bd
000001d0: f744 bd3d 6f25 18bd adda 58bd 69c0 dbbb
000001e0: 7ef6 a33d 21ab c33d 2162 99bc fc55 9cbd
000001f0: 52a4 6cbd 379b 70bd 1701 cdbd b730 97bc
00000200: f2b8 963d 46f9 913d a9fc a9bd 1003 7b3d
00000210: ad3e 813d 23a3 95bd 0401 94bd e0e5 c43c
00000220: f8c7 a5bc debf d33b d011 583d 304f b0bb
00000230: 9ef1 8cbd bdd6 9c3d 0012 183c ce3b 25bd
00000240: 5795 8dbd ca4f 8d3d 8d30 b7bd ae04 8dbd
00000250: cdcd 59bc 8190 64bd b8fe 69bd 0f78 7bbd
00000260: 9648 8b3c 563b 983d 6e0e d7bb f03e d4bb
00000270: 63a0 ccbd b192 9f3d d828 77bd fc91 babc
00000280: 413c cd3d 017c a23d 88c8 89bb 7491 80bd
00000290: fce2 833b 4e7c b1bc 4296 8fbc a0b7 fa3c
000002a0: 78d4 6dbb ea11 813d 9201 32bd 5c45 a73c
000002b0: 4868 ad3d a9ee af3b 871b c5bd b612 bd3d
000002c0: b821 a6bc 5387 8f3c b3f3 adbd 400d b13a
000002d0: 1344 8abd 981f 8f3d 6cc7 cb3d 2b84 333d
000002e0: 2744 b7bd bd23 86bc 9066 423d 0aa4 083d
000002f0: ba8b b83c 6552 d1bd 9ef3 b83d 4e23 c7bd
00000300: a0b6 42bc 57ab 993d ffff 8b3d e1cb 1c3c
00000310: 9775 f8ba fed1 bbbd 294b 8b3d f785 b9bd
00000320: 5a6b b4bd 0cd1 6f3c 9d13 1c3d ca57 423d
00000330: d666 7bbc 2c58 843d 02f6 003d 461e 683d
00000340: 0867 5cbd 89c1 2ebd 7c9b 8bbd 6565 c0bd
00000350: 0701 2dbd 94d8 6bbd 3877 ef3c bf9c 8d3d
00000360: ea49 443d 777e 0fbd 5f6b ad3d 30d0 6a3d
00000370: c44e a63c 428e ba3d 6c7a b03d 0d3c ce3d
00000380: 88c8 c2bc d0dd 3e3b 37e2 85bc ac30 413d
00000390: 70b3 95bd b30a 353d 59a3 b23d ed5e adbd
000003a0: a899 683d b6ad abbc b3b1 173d 206b b7bd
000003b0: 6d76 1ebd 2c29 893d 1819 d0bd 7c92 66bd
000003c0: d10c 96bd 73ad dc3c 7ebe 16bb 8628 e23c
000003d0: 98d4 843d f77e bcbc d5d1 d2bc 2b73 acbd
000003e0: b4a2 683d 4067 a53d c6ee 6d3c 8258 2e3d
000003f0: fc7c c13d f9b1 40bd 1cc6 c3bc 60bc c0bc

linear_relu_stack.4.bias f4 [16]
0.059363846 -0.07284819 -0.096287124 0.10255775 -0.07029369 -0.01240084 -0.062082987 0.03137202
0.02974762 0.05500452 -0.06421534 -0.009088841 -0.09527191 0.05458731 0.050036523 0.025057888
00000000: 8127 733d 6f31 95bd 2f32 c5bd cc09 d23d
00000010: 23f6 8fbd e52c 4bbc bb4a 7ebd f27f 003d
00000020: 48b1 f33c 6b4c 613d 5583 83bd 5de9 14bc
00000030: eb1d c3bd f196 5f3d 19f3 4c3d 3346 cd3c

linear_relu_stack.6.weight f4 [4, 16]
0.19328186 0.23320921 -0.09639185 -0.07435875 -0.061067417 0.027925506 0.08770475 -0.019045807
0.05454507 -0.22958465 -0.11578122 0.09103722 -0.051202096 0.18336624 0.07020467 0.04440744
-0.23346692 0.008809171 -0.026015399 -0.14495447 0.11947209 0.11701517 0.12007054 -0.12136842
0.15773724 0.2239385 -0.11176595 0.23615804 0.14285418 -0.058192793 -0.20750047 0.04223889
-0.03403435 -0.08406831 -0.12456446 -0.068446636 0.13588688 -0.0984361 -0.11187566 0.18843368
-0.026146928 0.19370854 -0.1385204 -0.07329462 0.1498704 -0.079222344 -0.2025087 0.143481
-0.06621598 -0.017090654 0.03257217 0.043358732 0.043758888 0.0907688 -0.17964323 0.12516744
-0.14367016 -0.14387095 -0.016136069 -0.18711632 -0.13900274 -0.23626436 0.031560615 -0.13856663
00000000: aeeb 453e 65ce 6e3e 1769 c5bd 6649 98bd
00000010: d421 7abd 08c4 e43c 8c9e b33d f405 9cbc
00000020: a76a 5f3d 3d18 6bbe b41e edbd b971 ba3d
00000030: 4ab9 51bd 5cc4 3b3e 77c7 8f3d 93e4 353d
00000040: f411 6fbe 5754 103c 3f1e d5bc f26e 14be
00000050: c8ad f43d a6a5 ef3d 8be7 f53d 0290 f8bd
00000060: df85 213e 2250 653e 8ce5 e4bd 6ad3 713e
00000070: 5e48 123e 915b 6ebd 017b 54be b002 2d3d
00000080: 9a67 0bbd 022c acbd a71b ffbd c02d 8cbd
00000090: ee25 0b3e de98 c9bd 111f e5bd c2f4 403e
000000a0: 1532 d6bc 885b 463e 4bd8 0dbe 7d1b 96bd
000000b0: a077 193e 533f a2bd 715e 4fbe afec 123e
000000c0: 3e9c 87bd b301 8cbc 656a 053d ed98 313d
000000d0: 853c 333d fee4 b93d 65f4 37be e52b 003e
000000e0: 451e 13be e852 13be ca2f 84bc 6c9b 3fbe
000000f0: bc56 0ebe 49ef 71be b445 013d 69e4 0dbe

linear_relu_stack.6.bias f4 [4]
0.0014010527 0.02390091 -0.23256145 0.22157957
00000000: 87a3 b73a d7cb c33c 9724 6ebe c1e5 623e

exp_avg f4 [256, 16]
-0.0003370661 -0.000655918 -0.00049632 5.808074e-05 -0.00029071758 -0.00066069904 -0.0011903727 -0.0014969197
-0.00070714107 -0.0005508225 -0.0008724184 -0.00076688756 -0.00019135344 -0.00080035254 -0.0008570826 8.235671e-05
1.787e-42 1.787e-42 1.787e-42 3.575e-42 0.0 0.0 0.0 7.154e-42
0.0 0.0 0.0 0.0 0.0 6e-45 0.0 0.0
-0.00066355534 -0.001294626 -0.0033355844 -0.0056113754 -0.00037460265 0.00022238573 -0.0036396217 -0.0053075547
-0.0015545156 -0.0016310201 -0.004040813 -0.005198465 -0.00183519 -0.002880341 -0.0052558444 -0.0076832585
-0.0029298405 -0.0038130824 -0.011063832 -0.017459914 -0.00081541284 -0.0006158594 -0.013941014 -0.021576453
-0.0068328287 -0.0066595534 -0.012781782 -0.016978763 -0.0064588943 -0.00959913 -0.016323224 -0.023507956
-4.820667e-10 0.0 -3.7411795e-08 -7.5787675e-08 -3.7411795e-08 0.0 0.0 -7.5787675e-08
0.0 0.0 -6e-45 -1.1195624e-07 -6.124833e-35 -6e-45 -6e-45 -1.1253137e-07
-0.0006345095 0.0002380299 0.0018879101 0.006688172 -0.00033172194 0.00051541015 0.0035439194 0.0045459326
0.0032589424 0.0034170244 0.0039817705 -0.002310052 0.0015467138 0.0022466483 0.00316096 0.0019724097
-5.2803316e-05 -0.0014957826 -0.0069151856 -0.00968425 0.0010062676 0.006144339 -0.010932444 -0.015324791
0.00462345 0.0075487318 0.005228673 -0.008940356 0.00026286277 0.0028178727 -0.0054275333 -0.010226706
-0.0026509278 -0.0032824178 -0.009643309 -0.017841138 -0.00030544767 0.00039746088 -0.013002549 -0.018466657
-0.007202901 -0.007184633 -0.0131654 -0.014100315 -0.005861166 -0.009474665 -0.015625566 -0.022833044
-0.004894628 -0.010530049 -0.018686347 -0.024357092 -0.003065114 0.00010220555 -0.026463265 -0.034072444
-0.012507883 -0.013307017 -0.02832396 -0.022766111 -0.0064417273 -0.020459207 -0.03261522 -0.035777573
-0.0005176805 -0.00028106465 -0.00056306855 0.0007907521 3.7656646e-05 -0.000113081944 -0.00013808266 -0.0003893024
0.0006052161 0.0009356228 0.0010476072 -0.0014264509 0.00025996473 0.0004136005 0.0004841633 -0.000279061
0.0015038095 0.0020194505 0.006562313 0.00710448 -0.00045557698 -0.0021221652 0.011161802 0.015403299
0.00084013486 -0.0018510633 0.0014917548 0.012452846 0.0030793878 0.002062177 0.009514628 0.011170133
-6.0255876e-05 -7.396097e-05 -7.8095734e-05 -8.35313e-05 -1.37050865e-05 -0.00012464655 -0.00016162702 -0.00021231262
-1.37050865e-05 -2.7410173e-05 -4.111526e-05 -0.00013835164 -1.37050865e-05 -5.068557e-05 -5.4820346e-05 -1.37050865e-05
4.268498e-05 4.268498e-05 2.134249e-05 6.4027496e-05 -6e-45 6.4027496e-05 8.536996e-05 0.00010671248
0.0 0.0 6e-45 6.4027496e-05 6e-45 2.134249e-05 6e-45 -6e-45
-1.962e-42 6e-45 1.25e-43 -3.921e-42 -1.962e-42 -3.921e-42 -1.9720144e-27 1.0519605e-36
6e-45 1.0519624e-36 -1.962e-42 5.7307236e-27 6e-45 1.0519624e-36 2.1039249e-36 1.1461447e-26
0.00149501 0.0012925732 0.006984414 0.011079861 -0.000693039 -0.0025649732 0.009288402 0.013851996
0.0006317348 -0.00064050284 0.0025612575 0.013651619 0.0038229423 0.002450808 0.009052336 0.016056746
0.0009974886 2.7793285e-05 -0.0055953492 -0.017997943 0.0011474047 0.00236545 -0.009033082 -0.013534227
-0.005524043 -0.00570704 -0.008311706 -0.006662539 -0.006390895 -0.0050377455 -0.011871308 -0.0147605175
00000000: 3fb8 b0b9 e9f1 2bba 791b 02ba b89b 7338
00000010: 746b 98b9 c332 2dba 4806 9cba 4a34 c4ba
00000020: 6f5f 39ba 1265 10ba 02b3 64ba f408 49ba
00000030: 0ca6 48b9 c0ce 51ba d7ad 60ba ecb6 ac38
00000040: fb04 0000 fb04 0000 fb04 0000 f709 0000
00000050: 0000 0000 0000 0000 0000 0000 f113 0000
00000060: 0000 0000 0000 0000 0000 0000 0000 0000
00000070: 0000 0000 0400 0000 0000 0000 0000 0000
00000080: 72f2 2dba 71b0 a9ba d299 5abb a1df b7bb
00000090: 5166 c4b9 3730 6939 b886 6ebb ffea adbb
000000a0: e3c0 cbba f4c7 d5ba cc68 84bb e357 aabb
000000b0: c28a f0ba 1ac4 3cbb 3839 acbb d8c3 fbbb
000000c0: 9102 40bb e8e4 79bb 1345 35bc 1808 8fbc
000000d0: 6ec1 55ba a071 21ba da68 64bc 1ac1 b0bc
000000e0: ece5 dfbb 6238 dabb ae6a 51bc 0c17 8bbc
000000f0: 22a5 d3bb ab45 1dbc 48b8 85bc c293 c0bc
00000100: 6e82 04b0 0000 0000 b4ae 20b3 b7c0 a2b3
00000110: b4ae 20b3 0000 0000 0000 0000 b7c0 a2b3
00000120: 0000 0000 0000 0000 0400 0080 986c f0b3
00000130: 74d3 a286 0400 0080 0400 0080 c6a8 f1b3
00000140: 3655 26ba aa97 7939 c073 f73a 7428 db3b
00000150: f7ea adb9 971c 073a 1a41 683b 0cf6 943b
00000160: fb93 553b 28f0 5f3b 8379 823b 3e64 17bb
00000170: 1abb ca3a 813c 133b 1c28 4f3b 8b43 013b
00000180: 2179 5db8 230e c4ba c898 e2bb b0aa 1ebc
00000190: bde4 833a 7456 c93b fe1d 33bc d514 7bbc
000001a0: 4f80 973b 5a5b f73b 4a55 ab3b 927a 12bc
000001b0: d8d0 8939 0fac 383b 73d9 b1bb ea8d 27bc
000001c0: 30bb 2dbb d51d 57bb f8fe 1dbc 9427 92bc
000001d0: 7e24 a0b9 4c62 d039 a508 55bc 6347 97bc
000001e0: 5006 ecbb 126d ebbb b1b3 57bc 0205 67bc
000001f0: 060f c0bb a03b 1bbc 3001 80bc 5d0c bbbc
00000200: 1e63 a0bb 3a86 2cbc 1c14 99bc 8688 c7bc
00000210: 14e0 48bb 3057 d638 7dc9 d8bc 8c8f 0bbd
00000220: dded 4cbc ad05 5abc a607 e8bc ff7f babc
00000230: 2015 d3bb 119a a7bc 8997 05bd 818b 12bd
00000240: f3b4 07ba dc5b 93b9 e49a 13ba 7a4a 4f3a
00000250: 84f1 1d38 6826 edb8 48ca 10b9 491b ccb9
00000260: 5da7 1e3a 9544 753a dd4f 893a c0f7 baba
00000270: e04b 8839 85d8 d839 4cd7 fd39 ef4e 92b9
00000280: 791b c53a c258 043b ac08 d73b b3cc e83b
00000290: 82da eeb9 0614 0bbb fedf 363c 1e5e 7c3c
000002a0: 7f3c 5c3a 619f f2ba fc86 c33a 0607 4c3c
000002b0: 8ecf 493b 9725 073b 3ee3 1b3c ef02 373c
000002c0: 41bb 7cb8 7e1b 9bb8 54c7 a3b8 862d afb8
000002d0: e6ee 65b7 8eb3 02b9 6c7a 29b9 3ca0 5eb9
000002e0: e6ee 65b7 e6ee e5b7 2d73 2cb8 7c12 11b9
000002f0: e6ee 65b7 3797 54b8 e6ee 65b8 e6ee 65b7
00000300: a608 3338 a608 3338 a608 b337 8046 8638
00000310: 0400 0080 8046 8638 a608 b338 d4ca df38
00000320: 0000 0000 0000 0000 0400 0000 8046 8638
00000330: 0400 0000 a608 b337 0400 0000 0400 0080
00000340: 7805 0080 0400 0000 5900 0000 ee0a 0080
00000350: 7805 0080 ee0a 0080 343d 1c93 58fb b203
00000360: 0400 0000 6dfb b203 7805 0080 7104 e313
00000370: 0400 0000 6dfb b203 6dfb 3204 7104 6314
00000380: 36f4 c33a 8f6b a93a 83dd e43b 4e88 353c
00000390: 0fad 35ba 1c19 28bb 622e 183c 7bf3 623c
000003a0: 019b 253a 6be7 27ba c5da 273b 0aab 5f3c
000003b0: 548a 7a3b bc9d 203b 4050 143c 7089 833c
000003c0: 2abe 823a a025 e937 3159 b7bb 6c70 93bc
000003d0: 8364 963a aa05 1b3b 7eff 13bc aabe 5dbc
000003e0: 0803 b5bb 1f02 bbbb d22d 08bc 6e51 dabb
000003f0: b76a d1bb ac13 a5bb e07f 42bc 19d6 71bc

exp_avg_sq f4 [256, 16]
0.0005264466 0.0010242003 0.0011394299 0.0039460044 0.0005818367 0.0010906783 0.0020419455 0.004689563
0.00013954115 0.00088493497 0.0014604478 0.0034027752 0.00017835204 0.00039826828 0.0008002876 0.001884694
5.5668306e-06 5.5567843e-06 5.5668306e-06 2.2237191e-05 0.0 0.0 0.0 8.907e-05
0.0 0.0 0.0 0.0 0.0 1.312381e-07 0.0 0.0
0.00013912398 0.00030905148 0.00070677546 0.0012573983 0.00019145917 0.00039429992 0.0009377942 0.0013776643
0.00018227729 0.00043549246 0.0006563061 0.0017072561 0.00011642172 0.0002828451 0.00062950177 0.0016873857
0.0015519814 0.0029275566 0.0053517395 0.015285677 0.0018591763 0.003873988 0.0073313587 0.019616084
0.0013723213 0.005574699 0.009671492 0.017605588 0.0013102348 0.0030161222 0.007068103 0.012331305
6.479836e-06 0.0 3.5690996e-06 5.1632916e-05 4.1386893e-06 0.0 0.0 5.427374e-05
0.0 0.0 3.0392525e-07 4.1800944e-05 1.8452436e-06 4.335749e-06 7.598131e-08 5.540323e-05
0.00083934155 0.0007585756 0.004902161 0.0022752841 0.00046971053 0.0006534025 0.0004533316 0.004436744
0.0047376063 0.010506175 0.016771942 0.033420473 0.0038486877 0.008698218 0.018385114 0.027426993
0.0061186245 0.008608401 0.01789904 0.06945689 0.005955241 0.011774708 0.02107316 0.09486448
0.010173359 0.042784594 0.06818428 0.12222814 0.011961315 0.027554888 0.05579372 0.09204356
0.0011732134 0.002638158 0.0049896995 0.011196335 0.0016613975 0.0033076378 0.0058875633 0.013733632
0.0012757527 0.00388801 0.006979609 0.014899664 0.00097463926 0.0022959725 0.0053373775 0.011484175
0.0047153877 0.010091356 0.025585685 0.03771197 0.00813181 0.016618017 0.027295262 0.05171924
0.0059923283 0.013145145 0.024698285 0.054513495 0.004425204 0.0108583495 0.026578141 0.045201916
0.0007891468 0.0013583394 0.0028396582 0.0072236974 0.0010974329 0.002090717 0.0032441537 0.008803227
0.0005690293 0.0027884527 0.004366366 0.007931577 0.0008141056 0.001854884 0.003748575 0.0064685885
0.00333628 0.006851553 0.011588249 0.039515246 0.0041363104 0.008329172 0.018708007 0.05138909
0.0033294917 0.016447958 0.027366364 0.051197283 0.0036777516 0.008592892 0.018024571 0.03764397
1.2360243e-07 3.4027286e-07 1.3761169e-07 2.8218744e-07 6.5799566e-09 3.7165654e-07 6.6027934e-07 2.6307218e-06
6.5799566e-09 2.6319826e-08 5.921967e-08 6.7088064e-07 6.5799566e-09 1.4109456e-06 1.05279305e-07 6.5799566e-09
0.0012691342 0.0028559673 0.005077715 0.007941045 0.0028546313 0.0050751204 0.007937806 0.011422879
0.0 0.0 1.2419578e-06 5.3187426e-07 4.3328336e-07 3.0568888e-06 2.7944043e-06 0.00032214882
1.1317914e-06 1.3047438e-07 1.20667455e-05 1.7585368e-06 5.311155e-07 1.7525415e-06 3.9892325e-06 2.0872562e-06
1.2912038e-07 6.502182e-07 1.2857874e-06 4.628783e-06 1.1598248e-06 2.3171845e-06 2.005416e-06 2.4473786e-05
0.0010438028 0.0022556302 0.0052737403 0.011441071 0.001223861 0.002945303 0.005392599 0.010955283
0.000899794 0.0022081167 0.005698733 0.012387064 0.00044598922 0.0012842398 0.0039425474 0.011465272
0.0026750485 0.0021801207 0.0072482293 0.040572233 0.0019220245 0.0033115167 0.005558052 0.058468472
0.0059934193 0.03008319 0.047329355 0.077535436 0.008305082 0.018910613 0.03676001 0.058219153
00000000: 3c01 0a3a 763e 863a ec58 953a 7c4d 813b
00000010: 6686 183a 17f5 8e3a 29d2 053b e8aa 993b
00000020: cb51 1239 fbfa 673a 7f6c bf3a 1801 5f3b
00000030: 0304 3b39 aace d039 64ca 513a d607 f73a
00000040: b6ca ba36 6a74 ba36 b6ca ba36 018a ba37
00000050: 0000 0000 0000 0000 0000 0000 18cb ba38
00000060: 0000 0000 0000 0000 0000 0000 0000 0000
00000070: 0000 0000 74ea 0c34 0000 0000 0000 0000
00000080: cfe1 1139 3008 a239 e646 393a 49cf a43a
00000090: 6ec2 4839 0aba ce39 4ed6 753a be92 b43a
000000a0: b021 3f39 cf52 e439 f50b 2c3a 02c6 df3a
000000b0: 6f27 f438 d44a 9439 2605 253a 452b dd3a
000000c0: db6b cb3a 40dc 3f3b a55d af3b c770 7a3c
000000d0: 9baf f33a bce2 7d3b e53b f03b e9b1 a03c
000000e0: 76df b33a f7ab b63b 2d75 1e3c 9839 903c
000000f0: 2fbc ab3a 22aa 453b 8c9b e73b 3e09 4a3c
00000100: 5e6d d936 0000 0000 aa84 6f36 6c90 5838
00000110: 12df 8a36 0000 0000 0000 0000 fca3 6338
00000120: 0000 0000 0000 0000 2b2b a334 6c53 2f38
00000130: 16aa f735 cd7b 9136 2b2b a333 c460 6838
00000140: 4207 5c3a 26db 463a 4fa2 a03b ef1c 153b
00000150: 7b43 f639 1949 2b3a 23ad ed39 1b62 913b
00000160: ec3d 9b3b 1822 2c3c 5065 893c e8e3 083d
00000170: 443a 7c3b f882 0e3c 619c 963c 93ae e03c
00000180: be7e c83b 400a 0d3c 02a1 923c 6a3f 8e3d
00000190: 2f24 c33b b4ea 403c 9fa1 ac3c 4f48 c23d
000001a0: 29ae 263c e63e 2f3d 33a4 8b3d bf52 fa3d
000001b0: 64f9 433c caba e13c f587 643d 5681 bc3d
000001c0: 82c6 993a f2e4 2c3b a280 a33b d570 373c
000001d0: 40c3 d93a f4c4 583b 76ec c03b 0703 613c
000001e0: 2837 a73a fccd 7e3b 34b5 e43b b81d 743c
000001f0: ef7e 7f3a 0778 163b 2be5 ae3b 1f28 3c3c
00000200: 8a83 9a3b 3756 253c 1299 d13c de77 1a3d
00000210: 493b 053c 8222 883c 509a df3c 8ed7 533d
00000220: 4b5b c43b bc5e 573c 0f54 ca3c 8b49 5f3d
00000230: 4d01 913b 38e7 313c 67ba d93c a525 393d
00000240: bfde 4e3a 4f0a b23a 8f19 3a3b c4b4 ec3b
00000250: bdd7 8f3a 6904 093b de9b 543b 693b 103c
00000260: e92a 153a 79be 363b bc13 8f3b 72f3 013c
00000270: b469 553a 941f f33a a7aa 753b 74f6 d33b
00000280: 7da5 5a3b fe82 e03b a4dc 3d3c bdda 213d
00000290: e389 873b 1477 083c 8941 993c 5e7d 523d
000002a0: 9a33 5a3b debd 863c 6d2f e03c 3eb4 513d
000002b0: 6f06 713b 34c9 0c3c 44a8 933c 9030 1a3d
000002c0: 94b7 0434 bfae b634 6ac2 1334 8c7f 9734
000002d0: e915 e231 1688 c734 0d3e 3135 758b 3036
000002e0: e915 e231 e915 e232 b758 7e33 9116 3435
000002f0: e915 e231 b95f bd35 e915 e233 e915 e231
00000300: 1459 a63a 2e2b 3b3b f662 a63b 281b 023c
00000310: c414 3b3b 324d a63b 920d 023c 0727 3b3c
00000320: 0000 0000 0000 0000 58b1 a635 1fc6 0e35
00000330: 039e e834 f324 4d36 8087 3b36 15e6 a839
00000340: 0ee8 9735 8618 0c34 4772 4a37 dd06 ec35
00000350: fb91 0e35 de38 eb35 3fdb 8536 ca12 0c36
00000360: 57a4 0a34 a88a 2e35 5293 ac35 f150 9b36
00000370: 47ab 9b35 ed80 1b36 c994 0636 0e4d cd37
00000380: 36d0 883a 32d3 133b 57cf ac3b 5473 3b3c
00000390: f669 a03a fc05 413b 66b4 b03b ca7d 333c
000003a0: 27e0 6b3a 0db6 103b 70bc ba3b 1df3 4a3c
000003b0: a9d3 e939 f053 a83a 7c30 813b d6d8 3b3c
000003c0: de4f 2f3b 5be0 0e3b 8e82 ed3b 122f 263d
000003d0: 71ec fb3a 0806 593b 5220 b63b a37c 6f3d
000003e0: 7264 c43b 0671 f63c 6ddc 413d e6ca 9e3d
000003f0: 0a12 083c 6eea 9a3c aa91 163d 3577 6e3d

exp_avg f4 [256]
-5.9421174e-05 1.787e-42 -0.002175386 -0.007582637 -3.7893837e-08 0.00070193195 -0.0059298174 -0.006855761
-0.009307316 -0.00023252274 0.005528227 -3.6980484e-05 2.134249e-05 5.7307236e-27 0.0063452865 -0.0055772364
-0.0036222858 -0.008378523 -0.0025593487 -0.000808073 -0.00068195525 0.00061181874 0.0028386675 0.00085902074
0.002756459 0.001165806 0.00055951974 -0.002868339 -0.0032129318 -0.0011381211 0.0 0.00054446695
0.002105559 -0.0028927182 0.00013173338 -0.00017506783 -0.0052465685 5.355479e-05 -0.0029787375 0.006152999
1.8070003e-05 0.0028310074 -0.0028130277 0.0009349825 -0.0013303331 0.0017279289 5.325851e-26 -6.641314e-05
0.00038462188 -1.8657516e-05 3.9175562e-11 5.4203595e-33 0.006778771 -0.014354965 0.0026366087 0.0021613615
0.0014290641 -0.0011241611 -0.0011863 0.0033435014 0.004682124 0.0005547453 -0.008237926 0.0055137123
-4.5833498e-05 0.0042981356 0.002925624 1.42698345e-05 -1.355e-42 0.0006015238 2.5108834e-10 0.0
-0.005449125 -0.0030444274 0.0 0.0033551564 -0.00021051828 -0.0005282011 0.0027613898 -3.0397932e-25
4.452453e-25 0.005803522 -9.652427e-27 -0.004790706 -1.3503477e-28 0.0009941291 0.010153205 1.6185466e-25
-0.002887326 6e-45 0.0 0.003836265 1.6039331e-26 0.0009739861 -0.0027831916 -0.0025728084
-2.4595685e-25 -4.1062273e-10 -2.5878038e-11 0.0007002879 0.011349357 0.00063265685 1.8566304e-17 0.0041345903
0.00026238183 0.00016968492 3.4862802e-10 0.006915364 6e-45 -2.0651447e-05 6e-45 6e-45
0.0014449889 -0.002775845 0.00044485618 0.0027401096 -0.009954502 8.002985e-37 0.0 -0.002087552
0.00022759277 -0.00040356183 -0.0040957737 0.0025219177 0.0028376016 0.00014203487 -0.00079903315 -0.0034045838
-0.004258206 -7.69347e-09 0.00669048 -0.001423645 -6e-45 -0.005216119 -0.0011393734 -0.004650762
-0.0020498256 -0.00049178227 -1.127e-42 1.53e-43 -3.233615e-11 0.004086519 2.8273697e-10 0.00039828743
-0.0004919033 -0.0017215414 0.0036986803 4.250166e-06 -0.0010721894 0.0008331472 -0.00067044294 1.5716968e-24
-0.001969463 0.0033443074 -0.011123125 0.0034900382 -7.040392e-05 -0.011220908 0.00035702166 -1.887355e-25
0.008947633 -0.00046950323 0.003654962 0.0042558564 -0.00053978415 -5.234324e-05 1.9251984e-05 0.004167493
-6e-45 0.00027625286 -0.00021806035 0.0010460115 -0.00015883449 0.0001687532 4.5204445e-27 0.0012059364
2.0957577e-05 -0.0020928613 -1.37e-43 0.0096314205 -0.0011561551 0.0038652285 -0.0013110283 0.003255325
-0.010343904 -0.0048942743 0.00053555146 -0.0019504299 0.0 0.0015462403 -0.008723949 0.00044411005
0.00044893037 -0.00024376539 0.00031472926 -0.0019848687 0.00077876734 0.008793193 -0.00210612 -0.0015204714
0.001984873 -0.0014634635 -0.0016781548 0.0014813426 1.5071931e-05 0.0026554149 -0.0016142385 0.0012826254
0.0 0.0102667445 -0.0011129335 0.0055666557 -6e-45 -0.0043844767 -0.001056899 0.0019045982
-5.2716645e-05 -0.0016084921 -0.0020703524 -0.0016936333 0.0 0.0018481419 -1.8569259e-05 0.0032009995
0.0 -0.0007851671 -0.00018339761 -0.0006756098 0.0018502217 -0.008919338 -0.0021343222 -0.00054324756
-0.008744083 -1.2812232e-05 -8.080229e-05 1.3790422e-11 0.005653957 9.140863e-11 6.9379494e-05 -1.807824e-10
0.0028739467 0.0014286427 0.001417385 0.010363538 -0.002380178 -5.8292284e-05 0.0025818776 0.00053450145
0.0025354566 -0.0013629465 -0.006087338 0.0014244124 0.008415558 0.005628821 0.00031635107 8.9574365e-05
00000000: 003b 79b8 fb04 0000 ec90 0ebb c577 f8bb
00000010: b7c0 22b3 db01 383a ea4e c2bb 4ba6 e0bb
00000020: b67d 18bc 59d1 73b9 2126 b53b 7e1b 1bb8
00000030: a608 b337 7104 e313 1fec cf3b 40c1 b6bb
00000040: df63 6dbb 1346 09bc bfba 27bb dcd4 53ba
00000050: 3ec5 32ba 7662 203a f008 3a3b e82f 613a
00000060: b5a5 343b f5cd 983a bcac 123a befa 3bbb
00000070: 0d90 52bb 022d 95ba 0000 0000 8fba 0e3a
00000080: 6bfd 093b c293 3dbb e921 0a39 6a92 37b9
00000090: 68eb abbb 05a0 6038 ec36 43bb 199f c93b
000000a0: 0995 9737 6c88 393b c65a 38bb 9d19 753a
000000b0: 925e aeba ac7b e23a 97dc 8315 4847 8bb8
000000c0: 13a7 c939 b682 9cb7 c34b 2c2e 2627 e109
000000d0: 7420 de3b 1631 6bbc f4ca 2c3b a1a5 0d3b
000000e0: 6f4f bb3a 9658 93ba 9f7d 9bba a51e 5b3b
000000f0: 816c 993b 546c 113a 5ef8 06bc 5fac b43b
00000100: 583d 40b8 60d7 8c3b d3bb 3f3b 7968 6f37
00000110: c703 0080 94af 1d3a 8b09 8a2f 0000 0000
00000120: 938e b2bb 0485 47bb 0000 0000 2fe2 5b3b
00000130: 92be 5cb9 fa76 0aba 6ff8 343b 7227 bc96
00000140: f8cb 0917 792b be3b 9f2f 3f94 5bfb 9cbb
00000150: 4a2d 2b91 704d 823a a159 263c ca5d 4816
00000160: 4b39 3dbb 0400 0000 0000 0000 d969 7b3b
00000170: 89d8 9e14 1a53 7f3a 3566 36bb 909c 28bb
00000180: 6b3d 9896 03be e1af 29a0 e3ad 8793 373a
00000190: a7f2 393c e2d8 253a 723e ab23 757b 873b
000001a0: 4b90 8939 73ed 3139 08a9 bf2f 479a e23b
000001b0: 0400 0000 a53c adb7 0400 0000 0400 0000
000001c0: c865 bd3a f3ea 35bb 963b e939 6993 333b
000001d0: 3518 23bc ea29 8803 0000 0000 50cf 08bb
000001e0: f8a5 6e39 2795 d3b9 d735 86bb c246 253b
000001f0: 0ef7 393b 32ef 1439 3576 51ba 701f 5fbb
00000200: 6c88 8bbb 3d2c 04b2 d03b db3b 9999 baba
00000210: 0400 0080 faeb aabb 0757 95ba 6b65 98bb
00000220: 5e56 06bb f3ea 00ba 2403 0080 6d00 0000
00000230: 4537 0eae 35e8 853b b16f 9b2f 3cd1 d039
00000240: 12f3 00ba 58a5 e1ba 8f65 723b a69c 8e36
00000250: b588 8cba 9067 5a3a aac0 2fba 5335 f317
00000260: 1b12 01bb 2b2c 5b3b c53d 36bc 20b9 643b
00000270: d1a5 93b8 e6d7 37bc a32e bb39 aba4 6996
00000280: 1899 123c a827 f6b9 1688 6f3b b674 8b3b
00000290: 4d80 0dba 208b 5bb8 527f a137 778f 883b
000002a0: 0400 0080 08d6 9039 21a7 64b9 521a 893a
000002b0: cf8c 26b9 58f3 3039 c112 b313 8310 9e3a
000002c0: 0ece af37 6328 09bb 6200 0080 1bcd 1d3c
000002d0: 218a 97ba c64f 7d3b cfd6 abba 4a57 553b
000002e0: 7a79 29bc 2660 a0bb 4064 0c3a 91a5 ffba
000002f0: 0000 0000 37ab ca3a e5ee 0ebc 71d7 e839
00000300: 6a5e eb39 469b 7fb9 3f02 a539 9214 02bb
00000310: 3126 4c3a 5311 103c d506 0abb 8e4a c7ba
00000320: a514 023b b0d1 bfba 88f5 dbba 9c29 c23a
00000330: 73dd 7c37 7806 2e3b db94 d3ba c41d a83a
00000340: 0000 0000 d935 283c dadf 91ba 7e68 b63b
00000350: 0400 0080 a8ab 8fbb a587 8aba b6a3 f93a
00000360: 111c 5db8 0ad4 d2ba c0ae 07bb e7fc ddba
00000370: 0000 0000 5a3d f23a 2ec5 9bb7 dcc7 513b
00000380: 0000 0000 acd3 4dba 6c4e 40b9 681b 31ba
00000390: 2383 f23a 6a22 12bc fcdf 0bbb ba68 0eba
000003a0: 5843 0fbc 1ef4 56b7 6674 a9b8 8a9a 722d
000003b0: d444 b93b 7c02 c92e d57f 9138 b9c5 46af
000003c0: d358 3c3b 4b41 bb3a 8cc7 b93a d4cb 293c
000003d0: c3fc 1bbb dd7e 74b8 b834 293b c91d 0c3a
000003e0: e729 263b e5a4 b2ba 4b78 c7bb 59b3 ba3a
000003f0: 69e1 093c f971 b83b ecdb a539 dfd9 bb38
