Version_2/v2_TrainAI_ep5.pth (torch, 375599 bytes, 24 tensors)

linear_relu_stack.0.weight f4 [256, 16]
000000 92 82 3a 3d 33 15 6e bd a5 75 48 3e ef 21 48 3e
       0.045534678 -0.058125686 0.19576128 0.19544195
000010 f0 c5 a2 3d 6a 9a c0 bd 43 47 24 3d d8 2e 17 be
       0.0794791 -0.09404452 0.040107023 -0.14763963
000020 09 ac 3d be cc 44 45 3d 68 70 74 3d 3f 68 63 bd
       -0.18522657 0.048161313 0.05967751 -0.05551934
000030 74 2c 69 be 09 0c 36 be 75 6d 24 be 1d 86 fc 3d
       -0.22770864 -0.17778029 -0.1605738 0.123302676
000040 ae 2d 33 3e 4f 24 5a 3e 16 c5 fe 3d 83 88 6a 3e
       0.17497894 0.21302913 0.12439935 0.22903638
000050 a0 b2 6d 3e 0b aa c5 3b fa 60 50 3e 24 32 76 be
       0.23212671 0.0060322336 0.20349494 -0.24042565
000060 df 25 3c 3e 53 b0 26 3e 1a 2a 4f be bc 3e 58 bd
       0.18373822 0.162782 -0.20230904 -0.052794203
000070 44 dc 81 3d ff 37 1e be 88 1b 8a bd fe 6a 4c be
       0.063408405 -0.15451048 -0.067435324 -0.1996269
000080 a0 b8 e7 3d 3f de a1 bd ce 0b 2a 3e 17 bc 76 3e
       0.11314511 -0.07903718 0.16606066 0.24095188
000090 4a 3e b7 3d 6b 69 c7 3c bf 5c 73 3e 29 e8 06 3e
       0.089474276 0.02434226 0.23765849 0.131745
0000a0 2b ae 7a be 3c 7b 8d 3d 11 0b 64 be 99 f5 7e be
       -0.24480502 0.06908271 -0.22269846 -0.24898376
0000b0 f7 f1 14 3e de b3 3e bc 95 b2 14 be 17 b1 d2 bd
       0.14545427 -0.011639563 -0.14521249 -0.102876835
0000c0 23 bb 6e 3e 78 3d 03 3d 56 2c 04 3d d2 98 7e be
       0.23313574 0.032041043 0.032268845 -0.24862984
0000d0 c7 63 1f 3e 49 76 19 3e 42 a2 03 be ac a8 61 3e
       0.15565406 0.14986528 -0.12854865 0.22037
0000e0 0a 67 58 3b e3 8e 07 be b7 be c2 3d 8d 48 02 bd
       0.00330204 -0.132381 0.09509032 -0.03180747
0000f0 89 63 80 3d 1b 75 ab 3d d9 34 78 bd 1c e6 60 3e
       0.06268985 0.083719455 -0.060597274 0.2196278
000100 4b 5f a3 bd 62 61 0b bd 22 f6 46 be 59 8a 0f bd
       -0.0797716 -0.03402842 -0.1942983 -0.035044048
000110 7f f3 17 3e 40 8d 1d 3e f3 e3 5b be 3d 85 3a be
       0.1483898 0.15385914 -0.21473674 -0.18214889
000120 28 00 20 be e2 26 0d 3e 3a 5a 18 3e ea ab 47 be
       -0.1562506 0.13784364 0.14878169 -0.19499174
000130 c8 9e 79 be 4f f3 a1 bd f1 75 de bd ed d3 ae bd
       -0.24376976 -0.079077356 -0.10862339 -0.085365154
000140 01 f0 e1 3d 6f 67 74 3e 59 c5 b9 bd 9b 49 a6 bd
       0.11032105 0.23867582 -0.09070844 -0.08119508
000150 df e1 67 bd 41 64 61 be 8b 63 15 bd 29 de 2a be
       -0.05661189 -0.220109 -0.036471885 -0.1668631
000160 70 58 cd bd a4 9c 17 3e 60 fc 73 bd 9a d5 a6 bc
       -0.10026634 0.14805847 -0.059566855 -0.020365525
000170 c9 d9 0a 3d 6d ae a3 bd e3 2f 65 be c2 25 f1 bd
       0.033899102 -0.079922535 -0.22381549 -0.1177478
000180 87 fe 80 bd 26 40 60 3e ed 96 24 3e 2f 8a 37 3d
       -0.06298547 0.2189947 0.16073199 0.044809517
000190 ee 05 1d be f6 35 b1 3d 58 af 64 be 4d 83 ed 3d
       -0.15334293 0.0865287 -0.22332513 0.11597309
0001a0 46 dd 17 be 16 25 e2 bd 55 d9 16 be b5 fe 6e be
       -0.14830503 -0.1104223 -0.14731343 -0.2333935
0001b0 be 60 42 3d b1 b5 0d 3e cd 1b 44 be 9b ef 48 bc
       0.04745554 0.13838841 -0.1915123 -0.012264158
0001c0 c0 e4 c7 bd 0f c2 b5 bc ad 40 32 be 82 08 21 3e
       -0.097604275 -0.02218726 -0.17407484 0.15725902
0001d0 66 93 32 3d b0 8e 70 be 47 8a 5b bd 4a d1 0b 3e
       0.0435976 -0.23491931 -0.05359867 0.13654056
0001e0 c7 21 52 be 72 14 31 3d 54 c2 8c 3d fa 55 7b bd
       -0.20520698 0.04323239 0.06873003 -0.06136129
0001f0 b5 3b b8 bd dd a2 5f bd 64 69 04 3e 55 23 71 3e
       -0.08995763 -0.054598678 0.12930828 0.23548634
000200 ee 50 cb 3c 49 61 d1 bc 5f 91 01 be 8b 85 63 be
       0.024818864 -0.025559084 -0.12653111 -0.22218911
000210 8c a7 22 3e 15 0d 94 3d f6 01 c8 3c a4 3f 5b 3e
       0.15884227 0.07229058 0.024414998 0.21410996
000220 6b f5 24 3d f4 2d 02 3e 4d cc 8e bd 2d 4a 47 3d
       0.04027311 0.12712842 -0.06972561 0.048654724
000230 0e 48 77 3e 28 05 96 bd d1 e4 dd bd 3c 03 87 3d
       0.2414858 -0.07325202 -0.10834659 0.06592414
000240 a1 c8 25 be 43 88 f3 3d fc 1c 3d be dd 95 04 bd
       -0.16189815 0.11891224 -0.18468088 -0.032369483
000250 c3 7b 12 be f4 90 ca bd 97 12 c1 bd 2e e6 a4 3a
       -0.14305024 -0.09890929 -0.09427374 0.0012580806
000260 dc 94 83 bd 04 1c 45 be 26 ac bc bd 94 51 91 bd
       -0.06424877 -0.19248968 -0.09212522 -0.07095638
000270 61 de a1 bd 8c 9c 99 3d f3 78 67 be 8c 0c f8 3d
       -0.079037435 0.07500562 -0.22604732 0.12111768
000280 8a 1e c4 bb 00 6f 0e 3e a4 5f 17 be c5 99 06 bc
       -0.005985086 0.1390953 -0.14782578 -0.008215372
000290 c6 99 d6 3c 9c d3 a9 bd 19 88 50 be 1f 08 78 3e
       0.026196372 -0.082923144 -0.20364417 0.24221848
0002a0 c2 f4 04 3d 64 6f 3a be 7c 48 21 3d d7 35 44 be
       0.03245998 -0.18206555 0.039375767 -0.19161163
0002b0 27 32 34 bd d5 3a 43 be 93 8d 7e be 8b 45 20 3e
       -0.04399314 -0.19065411 -0.24858694 0.15651529
0002c0 11 5b 14 be 5f 4e 87 3d bf 4c 0e bd 56 5a 09 be
       -0.14487864 0.06606745 -0.03474116 -0.13413367
0002d0 d9 93 ef bd 12 a2 69 be 25 49 91 bb e6 36 23 be
       -0.116981216 -0.22815731 -0.0044337683 -0.15938911
0002e0 f9 4f 45 3d 94 5e 19 be 11 15 41 3d 48 27 82 3d
       0.04817197 -0.14977485 0.04713923 0.063551486
0002f0 93 2d 1b be d4 3c 27 3c 54 c3 44 be ce e8 f8 bd
       -0.15154104 0.010207374 -0.19215137 -0.12153779
000300 1e 26 88 bc 9e 76 41 3e f0 f7 c4 bd 84 33 0b be
       -0.016619738 0.18892905 -0.09617603 -0.1359387
000310 3e 7a 4d 3e 17 cf e5 3c 5e 48 ea bb 98 a5 9a bd
       0.20066163 0.02805285 -0.00714974 -0.07551116
000320 e3 fe 7f 3d b4 3b 2e be b9 b6 99 3d d7 57 7c be
       0.06249894 -0.17014962 0.07505555 -0.24642883
000330 46 23 52 3e b9 4c 63 3e bf 89 14 3e 91 e2 64 3e
       0.20521268 0.22197236 0.14505671 0.22352053
000340 09 f1 88 3d 58 2c 4f 3e a2 97 dd bc 77 eb 64 3e
       0.06686599 0.2023176 -0.027049843 0.22355448
000350 95 72 18 be c2 46 7e be eb cb 54 bd a8 ef d0 bd
       -0.1488746 -0.2483168 -0.051952284 -0.10201961
000360 87 f4 3f be 38 66 1e 3e b6 ce 28 be 09 f7 32 3b
       -0.18745624 0.15468681 -0.16485104 0.002730789
000370 5c b7 43 be 9c e2 3d be 15 9e ff bc 0b 55 e1 3d
       -0.19112915 -0.18543476 -0.03120331 0.11002549
000380 5d 4e 0a 3e c4 d6 3b 3e 27 2d c8 bd a5 1b c7 bd
       0.13506456 0.18343645 -0.09774237 -0.0972207
000390 91 5f 51 3d e6 3d 6b be 12 63 f5 3d d1 97 19 bd
       0.05111653 -0.22972831 0.11981787 -0.0374983
0003a0 c2 43 54 be 25 ee 24 bc d3 de 15 3d 89 16 23 3e
       -0.20728973 -0.010066544 0.036589455 0.15926565
0003b0 29 6c 51 be 7c 81 1e 3d d9 f3 c9 bd 94 95 7f be
       -0.20451416 0.038697705 -0.098609634 -0.24959403
0003c0 7a 30 59 be 46 c0 f9 3d 6c 1f ef bc 63 3a 5a 3e
       -0.21209899 0.121948764 -0.029189788 0.21311335
0003d0 9e 3d 2d 3e 99 f9 d8 3d 44 5e 9b bb d4 a6 7e 3e
       0.16918036 0.10594482 -0.004741462 0.24868327
0003e0 44 34 54 3e 21 4b 95 3b 25 7d 25 be de 53 55 be
       0.20723063 0.004556075 -0.1616102 -0.20832774
0003f0 e4 19 68 3e ec 35 04 3e e6 12 b7 bd 83 f0 25 3e
       0.22666126 0.12911195 -0.089391515 0.16205029

linear_relu_stack.0.bias f4 [256]
000000 da b5 26 be db 64 d6 bd 21 30 72 3e ac 48 88 bd
       -0.16280308 -0.104684554 0.23651172 -0.06654486
000010 e1 8a 21 3d 43 32 81 3d 49 41 e4 bd 2b 99 b7 bb
       0.039439086 0.06308415 -0.11145265 -0.005602976
000020 fb 04 fd bd ae 84 14 be 38 28 14 3e ac f9 78 3d
       -0.123544656 -0.14503738 0.14468467 0.06078498
000030 85 3f 7b be 12 1e 19 be 70 3c dc 3d 68 a4 33 3e
       -0.2453595 -0.14952877 0.10753715 0.17543185
000040 77 61 44 3d c5 a2 ad 3d 92 c8 3d 3d ca 3a af 3c
       0.047944512 0.084783114 0.046333857 0.021390337
000050 cb 49 13 be f2 e2 e0 3d 98 da 19 be 61 34 45 be
       -0.14383619 0.109807864 -0.15024793 -0.19258262
000060 46 81 dd 3d d2 af 16 3e 11 7c f9 3d 7f 17 63 3d
       0.108156726 0.14715508 0.12181867 0.05544233
000070 a0 2d b0 bd 60 da f8 bc 3b 6a 09 be d4 d1 2b be
       -0.08602452 -0.030377567 -0.1341943 -0.16779262
000080 2f 3a ec bd 96 d3 39 be e6 3c 01 3e 2d ca fa bc
       -0.11534535 -0.1814712 0.12620887 -0.030613983
000090 12 4e 4a 3e 2c 5b 8d 3d 87 2b a2 bd a0 94 09 3d
       0.19756344 0.06902155 -0.079184584 0.033589005
0000a0 91 92 7d 3e 2d bf 50 3e f7 a6 b9 3d ac d3 8f bd
       0.24762942 0.20385428 0.09065049 -0.07022795
0000b0 ff b7 bc bb 65 82 27 be 43 b6 e1 3d e0 18 25 be
       -0.0057592387 -0.16358335 0.11021092 -0.1612277
0000c0 ad bb 09 be be 53 5c 3e af 43 59 be a9 de 5a bc
       -0.13450499 0.2151632 -0.21217225 -0.01335875
0000d0 36 5f 18 3e 86 51 41 be 0e f8 ee 3d 7e 39 d1 3d
       0.1488007 -0.18878755 0.116684064 0.10216044
0000e0 50 43 11 3e 11 05 44 be d8 b3 5c 3e bb 31 88 bd
       0.14185834 -0.19142558 0.2155298 -0.0665011
0000f0 8c 2c 88 3b c1 b6 06 be 99 53 38 be e9 5d ee bd
       0.004155701 -0.13155653 -0.1800064 -0.11639006
000100 87 f0 34 be a9 e0 02 be f8 e6 49 be dc 55 04 be
       -0.17669879 -0.12781014 -0.19717014 -0.12923378
000110 eb d9 3c bd 7f 95 66 3e 5c c3 20 bd fa 4b 3c 3e
       -0.04610626 0.22517966 -0.03924881 0.18388358
000120 f0 ca ba bc 0d d8 36 3e 65 5a 69 3e 78 07 c0 3d
       -0.022801846 0.17855854 0.22788389 0.093764246
000130 8f 58 37 be fe f2 c9 3d 43 a0 3c be d1 95 d5 3d
       -0.17904876 0.098608 -0.1842051 0.10428966
000140 9a f9 c4 bd cf 9c 98 bd 58 a8 43 3e b6 3e 26 3c
       -0.0961792 -0.07451784 0.19107187 0.010146787
000150 b3 3f 62 3e ca 76 37 bd b3 9d 3b bc 20 ed 1f 3d
       0.22094612 -0.04479102 -0.011451173 0.0390445
000160 33 3d 0f 3e 2b 74 17 be 01 d8 d8 bc 06 75 6e bd
       0.1398819 -0.14790408 -0.026470186 -0.05821707
000170 3f e8 cc bc 7b 22 14 bd cc a1 86 bd 6c 08 c4 bb
       -0.025013087 -0.036165696 -0.06573829 -0.0059824493
000180 70 73 43 3e d2 43 80 3b cd 7f 69 be 5c 3d 6a be
       0.19087005 0.003914335 -0.22802658 -0.22874969
000190 07 3e a8 3d ff 83 13 be c5 6f 55 be 00 2a c4 3d
       0.08214956 -0.14405821 -0.20843418 0.09578323
0001a0 c6 ec 4d 3e 89 c1 46 be 83 f6 76 3e 15 10 4e be
       0.20109853 -0.19409765 0.24117474 -0.20123322
0001b0 1e 35 51 3e 3f f3 38 bd c5 81 1d be d7 f1 25 3e
       0.20430419 -0.045153853 -0.15381534 0.16205536
0001c0 d1 bb a5 3d ea 5b 02 3d ab 7f 68 be 7d f4 e1 bd
       0.08092464 0.031825937 -0.22704951 -0.110329606
0001d0 41 d7 3f 3e 01 3c 5e 3c 35 93 28 be 4c 58 49 be
       0.18734457 0.013564111 -0.16462405 -0.19662589
0001e0 27 4b 6b be 71 f2 7f 3e d4 3b 4d 3e 73 3f 7f 3e
       -0.22977887 0.24994828 0.20042354 0.24926548
0001f0 63 a8 a7 bc 36 4f 35 3e 89 22 88 bd 96 d8 f5 bd
       -0.020466035 0.17705998 -0.06647212 -0.12004201
000200 63 a2 32 3c b2 79 2a 3e 51 86 48 3e c4 ef 39 3d
       0.010902974 0.16647986 0.19582488 0.045394674
000210 91 b7 52 bd a2 92 a2 3c 12 84 25 be 77 39 81 3d
       -0.051444594 0.01984531 -0.16163662 0.06309789
000220 93 b5 64 3d ec 09 f6 bd d1 d2 11 3d 1c 30 2c 3e
       0.055837225 -0.12013611 0.03560144 0.16815227
000230 c1 dc 0f bd 84 e8 9f 3a 4a d4 6d be 45 14 38 3e
       -0.035122637 0.0012200032 -0.23225513 0.17976482
000240 03 e0 fd bd ec 1c 5b 3e f8 60 97 3d 23 6f cd bd
       -0.123962425 0.21397752 0.07391542 -0.10030963
000250 2a 1a 7c be 77 0c 3c 3e 9b 8d ef 3d 43 20 6a 3b
       -0.24619356 0.1836413 0.11696931 0.0035724796
000260 16 5e 7c 3e 2f 3d 1b 3e bb f2 d2 3b f6 9b a3 3d
       0.24645266 0.15160058 0.006437627 0.079887316
000270 65 a4 43 3d 32 e3 35 bd 69 9f 94 bd 88 b0 83 3d
       0.0477642 -0.044406123 -0.072569676 0.06430155
000280 63 83 22 bd 94 8a 1e 3e 84 de 72 3e 57 26 71 be
       -0.03967608 0.15482551 0.23717695 -0.23549782
000290 b5 4d 51 bd 4e 2f 04 3e 05 28 1f 3e 58 82 69 be
       -0.051099498 0.1290867 0.1554261 -0.22803628
0002a0 24 e0 18 be 90 ee 51 3e a5 41 18 be f7 fc 55 be
       -0.14929253 0.2050116 -0.14868791 -0.2089728
0002b0 92 2c 7a be a8 e0 51 3e ba 70 3c 3e 8d 18 32 be
       -0.24431065 0.20495856 0.18402377 -0.17392178
0002c0 12 7f d2 bd 14 88 ac 3c 59 ed 59 3e 2b 04 6f 3e
       -0.10278143 0.02106098 0.21281947 0.23341434
0002d0 db b8 90 3d 2f 02 66 3e 8f 75 73 be 8b 11 3f be
       0.070665084 0.2246177 -0.23775314 -0.18659036
0002e0 19 47 6b 3e 92 e0 2b 3d 42 8a f4 3b 96 0f 55 3e
       0.2297634 0.041962214 0.0074627707 0.20806727
0002f0 d9 79 35 3d 86 a3 73 be 7b 01 23 be f8 16 67 bd
       0.044305656 -0.23792848 -0.15918534 -0.05641839
000300 c3 5a 4f bc ee 17 04 3e 00 85 a1 3d ca 77 76 3e
       -0.012655917 0.12899753 0.07886696 0.24069133
000310 b4 41 07 be 86 be 4f 3c 35 34 6f 3e f7 99 47 3e
       -0.13208658 0.012679702 0.23359759 0.19492327
000320 46 8d 22 be 2e fc 3a be 2a e9 74 be 9d 47 62 3e
       -0.15874204 -0.18260261 -0.2391707 0.22097631
000330 cd 44 dd 3d 39 bb 59 3e 6d 25 5d bd 9a 7f 40 be
       0.10804138 0.21262826 -0.05399077 -0.18798676
000340 26 a2 0a be 54 97 40 3e 9e c2 40 3c 8d 0a 02 3e
       -0.13538417 0.18807727 0.01176515 0.12699337
000350 07 c2 e9 3d 96 e6 37 be cc 03 98 bc f3 50 33 3e
       0.11413961 -0.17959055 -0.018556498 0.17511348
000360 64 09 42 3e c6 16 bd 3c a1 2f 37 bd 89 90 12 be
       0.18948895 0.023082148 -0.044723157 -0.14312948
000370 bb 8b 05 3c 11 50 6b be f8 f2 98 3d be 43 0d 3e
       0.00815099 -0.22979762 0.074682176 0.13795373
000380 1a ec 7b be 8d 4d 76 be cc 67 17 3e 8c 9c 11 be
       -0.24601784 -0.24053021 0.14785689 -0.14219874
000390 ed a6 b3 bd 5c 60 49 3d ec 57 2e 3e e8 db d6 3d
       -0.08772073 0.04916416 0.17025727 0.104911625
0003a0 8b 1c 04 bd f7 61 00 3e 8a 89 13 be 64 ba c0 3d
       -0.032253783 0.1253737 -0.14407936 0.09410551
0003b0 fa 49 8b 3d 27 d7 a8 bd 90 a0 3f 3e 42 fb 7a 3e
       0.06801219 -0.08244162 0.18713593 0.2450991
0003c0 8b 5c ae 3d 08 d5 ac 3d 28 dd c3 ba ab c1 71 be
       0.08513745 0.0843907 -0.0014943229 -0.23609035
0003d0 45 61 a6 bb 35 39 72 bc 54 e7 66 3e ac 0e 5e be
       -0.0050775134 -0.014784147 0.22549182 -0.21685284
0003e0 20 c5 d8 bd e0 8d 7c be c1 52 1b 3e db c1 a8 3d
       -0.105844736 -0.24663496 0.15168287 0.082401
0003f0 a6 c9 13 be c6 75 9e 3d d4 8f fe 3d 3a 12 59 bd
       -0.14432392 0.07737307 0.12429777 -0.052995898

linear_relu_stack.2.weight f4 [96, 256]
000000 fe ab f1 bb 3a 82 92 3a cc 71 24 bd 42 bf 70 bc
       -0.0073752394 0.0011177727 -0.040147588 -0.014694037
000010 10 d6 26 bd 21 af da bc fd 77 68 bd 8d 3e 6f 3c
       -0.04073149 -0.026694836 -0.056755055 0.014602316
000020 d7 28 57 3d c9 6d d1 b9 81 1d be bc fc 4f 26 bd
       0.052529182 -0.00039945383 -0.023207428 -0.040603623
000030 f3 39 b6 bc 77 c1 8c bb 69 07 9d bc 50 76 29 bd
       -0.02224443 -0.0042955237 -0.019168573 -0.041372597
000040 a8 3d 3e bc 4d 28 6d bd 4e 06 cf 3c 71 12 9b bb
       -0.01161138 -0.057899762 0.025271561 -0.004732423
000050 10 f1 22 3d c3 dc 65 bc 9b a5 12 3c 23 92 7e 3c
       0.039780676 -0.0140296845 0.008950616 0.015537771
000060 ff 64 71 3d 5c 5f 7a ba bf d5 3e 3c f4 74 96 3c
       0.058934208 -0.0009550953 0.011647641 0.018366314
000070 83 06 23 bd d1 82 67 3d 35 a9 09 3d 61 d3 be 3c
       -0.039801132 0.05652124 0.033608634 0.023294153
000080 52 d9 ae 3c b9 e2 49 3b 15 74 64 bd 4e 3b 41 bd
       0.02134386 0.0030805303 -0.055774767 -0.047175698
000090 e2 f3 92 bb 11 9c 67 3c f2 58 6f bc 7a 81 c8 3b
       -0.0044846395 0.01413633 -0.014608609 0.0061189504
0000a0 0b eb 06 3d 33 ae ca bb a6 94 b4 3c 8f 85 d4 3b
       0.032939 -0.006185317 0.022043537 0.006485648
0000b0 ea 31 b9 3c e8 77 0f bd 08 ff 5a bd ef 57 06 bd
       0.022606809 -0.03502646 -0.053465873 -0.032798704
0000c0 30 d6 74 bd 8b 67 16 bd 6b a7 1d 3c ec 06 84 3c
       -0.059774578 -0.03671984 0.009622435 0.016116582
0000d0 55 ab 5c bc 34 f5 27 3d 3b 05 a4 bc 90 9f b4 bc
       -0.013468583 0.04100533 -0.020022025 -0.022048742
0000e0 49 3b e6 3b f4 73 3c bd bc 65 4a 3d 4c 36 d5 3c
       0.0070261103 -0.04600902 0.049413428 0.026026867
0000f0 33 cf 66 3d 1c 71 ba bc 72 19 55 3d 6b 7a be 3c
       0.056349944 -0.022759013 0.05202622 0.023251733
000100 b9 42 35 3d 2f 95 54 3d e9 04 a1 bc 39 4c 04 bc
       0.044253085 0.051900085 -0.019655662 -0.0080748135
000110 fa 45 27 3c ba ee 10 3d da 1d 4f bd 33 3a bd 3c
       0.010209555 0.035383917 -0.050565578 0.02309904
000120 0d ac 14 3d 92 bb 20 bd 04 d5 d9 3b 3c 10 73 3d
       0.036296893 -0.03924138 0.006647708 0.059341654
000130 9b 51 20 bd 53 90 fa bc c0 db 12 bd b7 0f 4c 3d
       -0.039140325 -0.030586397 -0.0358541 0.049819674
000140 05 c5 ee bc 90 ad 76 3d c5 c2 7e bd 9c 00 ee 3c
       -0.02914668 0.060224116 -0.062197465 0.029053025
000150 b5 ac 58 3c f1 40 15 3d 69 5c 2e 3d a6 65 95 3c
       0.01322477 0.036438886 0.042568598 0.018236946
000160 15 8e df bc 83 4d 3a bd 0b e5 00 3d 3e 3c 03 bd
       -0.02728943 -0.045484077 0.031468432 -0.032039873
000170 b7 1d da 3b 93 35 60 3d 63 a2 fb ba ad 1e eb 3c
       0.0066563743 0.054738592 -0.0019198175 0.02870115
000180 1e 5f bf 3b 9e b4 98 bb 0d 6e 59 3d ad 7a d0 bc
       0.0058401963 -0.004660203 0.05308347 -0.025449121
000190 15 dc 4c bd b2 33 23 bd bf af 14 bd b8 55 66 bd
       -0.050014574 -0.039844222 -0.036300417 -0.05623409
0001a0 ee 8d 33 3c 84 02 2a bc cd f0 75 bd 07 db 91 3b
       0.010959132 -0.010376576 -0.0600441 0.004451159
0001b0 de ac 39 bd de 58 19 bd bc 8e b9 bc a8 af d8 3c
       -0.045330875 -0.037438266 -0.022651069 0.026450947
0001c0 e0 94 bd bb 12 1f 4d bd 89 96 2f bb 14 65 7d bd
       -0.0057855695 -0.05007846 -0.0026792607 -0.061863974
0001d0 71 45 58 bd 99 f9 72 3d 63 10 7d bd 7a f2 26 bd
       -0.0528006 0.059320066 -0.061783206 -0.040758587
0001e0 a8 ea ba bc 24 ea 54 ba bf 16 a0 3c 1f ea 36 3c
       -0.022816971 -0.0008122048 0.019542096 0.011164217
0001f0 4c 76 08 bd 80 b5 ab ba 05 41 fa 3c 6e b1 d1 bc
       -0.03331594 -0.0013100356 0.030548582 -0.0255973
000200 b8 56 4f bd ba b7 89 3c 1b 89 db 3c ca 14 84 3c
       -0.05061981 0.01681124 0.026798775 0.016123194
000210 34 b9 ac 3c 82 20 2a bc 39 54 42 bd 24 15 54 bd
       0.021084405 -0.010383727 -0.047443602 -0.051777974
000220 b3 9a 5b 3a aa 59 b2 bc bf 13 73 bc 6c 43 5d 3c
       0.0008377239 -0.02177127 -0.014836251 0.013504844
000230 b3 6f 4f bc e0 73 22 bc 00 4c 4c bd 2d 9d 16 bd
       -0.0126609085 -0.009915322 -0.049877167 -0.03677099
000240 30 f2 3b bd de 4c f6 bc 5b 22 c7 bc 60 e7 06 3c
       -0.045885265 -0.03006595 -0.024308374 0.008233875
000250 ce cf 8b 3c a0 7b 55 3d 50 88 3e bd 1c 1e 6b bd
       0.017066862 0.05211985 -0.046516716 -0.05740176
000260 4e 93 a2 bc 4d 9b cd bc 17 57 c6 bb dc 3c 60 3d
       -0.019845631 -0.025098467 -0.0060528624 0.05474554
000270 7d 35 23 3d 20 f6 56 bc 9d f8 82 3b ba 77 8d 3c
       0.039845932 -0.013120204 0.003996922 0.017269004
000280 15 8f 52 bd aa dd 16 bd f8 40 9e 3c 31 1f 58 3b
       -0.051405985 -0.03683249 0.019318089 0.0032977576
000290 96 e4 84 3c 79 01 80 3c 6c 52 b4 3c 6b b6 5c bd
       0.01622228 0.015625702 0.022011958 -0.053884905
0002a0 ed bb 25 3c df 47 7b bd 39 e5 85 bc f1 87 79 3d
       0.010115606 -0.06134784 -0.016344653 0.06092066
0002b0 35 2d 37 3c 92 9d fb bc 7e 91 a6 3c e4 af 39 bd
       0.011180212 -0.030714784 0.020333048 -0.045333758
0002c0 d8 ec f8 bc ab 6f fd 3a a0 86 a5 3c 08 e1 48 bc
       -0.030386373 0.0019335648 0.020205796 -0.012260683
0002d0 14 e7 60 3c 9d 74 13 bd 22 c1 a9 3b a1 de 45 bc
       0.013726968 -0.035999883 0.005180494 -0.012077005
0002e0 b2 f7 f5 3c ad 82 b2 bc 04 7a 45 bd 63 da c9 3c
       0.030025337 -0.021790827 -0.048212066 0.024640268
0002f0 16 46 88 3b e5 9a 15 3d c4 96 80 bd 01 15 33 bc
       0.0041587455 0.036524672 -0.06278756 -0.010930301
000300 03 08 7d 3d 43 73 6f 3c 9b e6 f0 3c 11 7d 47 bd
       0.06177522 0.014614883 0.029406836 -0.048703257
000310 2e 7e 46 3d 50 ed 8d bc 79 b5 d1 bc 35 55 40 bc
       0.048460178 -0.017325073 -0.025599228 -0.011739065
000320 62 83 d3 3a 5e a3 33 3c 1a 8c 7f 3c af a1 65 3c
       0.0016137178 0.010964243 0.015597368 0.014015599
000330 be 94 63 bd e7 67 48 3d 40 17 04 3d 84 73 21 bb
       -0.055561773 0.048927214 0.032248735 -0.0024635503
000340 bb 44 de 3b b3 12 69 bd af 54 8f 3c bf 81 17 bd
       0.0067830957 -0.0569026 0.017496435 -0.03698897
000350 30 a1 10 3c 4d c0 c3 3c f4 f3 d5 39 3f 20 d9 3c
       0.008827493 0.023895407 0.00040808285 0.026504634
000360 6e 2e 6a bd cc df 6d bd 32 4c dd 3c 1d d6 43 3b
       -0.057173185 -0.058074757 0.027013872 0.002988226
000370 8e 35 75 3d 06 1d 79 3c ae 2c 7f 3c 54 22 aa bc
       0.059865527 0.015204674 0.015574617 -0.020768322
000380 fe 44 1f 3d e6 50 5e bc 90 4b 3b 3c 4c d5 da 3c
       0.038884155 -0.013569092 0.01143159 0.026713036
000390 e9 d9 65 3d ac 07 fc 3c 67 86 7d bc 80 c5 1c 3d
       0.05611602 0.030765377 -0.015473939 0.03827429
0003a0 27 9c 1e 3b 5f 55 9a 3c 41 e1 6f bd 86 1f 9e 3c
       0.002420196 0.018839536 -0.05856443 0.01930214
0003b0 3b 67 0b bd e5 10 97 3c 28 bd 43 3b 9d c2 65 bd
       -0.034033995 0.018440673 0.0029867385 -0.0560938
0003c0 74 83 b9 3c 61 5b 49 bd e0 a2 6e bb 8b e4 d5 bc
       0.02264569 -0.04915941 -0.0036413 -0.026109954
0003d0 78 b2 5a bb 8b 64 1e bc de cb d1 3c 16 4b 25 3c
       -0.0033370536 -0.009667526 0.025609907 0.010088703
0003e0 cb 63 33 3d 3a 77 55 3d b3 97 5d bd 2b be c9 3b
       0.043796342 0.052115656 -0.05409975 0.006156703
0003f0 2b 09 b8 3c f8 6d 0f 3d 99 d1 62 bd 1a c1 c5 3b
       0.02246531 0.035016984 -0.05537567 0.0060349824

linear_relu_stack.2.bias f4 [96]
000000 70 09 94 3c 66 d2 3c bd 98 e9 90 bc 8c df 25 3d
       0.018070906 -0.04609909 -0.017689511 0.040496394
000010 42 36 5f 3d f3 9b 8f bb 95 e5 e4 3c 42 29 87 bb
       0.054495104 -0.0043826043 0.027941504 -0.0041247914
000020 b0 f3 1c 3d e2 7a 42 3b 75 36 6e 3d 13 87 b0 3b
       0.038318336 0.0029675295 0.058157403 0.005387196
000030 a0 da 89 3c 71 73 c5 bb 6e 6e 7d 3c f5 bd b6 3c
       0.016827881 -0.0060257246 0.015468223 0.022307375
000040 63 fa 00 bd 30 4e 50 bd c3 3a 8d bb 3e 53 4b 3d
       -0.031488787 -0.050855815 -0.0043099835 0.049639933
000050 a1 6d 42 bd e8 1d e1 bc 58 0b 95 bc d9 59 5e bd
       -0.04746783 -0.02748008 -0.018193886 -0.054284904
000060 95 9e 13 3d cc 6b 4a 3d b5 41 b5 3b 96 2b 6e 3d
       0.036039907 0.04941921 0.0055315145 0.058147036
000070 2b 2c a4 bc 06 26 70 bd 1c 1b 21 3d b9 9c 26 bd
       -0.020040592 -0.058630012 0.039332494 -0.040676806
000080 b0 4c e9 3c 9c 7c bb ba 59 3a 3e 3d 18 c3 cf bc
       0.02847895 -0.0014304104 0.046442363 -0.025361583
000090 e9 97 b5 bc 45 00 6f 3d 81 e4 4c 3d 0d 36 df bb
       -0.022167163 0.058349866 0.050022606 -0.0068118633
0000a0 b9 49 61 3d dd 53 01 bd 6a 73 5b bd 65 e4 bc 3c
       0.055001948 -0.03157412 -0.053576864 0.023058126
0000b0 ed 75 b6 bb 49 10 72 bd e9 4a 40 bd b0 88 48 3d
       -0.005568257 -0.059097562 -0.04694644 0.04895848
0000c0 bc 4c 36 bd 2b 72 16 3d 94 48 54 bc dd 15 69 bc
       -0.044506773 0.036729973 -0.012956757 -0.014226404
0000d0 bd 93 86 39 77 1c 50 3b 7e e8 c5 3c 0c 5b 2f bd
       0.00025668545 0.0031755248 0.024158712 -0.04281144
0000e0 98 55 69 3d 61 f3 fc bc 43 5a 1a 3d 65 d9 40 3d
       0.056966394 -0.03087777 0.037683737 0.047082324
0000f0 5a 50 1d bd fc be 6a b9 b8 75 9c 3c b1 0e ce 3a
       -0.038406707 -0.00022387126 0.019099101 0.0015720931
000100 c0 2e 74 bc a8 41 6a bd 78 7b 22 3d 0f cc 76 3d
       -0.014903724 -0.05719152 0.03966853 0.0602532
000110 6e 77 5f bd c7 85 29 3d f2 76 a9 3c 65 5f 27 3d
       -0.054557256 0.041387346 0.0206866 0.04086246
000120 56 43 fe bb 33 40 1f bd 46 db 06 bd 52 a6 7c 3c
       -0.007759492 -0.038879585 -0.03292396 0.015420513
000130 07 46 0f 3c f9 de 61 3d 87 f4 77 bd 73 df 75 3d
       0.008744723 0.055144284 -0.060535934 0.06002755
000140 a3 ce b4 ba 34 c4 4f bd 35 3e 02 bd d7 89 30 bd
       -0.0013794493 -0.050724223 -0.031797606 -0.043100204
000150 33 55 da bc 92 d9 0e bd eb fb 0e 3d 18 7c f8 3c
       -0.026651954 -0.03487546 0.034908216 0.03033261
000160 0c 56 0f 3d 71 95 19 3d d5 af fa bb af cb 32 bd
       0.03499417 0.037496034 -0.0076503553 -0.04365128
000170 c1 96 cc 3c b6 43 85 bc b2 82 24 bc 5f 63 31 bd
       0.024974229 -0.016267639 -0.010040926 -0.04330766

linear_relu_stack.4.weight f4 [16, 96]
000000 a9 6d e2 3b da 7d 12 3d 99 c7 03 bc aa 6b a7 bd
       0.006910045 0.035764553 -0.008043193 -0.08174832
000010 43 d0 6a bd a0 6a e5 bc da bb d0 3c 3e c5 42 3d
       -0.05732752 -0.028004944 0.0254802 0.047551386
000020 d4 6c 6d bd 7f 89 d1 3d 64 9a 4d 3d 44 44 5d 3d
       -0.057965115 0.102313034 0.050196066 0.05402018
000030 b7 55 97 3d 97 3e ca 3c 43 df 61 3d 99 48 cc bd
       0.07389396 0.024688048 0.05514456 -0.099747844
000040 ec f9 7f 3d 88 e6 87 3d 9f df bd 3c e6 44 7c ba
       0.062494203 0.06635767 0.02317792 -0.0009623304
000050 11 98 60 3d 5a 6c bf bb 32 04 8c bc 0e ad 77 bc
       0.05483252 -0.005841774 -0.017091844 -0.015116943
000060 e6 72 90 bd 12 c0 33 3d 2c 9f b7 3d b6 51 03 3c
       -0.07053165 0.043884344 0.089659065 0.008015087
000070 10 e2 55 3d 64 a8 a2 bc 3f 83 c1 3d 16 f6 a4 3d
       0.052217543 -0.019855686 0.09448861 0.0805475
000080 94 5f a5 bd 39 44 50 bd cf 39 b2 3c c4 72 0c bc
       -0.08074871 -0.050846312 0.02175608 -0.008572284
000090 38 5e eb 3c 3e 6f b1 bc cd e2 e1 3c d8 97 ea bc
       0.02873145 -0.02165949 0.027573967 -0.028636858
0000a0 3a 8b 5b bd b5 d6 b7 3c 13 40 6d bd c5 44 fe 3c
       -0.053599574 0.022441247 -0.057922434 0.031038651
0000b0 05 78 1e bc e0 b5 bf bd 0f 5d 7a 3d 2a 4e 1d bd
       -0.00967217 -0.09360862 0.061123904 -0.03840462
0000c0 0e e2 d1 3d a4 41 9b bd 21 5a 95 3d e7 ae a0 bc
       0.10248195 -0.07580879 0.07292581 -0.01961465
0000d0 68 eb 3b 3b 2f 63 99 3d 75 58 13 ba 9c bd a4 3d
       0.0028674249 0.07489621 -0.0005620786 0.080439776
0000e0 23 72 a0 bd 24 17 8a 3d a5 3f fa bc 54 84 a7 bc
       -0.0783427 0.06742695 -0.030547926 -0.020448841
0000f0 19 2e af 3d b8 27 8a 3d 0e 73 ce bd 00 26 4f bd
       0.08553714 0.06745857 -0.10080539 -0.05057335
000100 ec 44 a4 3d a2 47 ca 3d 09 22 7c bd 2c e0 5a bd
       0.08020958 0.09876944 -0.061555896 -0.053436443
000110 37 de a2 3d 4e 3f be 3c 62 63 a2 3c 81 1b 86 bd
       0.0795254 0.023223545 0.01982278 -0.06548215
000120 b0 1b 1c 3d 49 e1 6d bd c6 90 96 bd a1 79 b6 bd
       0.038112342 -0.058076177 -0.07351832 -0.089099176
000130 e1 ec cf 3c ab f6 cb 3c 62 d4 ba bc 12 02 e5 3c
       0.025381507 0.024897894 -0.02280635 0.027955089
000140 d2 39 1e bd 76 6c c6 3c e9 be 1a 3d 5d 50 af 3d
       -0.03862936 0.02422164 0.037779722 0.0856025
000150 29 8b 87 3c d0 f0 50 3d 20 01 28 3b dd ee 6a bd
       0.016545849 0.051010907 0.0025635436 -0.057356704
000160 7c 2e c2 bd 34 6a a6 3d 43 7d 69 3d 8d cc c2 3d
       -0.094815224 0.081257254 0.057004225 0.09511671
000170 27 0b 8d bd f0 13 bd bd c6 c0 3e bd 0c 5c a9 3d
       -0.06886893 -0.092323184 -0.04657056 0.0826951
000180 73 0a 1c bd c1 ff 66 bd 02 fb 74 3d 80 d9 4d bc
       -0.038095903 -0.05639625 0.059809692 -0.012564063
000190 8e fa 9e bd a4 c2 b5 3d 88 0c b6 3d 8f 82 83 ba
       -0.07762633 0.088750154 0.08889109 -0.0010033416
0001a0 97 bb cc bd e0 9e e1 3c cc 2f a5 3d 8c 0c 99 bd
       -0.099967174 0.027541578 0.08065757 -0.07473096
0001b0 12 08 88 bd 0a 14 90 3d 82 39 c8 bd a5 72 a3 bd
       -0.06642164 0.07035072 -0.09776594 -0.07980851
0001c0 30 38 8a bd db a8 4c bd 41 80 ac bd bf d0 64 bd
       -0.06748998 -0.04996572 -0.084229 -0.05586314
0001d0 4d 53 42 3d b0 a8 bd bd 4a e5 a5 3d 70 b1 81 bd
       0.047442723 -0.0926069 0.08100374 -0.06332672
0001e0 8b 33 c5 3d 86 a2 59 bd ee 22 af bd 95 3b c8 bd
       0.09628972 -0.05313351 -0.08551584 -0.09776989
0001f0 4c 9b 95 bd 00 9d 91 3d 5c 55 c6 bc 37 d9 92 bd
       -0.07305011 0.071100235 -0.024210624 -0.07170337
000200 69 7f a6 3d 10 94 05 bd 5f fe 87 bc 5c 81 b1 bd
       0.0812977 -0.032611907 -0.016600786 -0.086672515
000210 2c d8 c2 3d a0 db 21 bc 94 62 80 3d 7b 48 3d 3d
       0.09513888 -0.009879023 0.06268802 0.0462117
000220 f4 6c 9e 3d 0f d4 66 bc 40 2f 8e 3d 1d 33 9c 3d
       0.07735625 -0.014088645 0.06942606 0.076269366
000230 22 b4 b0 bd 2d 37 06 bc 13 ae c4 3d 59 26 30 3d
       -0.086281076 -0.008191866 0.096035145 0.04300532
000240 10 f6 68 3d 5d e7 17 3c 47 60 a9 bc 97 f1 6d 3d
       0.05687529 0.00927147 -0.020675791 0.058091726
000250 79 65 46 3c ce ee 2e 3d d8 11 c9 3d 62 21 9f bd
       0.012109154 0.04270821 0.098178566 -0.07770039
000260 34 f8 4b 3d 56 12 a9 3c bc 52 bb 3d 33 0a 0f 3d
       0.04979725 0.020638626 0.0914664 0.034921836
000270 c1 30 0b 3c cd 85 76 bd ef 62 de 3c 61 cc 84 3d
       0.008495511 -0.060186196 0.027146785 0.06484295
000280 5e 5f 97 3c 85 e9 72 3d 73 b7 31 bd 23 77 a7 bd
       0.018478092 0.059304733 -0.04338784 -0.081770204
000290 66 3e 25 bd 77 0d c4 3d 18 03 0f 3d d3 21 13 3d
       -0.04034271 0.09572881 0.03491506 0.03592093
0002a0 dd 57 8d 3d 94 ed 42 bd 12 c0 c0 bc 6e fe 8a bd
       0.06901524 -0.047589853 -0.023529086 -0.0678681
0002b0 35 aa 43 bc 0d 44 2a bd 4e 85 95 bc b3 3f 22 3d
       -0.011942436 -0.041568805 -0.018252041 0.03961153
0002c0 cc 73 a9 bb 9a 2a c0 bd 86 39 be 3b 61 20 a1 3d
       -0.0051712748 -0.093831256 0.005805197 0.07867504
0002d0 d0 2b 25 3d fa 29 0a 3d 78 9f b5 bd 72 fc c2 bb
       0.040324986 0.03373144 -0.08868307 -0.005950504
0002e0 17 d1 c7 bc 79 4a be 3d b4 a8 e2 3c fc 84 a5 bd
       -0.024391694 0.09291548 0.027668335 -0.080820054
0002f0 09 46 5e 3c 92 94 6c 3c 00 89 b6 bd 4d c7 01 bd
       0.013566502 0.014439719 -0.089128494 -0.03168421
000300 a6 03 c1 bd 7c 9f 70 bd 9f 26 97 3d da c6 10 bd
       -0.09424524 -0.058745846 0.07380413 -0.03534589
000310 0c 65 d0 3d 6d 68 a3 bd 46 a7 74 bd 5b 3a 89 3b
       0.10175523 -0.07978902 -0.059729837 0.0041878647
000320 19 3d 4f 3d f5 6c b5 bd 60 e6 cc bd b8 83 72 3d
       0.050595377 -0.088586725 -0.10004878 0.059207648
000330 c7 74 a1 3d ea d0 69 3d f4 47 04 3d fa b0 f1 bc
       0.07883602 0.057084 0.032295182 -0.029503334
000340 22 a0 0b 3d ec 7a eb bc a3 54 65 3d 90 e3 f2 3a
       0.03408826 -0.028745137 0.05598892 0.0018530954
000350 d4 00 1c bd cc 8a 49 3d 8b d5 b6 bd b9 84 6b 3d
       -0.038086727 0.049204633 -0.08927449 0.05749962
000360 b2 45 7d bd ac 07 21 bd c6 83 fd bc d5 ee 80 bd
       -0.061834045 -0.039313957 -0.030946624 -0.062955536
000370 84 24 71 3d bf 4b 73 3d ca f4 13 bd 38 84 b7 3d
       0.058872715 0.05939841 -0.03612212 0.089607656
000380 80 ef ad 3c e2 dc 35 ba 7e dd 24 bd 23 f4 15 bd
       0.021232367 -0.0006937516 -0.040250294 -0.03660978
000390 e9 14 59 3d 99 0d ab bd 5f 10 a6 bd 6e 15 cb bc
       0.052998457 -0.08352203 -0.08108591 -0.024790492
0003a0 b0 93 a6 bc e5 0b e9 3c 28 4e a0 bd e1 2c a7 bd
       -0.020334095 0.028448055 -0.07827407 -0.08162857
0003b0 02 a3 ae bc c7 f6 16 bd 48 38 c8 3d 39 fc bd 3c
       -0.021317963 -0.03685644 0.0977636 0.023191558
0003c0 e0 34 65 3c 7b 78 f1 3b ec 09 6a bd 44 10 6b 3d
       0.013989657 0.0073690987 -0.05713837 0.05738856
0003d0 3b 38 c7 bd 0c aa 81 3d f9 e2 af 3d e1 ef 7a 3d
       -0.09727522 0.06331262 0.085882135 0.061263923
0003e0 7d 92 93 bd ff 89 bc bd de 1c 50 bd 78 85 33 bc
       -0.07205675 -0.09206008 -0.05080878 -0.010957114
0003f0 9b e9 49 bd 7c 4e 34 bd 9f 7c 11 bd 33 79 20 3d
       -0.04929505 -0.04402016 -0.03551924 0.039178085

linear_relu_stack.4.bias f4 [16]
000000 b6 ed b4 bc 18 10 c5 bb eb 23 b8 bd c2 43 83 3d
       -0.022086006 -0.0060138814 -0.08991226 0.06409408
000010 b6 98 43 bc d5 c9 5e bd a6 ee 9e bd cb fc cc 3d
       -0.011938265 -0.0543917 -0.07760362 0.10009154
000020 3f aa a6 3d 94 71 90 bd 29 7d a1 bd d1 24 e6 bc
       0.081379406 -0.07052913 -0.078852005 -0.028093727
000030 c9 10 3a 3d c6 a2 5f bc 9b c6 24 bd 35 9c 89 3d
       0.045426164 -0.013649648 -0.040228467 0.06719247

linear_relu_stack.6.weight f4 [4, 16]
000000 85 aa 76 3e 81 c4 66 3e 4e 3b 5d 3e 45 1e 57 be
       0.24088486 0.22535898 0.21604654 -0.2100764
000010 7e 08 2f 3e 50 b7 79 3e 95 d4 56 be 2c 1d 34 3e
       0.17093083 0.24386334 -0.20979531 0.17589253
000020 39 57 78 3e be b2 25 be 13 ec 0f be 00 cd d5 bb
       0.24252023 -0.16181466 -0.14054899 -0.006524682
000030 7a b5 7a be 1e e7 4b be 9e 46 62 3e dc 6a dc bd
       -0.2448329 -0.19912383 0.22097251 -0.10762569
000040 26 b3 00 3e ee 2d c8 bd 09 eb e1 3d a8 6f 53 be
       0.1256834 -0.097743854 0.110311575 -0.20648062
000050 99 fa c0 3d f8 1a 65 3e 0e 0d fe bc 12 22 75 be
       0.09422798 0.22373569 -0.031012084 -0.23938778
000060 cd 9f 2c be 3b 40 3c 3e 13 1f 41 3e d3 c7 1e bd
       -0.16857834 0.18383877 0.1885951 -0.038764786
000070 e0 cd 28 3d bb d1 e0 3d e7 b1 2c be bc f5 ff bd
       0.041211963 0.10977503 -0.1686474 -0.12498042
000080 5a c9 6e 3e c8 c0 75 bd 83 c6 d9 bd a0 a3 7f 3c
       0.23318997 -0.059998304 -0.10633566 0.015602976
000090 cb 19 cc bd 80 cd fc bd 1b 8f e4 3d b2 89 51 3e
       -0.09965857 -0.123438835 0.11160108 0.20462683
0000a0 43 83 67 3e 7f 41 39 3e b3 27 bf 3c 52 94 c9 3d
       0.22608666 0.18091391 0.02333436 0.09842743
0000b0 82 38 4b be 6c 76 76 3d 15 d5 67 3e 39 e4 55 3d
       -0.19845775 0.06017153 0.22639878 0.052219603
0000c0 b5 19 9d bd 5c 37 55 be 6c f4 22 3e 34 28 bd 3c
       -0.07670919 -0.20821899 0.15913552 0.02309046
0000d0 1a fd 7c be b0 6c a3 3d 5b 94 4e be 70 af cf 3d
       -0.24705926 0.07979715 -0.2017378 0.10140884
0000e0 fb 31 dc bd d9 ed 35 3e c8 32 2c bd f7 19 4f 3e
       -0.107517205 0.17766513 -0.042040616 0.20224749
0000f0 3c 59 9b 3d 1d 9f 42 be e0 1f 72 3d 84 0b ce bd
       0.075853795 -0.1900601 0.05911243 -0.1006079

linear_relu_stack.6.bias f4 [4]
000000 fe d4 af 3d f3 45 c1 3c f3 28 63 be 07 b8 7a be
       0.08585547 0.023592925 -0.2218359 -0.24484263

exp_avg f4 [256, 16]
000000 22 5d 8d 3b 70 06 79 3c 09 05 d6 bb fa bf 6d 3d
       0.004314081 0.015199289 -0.006531362 0.05804441
000010 cb 9e 97 bc fb f5 dc b9 b7 8e 9e 3a 30 ca e0 3c
       -0.018508336 -0.0004214494 0.0012096976 0.02744016
000020 d0 e5 57 bb cb b3 88 3a 3d 0c 3c 3b 85 3e 82 3c
       -0.0032943375 0.0010429559 0.0028693818 0.015898952
000030 cc c0 9b b9 c4 fa 86 3a 64 38 3f ba ba 43 d2 bb
       -0.0002970755 0.0010298123 -0.00072944746 -0.006416765
000040 ac 56 00 3e 0c 1c d1 3d 7d 33 89 bb 87 0a fe bb
       0.12533063 0.10210428 -0.004187046 -0.00775272
000050 48 bd 9a bc 01 f6 88 bc bf 1d 65 3c c6 a3 86 3d
       -0.018889084 -0.016718866 0.013984143 0.06574206
000060 6d 45 95 bc fb 73 83 39 75 0c 2f 3c e4 3f e9 3c
       -0.018221581 0.0002507268 0.010684122 0.028472848
000070 27 98 3a bc 65 85 0a bc 45 4b a1 3b af 02 22 3b
       -0.011388815 -0.008454655 0.004922303 0.0024720838
000080 e8 33 be bc 43 29 e2 bc 59 85 2b 3c fa dd cf 3b
       -0.02321811 -0.027607566 0.010468804 0.0063436003
000090 3e a5 92 3b f2 4f 11 3c 85 1b 4a bc ee 98 4d bc
       0.004475265 0.008869158 -0.012335663 -0.012548668
0000a0 84 4f 8a 3c cd 68 0a ba c1 2c a1 3b bc cf cb bb
       0.01688362 -0.0005279899 0.004918665 -0.006219832
0000b0 81 2d 50 3c 50 3b 1f 3c 3e 79 99 3c 86 0a a1 38
       0.0127061615 0.009718731 0.01873457 7.6790384e-05
0000c0 e0 b9 88 bd 18 df 84 bd f0 18 83 bc 88 59 16 bc
       -0.06676078 -0.06487864 -0.016003102 -0.009176619
0000d0 dd 17 04 bc be fa 3e bc 47 f8 73 bc ee 99 06 bd
       -0.00806233 -0.011656461 -0.014890737 -0.032861643
0000e0 ba 8e 8e 3a d6 1b 34 3b 92 b7 85 bc dc 83 a3 bc
       0.0010876276 0.0027482412 -0.016322885 -0.019960336
0000f0 b2 28 73 3a d4 3d 83 3a f8 86 66 bc b4 39 82 bc
       0.00092757784 0.0010012933 -0.014070265 -0.015896656
000100 1b 2f 9b 35 ef bd e8 36 b2 c4 07 37 65 bf 68 36
       1.1562109e-06 6.93625e-06 8.092424e-06 3.46821e-06
000110 79 f4 41 37 8d 8f 2e 37 ff f3 c1 36 b4 31 9b 35
       1.1560617e-05 1.0404631e-05 5.780253e-06 1.1562865e-06
000120 63 b3 1b ac 85 25 a2 2f e1 2c 9b 35 b3 0b d7 2d
       -2.2126404e-12 2.9494288e-10 1.1561461e-06 2.4447866e-11
000130 ce 05 b4 9d 16 00 00 80 ee 21 ad 0a 63 23 d8 2e
       -4.7651605e-21 -3.1e-44 1.6672057e-32 9.828829e-11
000140 33 67 51 bd d8 6a 5b bd 03 94 08 bc 0b 42 b9 bc
       -0.05112381 -0.05356869 -0.00833607 -0.0226145
000150 c7 ee 16 bb 4f 93 66 bb 25 6e 4a bc fc 5d dc bc
       -0.0023030506 -0.0035183018 -0.012355362 -0.026900284
000160 11 fe 02 af 82 e3 f3 38 7a cd be bc e8 bd a9 bb
       -1.1913694e-10 0.000116295196 -0.023291338 -0.0051801093
000170 e4 bb 19 38 b3 07 18 bb c9 3a 24 b0 70 f9 6f 39
       3.665303e-05 -0.0023197948 -5.974639e-10 0.00022885739
000180 58 74 7f bd 48 f9 05 bd 74 72 ee 3a 0f 12 ae bb
       -0.062366813 -0.032708436 0.0018192069 -0.0053122113
000190 7e 47 8e b9 2b c7 e8 bb 55 b1 90 3b 08 76 b3 bc
       -0.00027137616 -0.007103821 0.004415671 -0.021906868
0001a0 39 d9 30 ba cd 7e b9 3a 45 a3 cf 3a 43 76 01 3c
       -0.0006746236 0.001415217 0.0015841505 0.007901731
0001b0 e2 d8 7c 32 1f 45 e7 b9 35 0f df ba b3 cb 14 3a
       1.4717644e-08 -0.00044111253 -0.0017018082 0.00056761055
0001c0 68 ba 43 bd 88 57 8c bd e1 7a af 3b 94 fa e5 bc
       -0.047785193 -0.06852633 0.0053552245 -0.028073587
0001d0 00 f6 fc ba b7 31 de bb fa c8 dc bc df 59 22 bd
       -0.0019299388 -0.006780829 -0.026951302 -0.03963649
0001e0 88 7e 96 3c b3 8b d9 3b f0 11 5b bc cc 47 1c bd
       0.018370882 0.006638968 -0.013370976 -0.03815441
0001f0 50 5d 5c 3c 3a 9a 9d 3c f2 de cf bb 28 76 a3 bc
       0.013449982 0.01923858 -0.006343716 -0.019953802
000200 15 99 a0 bd ce 37 95 bd ee 2f 1b bc d6 83 89 bc
       -0.07841698 -0.072860345 -0.009471877 -0.016786497
000210 07 c1 9a 3c f0 14 89 3c 2a 09 9c bc c3 a1 47 bd
       0.01889087 0.016733617 -0.019047339 -0.048738252
000220 b4 25 91 3a c5 37 fc 3a ac 72 be bc 9e 84 2f bd
       0.0011073858 0.0019242695 -0.02324804 -0.042851083
000230 6a 6f 8a 37 7f 49 1f 3b 88 9b 0a bd 9a fd 04 bd
       1.6502763e-05 0.0024305282 -0.033839732 -0.032468416
000240 d5 35 51 3a 79 37 62 bb 87 9e 0a ba 68 8c ae 3a
       0.0007980739 -0.0034517928 -0.00052879046 0.0013316991
000250 04 00 00 80 d5 35 51 3a a1 e7 1c 3b c3 74 e2 bb
       -6e-45 0.0007980739 0.0023941773 -0.0069108917
000260 9e 58 82 b3 dd 3b ae ba 4a 1b 47 1c a4 14 94 bb
       -6.069716e-08 -0.0013292987 6.5878847e-22 -0.004519062
000270 79 58 82 b4 d0 be c4 b4 38 0e 43 88 75 cc d1 3a
       -2.427876e-07 -3.664668e-07 -5.869739e-34 0.0016006368
000280 54 7e d7 3d 90 3e 8a 3d 49 83 22 3c 50 2d 48 3c
       0.10522142 0.06750214 0.009918996 0.012217835
000290 c7 dc 70 bb 5a ad 05 3c 45 4b ac 3b 55 eb 38 3d
       -0.0036752687 0.008159006 0.0052579963 0.045146305
0002a0 b5 5a 38 36 e1 a4 a5 b9 28 9c 29 bb f6 82 46 bb
       2.7470935e-06 -0.00031594097 -0.002588043 -0.003029046
0002b0 4a 43 ab 37 79 cb 8e b9 e4 23 1f 39 83 88 db 3b
       2.0416122e-05 -0.0002723595 0.00015176792 0.006699623
0002c0 dc 50 a6 98 10 8b b8 ae e5 51 49 ae 95 36 86 ad
       -4.299164e-24 -8.392054e-11 -4.5774846e-11 -1.5258276e-11
0002d0 95 36 06 ad 95 36 06 ad 95 36 06 ae 95 36 06 ad
       -7.629138e-12 -7.629138e-12 -3.051655e-11 -7.629138e-12
0002e0 d8 f4 32 16 04 00 00 80 36 4a 4e 99 95 36 86 ae
       1.4455985e-25 -6e-45 -1.0664937e-23 -6.10331e-11
0002f0 04 00 00 80 04 00 00 80 04 00 00 80 95 36 06 ad
       -6e-45 -6e-45 -6e-45 -7.629138e-12
000300 5c 20 88 bd 6a d6 be bd 51 16 76 bc b2 de 73 bc
       -0.06646797 -0.0931824 -0.015019969 -0.014884638
000310 8a ac ba ba c1 31 8c 3b c5 ea e2 bc f0 92 4a bd
       -0.0014242094 0.004278392 -0.027699837 -0.049456537
000320 49 9b 0f 3c e3 87 c3 ba d0 57 90 bd 3c 6a 8a bd
       0.00876505 -0.0014917817 -0.07047999 -0.06758544
000330 be 2b 80 3b 44 4b ce 3b ac 7f 0e bd 3c 83 06 bd
       0.0039114645 0.0062955935 -0.034789726 -0.03284
000340 f0 79 1f bd f2 a1 5f bd 46 7f 86 bc fe 44 cc bc
       -0.038934648 -0.054597802 -0.01641811 -0.024935242
000350 a0 ae 96 bb 30 51 70 b9 1c fb c4 bc 6e 02 ea bc
       -0.0045984536 -0.00022918428 -0.02404552 -0.028565612
000360 54 25 7d 3a c5 49 b9 ba ef 5a 1b bd 4c 8e 75 bc
       0.00096567464 -0.0014136365 -0.037928518 -0.0149875395
000370 d3 5b 65 33 86 9f 3d bb c8 03 dc bb 4d 64 08 bc
       5.340173e-08 -0.0028934195 -0.006714318 -0.008324695
000380 74 c9 2e 3d fe 57 2d 3d 3f 3a 2e 3c 9a f4 d0 3b
       0.04267259 0.042320244 0.010634004 0.006376815
000390 40 8b 84 3b 93 95 01 3c f0 4b 6a 3c 02 56 f6 3c
       0.00404492 0.007909196 0.0143003315 0.030070309
0003a0 3b 71 08 ba 38 ea 85 39 ee e8 c0 3c 3c 9a be 3c
       -0.0005204861 0.00025542243 0.02354857 0.023266904
0003b0 1a 9a 77 ba 73 c2 9b ba a6 30 1f 3c b4 61 2f 3c
       -0.0009445265 -0.0011883512 0.009716189 0.010704447
0003c0 54 22 81 3d a1 ad 21 3d 70 5e e5 bb de 10 1c bc
       0.06305376 0.039472226 -0.006999783 -0.009525506
0003d0 9b eb b2 ba 64 f6 3c 3b 7b 35 f7 3a 4d ac b0 3c
       -0.0013650538 0.0028833384 0.0018860543 0.021566534
0003e0 43 56 39 bc a9 5d 60 39 d9 59 f8 bb fb ba b7 bb
       -0.01131207 0.00021397196 -0.00757907 -0.0056070066
0003f0 e9 ef bf bb 9b 7e b5 bb bf 6d f0 bb d6 8d 9d bb
       -0.005857457 -0.005538774 -0.0073373015 -0.004808168

exp_avg_sq f4 [256, 16]
000000 58 a1 9b 3d 68 ed 71 3d 3b 91 a7 3d 1d 46 c3 3d
       0.07599133 0.0590643 0.081819974 0.095348574
000010 1c 3c 89 3c 25 74 e0 3c 8d 2a a0 3d b2 96 84 3d
       0.016752295 0.027399132 0.07820616 0.06474055
000020 a1 d8 c4 3a 7d 28 87 3b d8 b7 1b 3d 59 ee a3 3d
       0.0015018174 0.0041246996 0.038017124 0.080044456
000030 59 a6 77 39 2e c8 fc 39 8d b1 21 3b 1d 39 6e 3d
       0.00023617725 0.0004821433 0.002467248 0.058159936
000040 8e 89 75 3d 69 1f f0 3d ce d9 20 3e 96 d8 98 3d
       0.059945635 0.11724741 0.15708086 0.074631855
000050 49 be d8 3c c7 06 59 3c d0 e6 89 3d 97 64 5f 3d
       0.026457923 0.013246245 0.06733477 0.05453929
000060 9c f5 57 3b b1 55 73 3b 2a a7 89 3c da 2c 26 3e
       0.003295279 0.0037129933 0.016803343 0.16228047
000070 b0 1c 8a 3a ce 09 30 3a ce ae 53 3c 12 65 47 3c
       0.0010537114 0.0006715328 0.012920095 0.012170093
000080 d4 d9 aa 3c 96 3b 1b 3d 1f 4e 30 3d 22 ff 24 3d
       0.020855822 0.037898622 0.043043252 0.040282376
000090 fc d9 05 3c eb 14 72 3c a8 77 07 3d ef 4f c2 3c
       0.008169647 0.014775495 0.033073097 0.023719756
0000a0 c9 ea f7 39 5e b8 cb 3a b2 05 25 3c ad 88 13 3d
       0.0004728644 0.0015542617 0.010072159 0.036019016
0000b0 b8 6f cb 3a 32 55 04 3b f3 c5 ff 3a 00 ba cb 3c
       0.0015520966 0.0020192382 0.001951395 0.024868965
0000c0 ba 85 69 3c f7 19 86 3c b9 1c cc 3c 54 6d 28 3c
       0.014253074 0.016369803 0.02491604 0.010279972
0000d0 4e 48 b5 3b cc 1e 0b 3c d4 f4 87 3c eb 62 c2 3c
       0.005532301 0.008491229 0.016596235 0.023728808
0000e0 85 99 5d 3a e6 87 4f 3a 36 29 1c 3c 8e 81 f5 3c
       0.0008453357 0.0007916674 0.00953131 0.029969003
0000f0 79 d0 9d 3a f1 d4 88 3a 5b 14 9c 3b ab 0b dd 3b
       0.0012040279 0.0010439438 0.0047631687 0.0067457757
000100 2d 8b 06 3a 4d ff d4 37 bf 52 bd 39 d2 f7 3f 39
       0.0005132433 2.5391253e-05 0.0003611054 0.000183075
000110 b1 b6 5e 3a 57 2b 9f 3a a4 fb 3a 38 e8 04 84 3a
       0.0008495851 0.0012143654 4.4580214e-05 0.0010072263
000120 af 33 4a 35 0a 7f bf 3a 37 38 c0 39 d0 9a 63 37
       7.5326074e-07 0.0014610004 0.00036662977 1.35662995e-05
000130 df 32 1d 34 e8 72 d3 36 dd 91 da 35 b3 1e 41 39
       1.4640271e-07 6.301667e-06 1.6284718e-06 0.0001841735
000140 b9 14 15 3c 51 b1 a4 3c 11 ec d9 3b f3 e4 b3 3b
       0.009099179 0.020104082 0.0066504558 0.0054899394
000150 f1 1b 75 3a fc 4d 0b 39 be 35 42 3b 85 50 89 3b
       0.0009350172 0.00013285124 0.0029634084 0.004190507
000160 da 05 84 38 f1 21 14 39 e0 f9 43 3a e6 3e 30 3c
       6.2953404e-05 0.00014127024 0.0007475894 0.010757184
000170 72 a0 29 38 ed c3 eb 38 62 6f a2 38 b7 90 c9 3a
       4.0442166e-05 0.00011242167 7.7455086e-05 0.0015378211
000180 e4 9f ef 3b 3c 64 86 3c da 37 73 3c bb 25 ec 3b
       0.0073127616 0.016405217 0.014844859 0.0072066463
000190 5d 70 df 39 08 fb 04 3b 4c 7a 56 3b 22 e8 7d 3c
       0.00042617592 0.0020291228 0.0032726703 0.015497239
0001a0 e6 1b e1 37 ee 49 f1 38 26 e1 38 3a 9b 6f 09 3c
       2.6835081e-05 0.00011505546 0.00070525927 0.008388425
0001b0 66 56 17 38 a1 09 09 39 ae da c3 38 28 20 11 3b
       3.608167e-05 0.00013068925 9.339057e-05 0.002214441
0001c0 9f bc ae 3c 71 ae d4 3c 99 ca ab 3c da fa 74 3d
       0.021330176 0.025962086 0.02097063 0.059809543
0001d0 f1 24 0e 3c 3c 0b 15 3c 51 82 e1 3c 0e 88 5b 3d
       0.0086758 0.009096917 0.02752796 0.05359655
0001e0 60 6c 9e 3a 6c 18 51 3b 3a a0 e9 3c f5 45 0c 3d
       0.0012086742 0.0031905426 0.028518785 0.034246404
0001f0 21 f4 7b 3b 69 0f f3 3b 85 80 94 3c 21 ec f0 3c
       0.0038445073 0.0074176085 0.01812769 0.02940947
000200 9d 03 2e 3d 79 1f 3a 3d 3f bf 40 3d ca 28 9c 3c
       0.042483915 0.04544017 0.047057386 0.019062418
000210 10 a7 93 3c 89 ea d3 3c 92 b4 55 3d 89 83 b8 3d
       0.018023998 0.025868671 0.05217416 0.09009463
000220 d1 b7 72 3b 56 db c9 3b 56 1d 97 3c 09 5f 4a 3d
       0.0037035833 0.00616018 0.018446606 0.04940704
000230 3f d1 c6 3b 9c cc 84 3b 8d b8 0d 3c 70 b6 e7 3c
       0.0060674245 0.0040527117 0.008649957 0.028285235
000240 7f 44 ed 38 9d 73 b3 3b ac bf a8 3a 92 ff 3e 3a
       0.00011313799 0.0054764287 0.0012874505 0.0007286008
000250 1d d3 c1 35 7e 45 7c 38 1d a2 90 39 48 4b e3 3a
       1.4441063e-06 6.01462e-05 0.00027586604 0.0017341161
000260 a3 db 3c 38 a0 10 36 36 3f 45 16 39 58 1c c0 3a
       4.5027246e-05 2.712979e-06 0.00014330911 0.0014656885
000270 82 0d ae 36 1c 65 11 38 d2 f5 ee 36 41 ee 91 3b
       5.1871766e-06 3.466486e-05 7.12157e-06 0.004453451
000280 f7 8e 76 3c 55 ab 52 3c 16 f3 df 3b 6c 94 3e 3c
       0.015048734 0.012858232 0.006834398 0.011632066
000290 2c cd 6f 3b cf 77 3b 3b f6 51 ba 3b ac 49 81 3c
       0.0036590798 0.0028605347 0.00568604 0.0157822
0002a0 68 0a 42 39 c0 8a b3 38 41 80 0f 3c 43 cf 46 3b
       0.00018505158 8.561229e-05 0.008758605 0.003033594
0002b0 51 be 41 38 a8 90 41 38 9b 02 9f 39 3d 97 d1 3b
       4.619203e-05 4.6149507e-05 0.00030328784 0.006396203
0002c0 1c 8a e8 33 bf 4b dd 39 a0 77 c5 38 24 21 66 37
       1.0828464e-07 0.0004220884 9.415974e-05 1.3716784e-05
0002d0 1e 8c 7c 33 5a 42 89 34 37 4a d1 38 51 22 48 36
       5.8800758e-08 2.5566516e-07 9.97972e-05 2.9822297e-06
0002e0 a6 70 be 33 33 37 8a 34 ae 34 e9 36 2f 18 c6 38
       8.868055e-08 2.5744666e-07 6.950074e-06 9.44588e-05
0002f0 ff 16 2c 31 03 72 86 34 ff 16 2c 32 d3 6f 8a 35
       2.5042366e-09 2.50424e-07 1.0016946e-08 1.0314346e-06
000300 d9 74 10 3c bc 5f c7 3c 00 41 2f 3c 5b a7 bc 3b
       0.008816921 0.024337642 0.01069665 0.005757255
000310 aa a5 89 3b d2 fe ec 3a 23 1a 41 3c 51 88 62 3c
       0.004200657 0.0018081313 0.011786017 0.013826446
000320 5a 21 82 3a d5 09 b0 3a 2b 50 df 3b 1e 31 87 3b
       0.0009928152 0.0013430665 0.0068149767 0.0041257283
000330 fc 30 48 3a c8 c0 e3 3a 6c f9 41 3b 6a 9f 13 3c
       0.0007636694 0.0017376179 0.002959813 0.009010175
000340 ff 02 6f 3c e1 04 06 3d 6a bd 89 3c fd 19 f4 3c
       0.014588117 0.032719497 0.016813952 0.029797548
000350 a3 55 91 3b 83 40 c2 3a 15 80 be 3c 2f 8e 6c 3c
       0.0044352575 0.0014820251 0.023254434 0.014438196
000360 27 3b bc 38 de fe b6 39 d4 ba ab 3b 9e 86 7c 3c
       8.9755566e-05 0.00034903636 0.0052407775 0.015412955
000370 81 ac 0f 38 b5 47 91 38 35 05 6e 3a 1d d0 eb 3b
       3.4254514e-05 6.927495e-05 0.00090797554 0.00719644
000380 7b 33 2f 3c 84 68 d4 3c af 45 ac 3c 95 2e 5a 3c
       0.010693426 0.025928743 0.021029321 0.01331677
000390 c5 68 f8 3b 0b 78 14 3b be fa 95 3c f6 6e 6f 3c
       0.007580849 0.002265456 0.01830804 0.0146138575
0003a0 58 84 de 3a 34 c9 8a 39 73 3c e6 3b 27 cd be 3c
       0.0016976697 0.0002647132 0.007026249 0.023291184
0003b0 51 2c 1b 38 c8 05 64 39 e0 b6 03 3b cc c0 0c 3b
       3.6996153e-05 0.00021745928 0.0020098016 0.002147722
0003c0 2a fc 1f 3c 0c f8 96 3c 68 81 b9 3c a4 6a a3 3c
       0.00976471 0.018428825 0.022644714 0.019948311
0003d0 40 4c b1 3b 9f 23 f9 3b a7 4b 98 3c 6e e1 af 3c
       0.005410701 0.0076031233 0.018590761 0.021469798
0003e0 b4 ee eb 3a db 7f 3e 3b 9a dd db 3b f3 e1 ac 3c
       0.0018000216 0.0029067907 0.0067097666 0.021103835
0003f0 16 65 d9 3a bb 5f d7 3a 60 73 6c 3b 49 f7 4a 3c
       0.0016585912 0.0016431728 0.003607951 0.012388059
