Version_1/v1_TrainAI_ep200.pth (torch, 376111 bytes, 24 tensors)

linear_relu_stack.0.weight f4 [256, 16]
0	0x3e429d50	0.19005322
1	0x3e583f1f	0.21117829
2	0xbe1aa1b2	-0.15100744
3	0x3d4cad08	0.049969703
4	0xbdea7682	-0.11448385
5	0x3dc48252	0.09595169
6	0x3de9fa92	0.114247456
7	0xbcd1c666	-0.025607299
8	0xbe67d519	-0.22639884
9	0xbd935241	-0.07193423
10	0x3e26b3fa	0.16279593
11	0x3e190f1e	0.14947173
12	0xbe1a59a1	-0.15073253
13	0x3e61c479	0.22047605
14	0x3de65ecf	0.11248552
15	0x3dedb961	0.11607624
16	0xbe225b0d	-0.15855046
17	0xbdc62b39	-0.09676213
18	0x3e0be332	0.13660887
19	0xbdf297cf	-0.118453614
20	0xbe1726d8	-0.14760911
21	0xbd70e6a3	-0.058813702
22	0x3e7413f2	0.23835734
23	0xbcf36ca5	-0.029714892
24	0xbe7444b1	-0.23854329
25	0x3e4f439e	0.20240638
26	0x3e2ff276	0.17182335
27	0xbe72f1df	-0.23725079
28	0x3e58892c	0.21146077
29	0x3ddfa69b	0.10920449
30	0xbd1ff4c9	-0.039051805
31	0x3e372016	0.17883334
32	0x3e3c4f87	0.18389712
33	0xbda02345	-0.07819227
34	0x3e36e259	0.17859782
35	0xbdd11dfa	-0.10210796
36	0x3e410427	0.1884924
37	0xbd438aec	-0.047739908
38	0xbd97a949	-0.074053355
39	0xbb45a036	-0.0030155308
40	0xbceab866	-0.028652381
41	0x3e18b311	0.14912058
42	0xbe5b52be	-0.21418282
43	0x3e0f77a8	0.14010489
44	0xbddac720	-0.10682511
45	0x3e51875d	0.20461793
46	0x3dcfce1a	0.10146733
47	0x3cc6802f	0.024231045
48	0xbe42933f	-0.19001482
49	0xbd9dc11e	-0.0770285
50	0xbdf6cfec	-0.12051377
51	0x3e031988	0.12802708
52	0x3c4d719c	0.012539294
53	0xbe0511bf	-0.12995051
54	0xbe07380a	-0.13204971
55	0xbe647bdc	-0.22312874
56	0x38aa9914	8.134745e-05
57	0x3e4f010b	0.20215242
58	0xbcbbc5e2	-0.022921506
59	0x3d85e700	0.065382004
60	0x3e720e13	0.23638181
61	0x3e464f21	0.19366123
62	0x3e2b27f2	0.16714457
63	0x3d0f3fc0	0.034972906
64	0x3dfc97d0	0.123336434
65	0x3d0e4d5e	0.03474175
66	0x3ce8a4f9	0.028398978
67	0x3ca14555	0.01968638
68	0xbd8c5850	-0.06852782
69	0x3d5d7193	0.05406339
70	0x3e71ddac	0.23619717
71	0xbded9fea	-0.11602767
72	0xbe50472d	-0.20339651
73	0xbe555be3	-0.20835833
74	0x3b1ec5bc	0.0024226746
75	0xbe41ad9b	-0.18913881
76	0xbcb954ef	-0.022623507
77	0x3e6f24b8	0.23353851
78	0xbdaa7394	-0.08322826
79	0x3d9cd6d1	0.076581605
80	0xbd1620fa	-0.036652543
81	0xbdf13e12	-0.11779417
82	0xbd4978f5	-0.04918762
83	0xbe2f2d39	-0.17107095
84	0x3e59e26c	0.2127778
85	0x3e7881ce	0.24268267
86	0x3d9ea08f	0.07745468
87	0xbe3ce359	-0.18446101
88	0x3e505a68	0.20346987
89	0x3e0c2575	0.13686164
90	0xbe361ea6	-0.17785129
91	0x3d8a0d4d	0.06740818
92	0x3e7752e7	0.24152718
93	0x3e3da69c	0.18520588
94	0x3d6f05c8	0.058355123
95	0x3e0e77db	0.13912909
96	0xbe413cfe	-0.18870923
97	0x3e707713	0.23482923
98	0x3e163b68	0.14671099
99	0x3dde03bc	0.10840556
100	0xbc76e754	-0.015069801
101	0xbdda9ebf	-0.1067481
102	0x3ca53b26	0.020169806
103	0x3d2fec31	0.04294986
104	0x3c2a1578	0.010381095
105	0xbb1b8688	-0.002373131
106	0x3e12181b	0.14267008
107	0x3c99f151	0.018791826
108	0x3d660063	0.056152713
109	0x3e6f5529	0.2337233
110	0x3d54684d	0.05185728
111	0x3dff639c	0.12470171
112	0xbe6ff8ce	-0.23434755
113	0x3e5cbddd	0.21556802
114	0x3e1bd584	0.15218168
115	0xbe204c95	-0.15654214
116	0x3e69f0a6	0.22845706
117	0x3c21d998	0.009878539
118	0x3e449bf3	0.19200115
119	0xbe6ca542	-0.23109916
120	0x3dfaba1e	0.1224253
121	0x3c3a6d88	0.011378653
122	0xbce88b79	-0.028386818
123	0xbc3b356f	-0.011426314
124	0x3cb6c761	0.022311868
125	0x3b5f19f3	0.0034042567
126	0x3e11d7ae	0.14242432
127	0x3e07dc67	0.1326767
128	0x3e1b9322	0.15192845
129	0x3e10f532	0.14156035
130	0x3df544b6	0.11975996
131	0xbe6177f0	-0.22018409
132	0x3d830098	0.063965976
133	0xbe1b9d9b	-0.1519684
134	0xbe189671	-0.14901139
135	0x3e6034fa	0.21895209
136	0x3e7de44e	0.24794123
137	0xbddc0220	-0.10742593
138	0xbe5797de	-0.21054026
139	0xbdf71d23	-0.12066104
140	0xbd985272	-0.074376
141	0x3e44a937	0.19205175
142	0xbe4a9855	-0.19784673
143	0xbd26ab3a	-0.040690638
144	0xbe79e900	-0.24405289
145	0x3e6d2c94	0.23161536
146	0xbe335912	-0.17514446
147	0xbd9a6c40	-0.07540178
148	0xbd9fe289	-0.0780688
149	0xbddbbd5b	-0.10729476
150	0xbd993595	-0.07480923
151	0xbdedca26	-0.116108224
152	0xbd9d736d	-0.07688031
153	0xbe5d1f4b	-0.21593969
154	0x3e11a799	0.1422409
155	0xbe53fa3f	-0.2070093
156	0x3df0f9d2	0.117663994
157	0x3e700547	0.23439513
158	0xbd877bb8	-0.06615394
159	0x3db1e92a	0.08687051
160	0x3e5e6d90	0.21721482
161	0x3e43aed7	0.19109665
162	0xbc03b0fe	-0.008037804
163	0xbe3e1a79	-0.18564786
164	0xbd81ab13	-0.06331458
165	0x3d7500cc	0.059815213
166	0xbd565a86	-0.052332424
167	0x3e26f2ee	0.16303608
168	0xbbc39aa1	-0.005969361
169	0xbe005e8e	-0.1253607
170	0xbd3a6c6b	-0.04551355
171	0x3e43c9e6	0.19119987
172	0xbd447b58	-0.047969192
173	0xbe02637c	-0.12733263
174	0xbe019f8f	-0.12658523
175	0xbe7dd4a8	-0.24788153
176	0xbe3815e9	-0.17977108
177	0x3e2e5f0b	0.17028444
178	0x3d7a9ab8	0.061182708
179	0xbdbe47c0	-0.09291029
180	0xbe32f7ee	-0.1747739
181	0x3c252118	0.010078691
182	0x3d3b8d5b	0.045789104
183	0x3e619356	0.2202886
184	0x3daacf59	0.0834033
185	0xbd8fe6e6	-0.07026462
186	0x3d573f55	0.052550633
187	0x3e2c09c4	0.168006
188	0xbdba8482	-0.09107305
189	0x3d921c88	0.07134348
190	0xbd319d2d	-0.043362785
191	0xbe1db30b	-0.1540033
192	0x3ddc0cce	0.1074463
193	0x3cc019b0	0.023449749
194	0xbe45f5fe	-0.1933212
195	0xbc161cbf	-0.009162127
196	0xbe0e541e	-0.13899276
197	0xbb48678d	-0.00305793
198	0x3e449a9c	0.19199604
199	0x3e2c68a0	0.16836786
200	0xbc212b80	-0.009837031
201	0x3e47c566	0.19508895
202	0x3e12f040	0.1434946
203	0xbd119bd0	-0.035548985
204	0x3c8d29a1	0.017231764
205	0x3db357a5	0.08756951
206	0xbe59ba82	-0.21262553
207	0xbe74a1fb	-0.23889916
208	0x3e138492	0.1440604
209	0xbe6d8009	-0.23193373
210	0x3c76f728	0.015073575
211	0xbd94b6ef	-0.07261454
212	0x3d783268	0.060594946
213	0x3d98f195	0.07467953
214	0xbe178935	-0.14798434
215	0xbe6cc69a	-0.23122635
216	0x3d4ae87c	0.04953812
217	0xba2843de	-0.00064188044
218	0x3e0c9ca8	0.13731635
219	0xbe374751	-0.17898299
220	0x3de1561a	0.11002751
221	0x3e3fd968	0.18735278
222	0xbe338f55	-0.17535146
223	0xbe4b5516	-0.19856676
224	0xbdd15fad	-0.10223327
225	0xbbccb8ff	-0.006247639
226	0xbe5e68fb	-0.21719734
227	0x3dd7c18d	0.10534964
228	0x3e23ccad	0.15996046
229	0xbc6280f1	-0.013824687
230	0xbe532284	-0.20618635
231	0xbd634fed	-0.055496145
232	0xbc98f219	-0.018670129
233	0xbe6dd01f	-0.23223923
234	0x3e5dd68a	0.21663871
235	0xbd569985	-0.0523925
236	0xbd5e7d99	-0.054318998
237	0x3e15605b	0.14587538
238	0x3d648aba	0.055796362
239	0xbd3ae599	-0.045629118
240	0xbc78ecc8	-0.015193172
241	0x3dbd18f8	0.09233278
242	0x3e0edce7	0.13951455
243	0x3e47e585	0.19521149
244	0x3dd5de44	0.104427844
245	0x3e31bce4	0.17357212
246	0x3b8bb0a8	0.0042630024
247	0xbd874e08	-0.0660668
248	0xbb80fa85	-0.0039361143
249	0x3df9235d	0.12164948
250	0x3c73cffc	0.01488113
251	0x3e501a62	0.20322564
252	0x3e2ba78a	0.1676313
253	0x3d90352a	0.0704139
254	0x3db010f3	0.08596983
255	0x3e466e63	0.19378047

linear_relu_stack.0.bias f4 [256]
0	0x3c328ad1	0.010897354
1	0x3e2ac143	0.16675286
2	0x3e171d8f	0.1475737
3	0x3e30083f	0.17190646
4	0xbe3d41b9	-0.18482102
5	0x3d276624	0.040868893
6	0x3e3aa415	0.18226655
7	0x3e01b549	0.12666811
8	0xbd730456	-0.059330307
9	0xbe05711e	-0.13031432
10	0xbc21d92e	-0.00987844
11	0xbddd1c0a	-0.10796364
12	0xbe1e7bbf	-0.15476893
13	0xbdcdd9d3	-0.10051312
14	0x3da36b01	0.07979394
15	0x3d9477de	0.07249425
16	0x3bca5e78	0.0061758123
17	0xbe78ccce	-0.24296877
18	0x3e78542b	0.24250858
19	0xbcbf51ee	-0.023354497
20	0xbe43785a	-0.19088879
21	0xbe04c59c	-0.12966007
22	0xbc2c3408	-0.010510452
23	0xbc2ddada	-0.01061126
24	0x3e71db84	0.23618895
25	0x3e7a3285	0.24433334
26	0xbe7c6969	-0.24649586
27	0xbd33b006	-0.04386904
28	0xbd752c7c	-0.059856877
29	0xbcd1a2b6	-0.025590282
30	0xbd982c9b	-0.07430383
31	0x3e229b9e	0.15879676
32	0x3c79241c	0.015206363
33	0xbdae4cd5	-0.08510748
34	0xbdde0d52	-0.108423844
35	0xbe073210	-0.13202691
36	0xbd29c66b	-0.04144899
37	0xbe6a66cd	-0.22890778
38	0x3deb0893	0.11476245
39	0xbdf6bb8a	-0.12047489
40	0x3e3b5870	0.18295455
41	0xbe62ac20	-0.22135973
42	0x3e80173e	0.25017732
43	0x3d2c105b	0.042007785
44	0xbe4152b2	-0.18879202
45	0xbdee6f2a	-0.116422966
46	0x3e17e6bc	0.14834112
47	0xbde916b7	-0.11381286
48	0x3e1c86a9	0.15285744
49	0xbe4dfd40	-0.20116138
50	0xbdce6edc	-0.100797385
51	0xbe6a8b61	-0.22904731
52	0xbdf23d5e	-0.11828111
53	0xbc7b3e83	-0.015334728
54	0xbe08c9c1	-0.13358213
55	0xbdf7df5c	-0.12103149
56	0xbe64dde3	-0.22350268
57	0xbe1501d1	-0.14551474
58	0x3e63c779	0.22244062
59	0xbe574e2d	-0.21025915
60	0xbb0657b6	-0.0020499057
61	0x3c8356f3	0.016032672
62	0x3e7205dc	0.23635048
63	0x3e6ef719	0.23336448
64	0xbe7e5a0a	-0.24839035
65	0x3e328a21	0.17435504
66	0xbe230dd0	-0.15923238
67	0xbdc674e3	-0.09690263
68	0xbe2b82f8	-0.1674918
69	0xbe79e51c	-0.24403805
70	0xbe0bc43c	-0.13649076
71	0xbe5e8367	-0.21729814
72	0xbd871ddd	-0.06597493
73	0x3e41dd97	0.18932186
74	0xbcb3838c	-0.021913312
75	0xbe2f56c4	-0.17122942
76	0xbdd65082	-0.104645744
77	0xbd7d762d	-0.06188028
78	0x3dfd0914	0.12355247
79	0x3e3f8b74	0.18705541
80	0xbceb0def	-0.028693167
81	0xbd9153c5	-0.07096056
82	0xbdd332cd	-0.10312424
83	0xbe076b19	-0.13224448
84	0x3e35210b	0.17688386
85	0xbcb89674	-0.02253268
86	0x3d00dc68	0.031460196
87	0x3ce86756	0.028369587
88	0xbe01c64b	-0.12673299
89	0x3d3ef968	0.04662457
90	0x3de4cc82	0.11171819
91	0xbe573af2	-0.2101858
92	0xbe80dc4c	-0.25168073
93	0x3d95ce02	0.073146835
94	0xbd9e0876	-0.077164575
95	0x3dea26ab	0.114331566
96	0x3db79bda	0.08965273
97	0x3e807948	0.2509253
98	0xbd3a8d44	-0.045544878
99	0x3d871f11	0.06597722
100	0x3dd5ca0a	0.104389265
101	0xbcfb3132	-0.030663107
102	0xbe7045c7	-0.23464118
103	0xbe15f9c6	-0.14646062
104	0x3e448995	0.19193108
105	0x3e73c254	0.23804599
106	0xbdbc8029	-0.09204132
107	0xbe29b35a	-0.16572323
108	0x3e18641a	0.14881936
109	0x3e0c0e22	0.13677266
110	0x3e82401a	0.2543953
111	0x3bdc68cd	0.0067263604
112	0xbb7f48db	-0.0038953337
113	0xbe6050dd	-0.21905847
114	0xbe708040	-0.23486423
115	0x3e752aa9	0.23942055
116	0xbdef89f3	-0.116962336
117	0x3e455a70	0.1927278
118	0x3e836839	0.25665453
119	0xbe38766b	-0.18013923
120	0x3e2e5878	0.17025936
121	0x3e558ed4	0.20855266
122	0x3cf0d7c6	0.029399764
123	0x3c15656b	0.009118418
124	0xbdb63055	-0.08895937
125	0xbd8fbb9c	-0.070182055
126	0xbd89bb3d	-0.06725166
127	0xbd948d88	-0.072535574
128	0x3e2f6e57	0.17131935
129	0x3d9b0c64	0.07570723
130	0xbe24d48c	-0.16096705
131	0x3e064510	0.13112283
132	0xbe11a8d1	-0.14224555
133	0xbe6295af	-0.22127412
134	0xbde2e17f	-0.11078166
135	0xbe6eaa91	-0.23307253
136	0xbd0b86b8	-0.034064025
137	0xbe0b2584	-0.1358853
138	0x3dda7a65	0.10667876
139	0x3d64a0a9	0.05581728
140	0xbe4919e0	-0.19638777
141	0xbda60c04	-0.081077605
142	0xbe164ea7	-0.14678441
143	0xbe2f1191	-0.17096545
144	0xbe65e5b8	-0.22450912
145	0xbe503321	-0.20332004
146	0x3e3c50dd	0.18390222
147	0x3d68cf24	0.05683817
148	0xbd3f7317	-0.046740618
149	0x3e18643b	0.14881985
150	0x3d70e453	0.058811497
151	0xbd37dbf3	-0.044887494
152	0x3c267392	0.01015939
153	0xbcbe5473	-0.023233628
154	0xbceea850	-0.029132992
155	0xbd14f6cb	-0.036368173
156	0xbe23f848	-0.1601268
157	0xbd8f56e1	-0.06998993
158	0x3d149627	0.03627601
159	0xbe2d135e	-0.16901919
160	0xbda281f4	-0.07934943
161	0x3e702894	0.2345298
162	0xbd30bf93	-0.04315145
163	0x3e43b0c3	0.19110398
164	0xbd9e62ec	-0.077337116
165	0x3e66fc7b	0.22557251
166	0x3cf5a0bc	0.02998387
167	0xbcaf2f33	-0.021384811
168	0x3e5ef1b2	0.21771887
169	0xbe15c33c	-0.14625257
170	0xbe7bf17b	-0.24603836
171	0xbe32b59d	-0.17452092
172	0x3ca26fd1	0.019828709
173	0x3d532d99	0.051557157
174	0xbcce25e4	-0.025164552
175	0xbdfa2aa1	-0.12215162
176	0x3e0550f7	0.13019167
177	0x3e56b546	0.20967588
178	0xbd27912a	-0.040909924
179	0x39a7888f	0.00031954466
180	0x3e42f887	0.19040118
181	0xbceb4df7	-0.0287237
182	0xbe757ef8	-0.23974216
183	0x3e496804	0.19668585
184	0x3d5963a5	0.053073544
185	0xbd4b3129	-0.04960743
186	0xbe720145	-0.23633297
187	0xbdd3a85f	-0.103348486
188	0x3cf83c92	0.03030232
189	0x3d84ecdb	0.06490489
190	0x3de0e3ad	0.10980926
191	0x3c5d0984	0.013491038
192	0xbe342edb	-0.17595999
193	0x3df510ed	0.11966119
194	0xbe7c8cd4	-0.24663097
195	0xbe57ff0b	-0.21093385
196	0xbe1e93c4	-0.15486056
197	0xbdee22cc	-0.11627731
198	0x3d8f0d47	0.06984954
199	0xbe0ec7c8	-0.13943398
200	0x3e150754	0.14553577
201	0xbe5440b5	-0.20727809
202	0xbe1c7c4d	-0.15281792
203	0x3dcbf63e	0.09959076
204	0xbdde7b1e	-0.108633265
205	0x3e141ebe	0.14464852
206	0xbe0dc784	-0.1384564
207	0xbd983c49	-0.074333735
208	0x3e30aac6	0.17252645
209	0x3d439da0	0.047757745
210	0xbe222300	-0.15833664
211	0x3c89f9f6	0.016842823
212	0x3e725ec0	0.23668957
213	0xbd7329c9	-0.05936602
214	0x3e6b3076	0.22967705
215	0x3cc8f1d1	0.02452937
216	0x3e496156	0.19666037
217	0xbe1716d3	-0.147548
218	0xbdd127eb	-0.10212692
219	0x3d8743d3	0.06604733
220	0xbe01c75d	-0.12673707
221	0x3e082f46	0.13299283
222	0x3dc52896	0.09626882
223	0x3dc89578	0.09794134
224	0x3cd17567	0.025568677
225	0xbe806382	-0.25075918
226	0x3e050093	0.129885
227	0x3e24f8e0	0.16110563
228	0x3e3662a3	0.17811064
229	0xbd0e3ddb	-0.03472696
230	0xbe4a9505	-0.19783409
231	0x3daedcea	0.0853823
232	0xbe165b1e	-0.14683196
233	0xbe1350b0	-0.14386249
234	0xbdb7c9a3	-0.08974006
235	0xbe2440c4	-0.16040331
236	0xbe6ef21a	-0.23334542
237	0x3df61743	0.120161556
238	0x3d840ce3	0.064477704
239	0x3de73b41	0.11290599
240	0xbd941c09	-0.0723191
241	0x3dca2ac2	0.09871437
242	0xbdc9736b	-0.09836467
243	0x3e394fc2	0.18096831
244	0x3d031842	0.032005556
245	0x3ddf1fb5	0.108947195
246	0x3dc2f367	0.095190816
247	0xbd19303a	-0.037399508
248	0xbcc56932	-0.024098013
249	0x3e0a502a	0.13507143
250	0x3e2ce7bd	0.16885276
251	0x3e522e95	0.20525582
252	0xbe0958d3	-0.1341279
253	0x3ddea50d	0.10871325
254	0xbdcb4a37	-0.09926265
255	0x3e7ecaa0	0.24881983

linear_relu_stack.2.weight f4 [96, 256]
0	0x3d4cce1a	0.05000124
1	0x3ce93a16	0.02847008
2	0x3d571f61	0.05252016
3	0x3ccf7a3a	0.025326837
4	0x3cf82a8f	0.030293731
5	0x3d08b9d8	0.03338036
6	0xbd639e1c	-0.055570707
7	0x3c0150db	0.007892813
8	0xbc8c4795	-0.017123977
9	0x3c08db18	0.008353017
10	0x3d46186a	0.048363127
11	0x3d66ec1f	0.056377526
12	0x3d000469	0.031254206
13	0xbd132f4f	-0.03593379
14	0xbc9e4e5b	-0.019324472
15	0xbc97007e	-0.018432852
16	0x3d214be8	0.03937903
17	0x3d58804e	0.052856736
18	0xbc994c84	-0.018713243
19	0x3ca326bc	0.01991593
20	0x3d1d255f	0.038365718
21	0x3d66026a	0.056154646
22	0xbca1caa0	-0.01974994
23	0xbd2d837b	-0.042361718
24	0x3d22acd9	0.03971562
25	0xbd1ca7cf	-0.038245972
26	0xbceff4a3	-0.029291457
27	0x3bee76bb	0.0072773374
28	0x3d09d3e0	0.033649325
29	0x3bfa522e	0.007639191
30	0xbd29ae39	-0.041425917
31	0x3ce99a38	0.02851592
32	0xbccdb1f1	-0.025109263
33	0x3d4dee11	0.050275866
34	0xbcc31867	-0.023815347
35	0xbd0ebb24	-0.03484644
36	0x3c937b30	0.018003076
37	0x3cef5958	0.029217407
38	0xbbae0783	-0.005310954
39	0x3d39f20a	0.045396842
40	0xbcb74fac	-0.022376858
41	0xbca0c009	-0.01962282
42	0x3d3c3bba	0.045955397
43	0xbcd764bf	-0.026293157
44	0x3b0670b8	0.0020513963
45	0x3caf57cb	0.021404168
46	0xbcf9102d	-0.030403221
47	0xbcc8c416	-0.024507564
48	0xbd52f681	-0.051504616
49	0xbcfb1774	-0.030650832
50	0x3d050d76	0.03248354
51	0xbcc5b261	-0.02413291
52	0xbd0acd43	-0.03388716
53	0x3b421152	0.0029612374
54	0x3c7ac4a6	0.015305674
55	0x3d05562f	0.032552894
56	0xbc644c16	-0.013934156
57	0x3d4b5d12	0.049649306
58	0xbd0ac012	-0.03387458
59	0xbd5ec6ab	-0.054388683
60	0x3d0fade2	0.035077937
61	0xbbc48108	-0.005996827
62	0x3cc75585	0.024332771
63	0xbd3767c0	-0.044776678
64	0x3cd2c52e	0.025728788
65	0x3d6f68f8	0.058449715
66	0x3d60c3ac	0.054874107
67	0x3d1a4d88	0.037671596
68	0xbb8d6f42	-0.0043162415
69	0x3d02e648	0.031957895
70	0x3d6bc82a	0.05756394
71	0xbb4ef5ce	-0.0031579616
72	0xbd766a35	-0.06015988
73	0xbd78d962	-0.060754187
74	0x3af7c7fb	0.0018904203
75	0x3ae358b4	0.0017345161
76	0xbd3f65cd	-0.046727944
77	0xbcac0171	-0.020996781
78	0xbd451bf0	-0.048122346
79	0xbc605829	-0.013692894
80	0xb9efdbe5	-0.00045749467
81	0x3c9c363c	0.01906883
82	0xbd0dddd6	-0.034635387
83	0x3cb61faa	0.022231895
84	0x3cb3352c	0.02187594
85	0x3d18b07c	0.037277684
86	0x3d75adee	0.059980325
87	0xbd69b08b	-0.05705313
88	0xbd56a0a1	-0.05239928
89	0xbcb480ec	-0.022034131
90	0x3d678856	0.056526504
91	0x3d79139e	0.060809724
92	0xbb898bc1	-0.004197568
93	0xbd751021	-0.059829835
94	0xbcdc3179	-0.02687906
95	0x3c83f15a	0.016106296
96	0x3c77989d	0.015112069
97	0xbd34ad59	-0.04411063
98	0xbd578bef	-0.052623685
99	0x3d5f2ba2	0.05448497
100	0x3d7f8398	0.062381357
101	0xbc351715	-0.0110528665
102	0x3d24b268	0.040209204
103	0xbd66d650	-0.056356728
104	0xbd570ee4	-0.052504435
105	0xbbd6f164	-0.0065595377
106	0x3c82006e	0.015869346
107	0x3d71a701	0.058997158
108	0x3c334045	0.010940616
109	0x3bc74a89	0.0060818833
110	0x3c85133d	0.016244525
111	0x3d430d47	0.047620084
112	0xbc2b5818	-0.010458015
113	0x3cc3396c	0.023831092
114	0xbcaf5d34	-0.021406747
115	0xbd5aa5c9	-0.05338076
116	0x3cdc0350	0.026857048
117	0xbd54ecc5	-0.051983614
118	0xbd66c823	-0.05634321
119	0xbc9b996a	-0.018994052
120	0xbb1db5ff	-0.0024064777
121	0xbba84024	-0.0051345993
122	0xbd029f7c	-0.031890377
123	0xbc2f3672	-0.010694133
124	0xbd00d7c3	-0.031455766
125	0x3c8b6d11	0.01701978
126	0xbd726528	-0.0591785
127	0xbc4e61b3	-0.0125965355
128	0xbc1abca4	-0.0094443895
129	0xbc5d82cc	-0.013519954
130	0x3d0112f9	0.031512234
131	0x3d28249d	0.041050542
132	0xbd7658e8	-0.06014338
133	0xbc340049	-0.010986396
134	0x3cbc2c07	0.022970213
135	0x3a441355	0.00074796873
136	0xbcc6bc37	-0.02425967
137	0x3d2f8ccc	0.042858884
138	0x3d2b27d7	0.04178604
139	0xbd1ec2cd	-0.038759995
140	0xbcc2626d	-0.023728574
141	0xbd3ca77d	-0.046058167
142	0x3c219a2f	0.00986342
143	0x3cdc45f9	0.026888834
144	0xbc9fe169	-0.019516664
145	0x3c228e8b	0.00992168
146	0x3d7e2a78	0.06205222
147	0xbbdffa3b	-0.0068352497
148	0x39dd3ce6	0.00042197778
149	0x3cc40e52	0.02393261
150	0x3ae73b7f	0.0017641633
151	0xbc7b6b39	-0.015345388
152	0xbd48f806	-0.04906466
153	0xbd19227c	-0.037386402
154	0x3d649df0	0.055814683
155	0x3d41b3e2	0.04729069
156	0x3c407767	0.011747218
157	0xbd3134d6	-0.04326328
158	0x3c29f968	0.0103744045
159	0xbc81b37a	-0.015832651
160	0x3d714ce6	0.058911227
161	0xbcfdbec6	-0.030974757
162	0xbd485ecb	-0.048918527
163	0xbcdb8b17	-0.026799722
164	0x3d438772	0.047736593
165	0xbd0ef60d	-0.03490262
166	0xbd3511fa	-0.044206597
167	0xbd459271	-0.04823536
168	0x3c0d605c	0.008628931
169	0x3cb9fa09	0.022702234
170	0xbcb8d8be	-0.022564288
171	0x3c237b8b	0.009978185
172	0x3d46f6c6	0.048575185
173	0x3c4f6a62	0.012659641
174	0xbc28411d	-0.0102694305
175	0x3d0d8988	0.03455499
176	0x3d233761	0.039847735
177	0x3c97171d	0.018443638
178	0x3d40132e	0.04689329
179	0xbc8738fa	-0.01650666
180	0xbbf6093c	-0.007508425
181	0x3ca75499	0.020426081
182	0xbd2ec676	-0.042669736
183	0xba970b7c	-0.0011523808
184	0x3c586bb9	0.013209277
185	0x3cc93620	0.024561942
186	0x3cf502a7	0.029908491
187	0x3c7cc8e0	0.015428752
188	0x3c713bac	0.0147237
189	0xbcec302b	-0.028831562
190	0x3d1ee0ea	0.038788714
191	0x3c61c8c9	0.013780781
192	0xbd447ca5	-0.047970433
193	0xbcd9f824	-0.02660758
194	0x3c70431d	0.014664439
195	0x3cd936ea	0.026515443
196	0xbd146032	-0.03622455
197	0xbd2f17ae	-0.042747192
198	0xbd4836e4	-0.048880473
199	0x3d14029e	0.03613531
200	0x3ceaf8d7	0.02868311
201	0xbc46a508	-0.012124307
202	0xbcc94202	-0.024567608
203	0xbcb5c083	-0.022186523
204	0xbd783955	-0.06060155
205	0xbcd171ba	-0.025566924
206	0xbc619dd0	-0.013770536
207	0x3d51f57c	0.051259503
208	0x3bd4d6b6	0.006495322
209	0xbd073e96	-0.03301867
210	0x3cffa6ab	0.031207403
211	0xbcb1a88e	-0.021686818
212	0x3d0b084e	0.033943467
213	0xbd289085	-0.04115345
214	0xbd7bd8ff	-0.06148624
215	0x3d13741f	0.035999414
216	0x3d5fc52c	0.054631397
217	0x3ce8b191	0.028404983
218	0xbd3884d3	-0.045048546
219	0x3ce463ec	0.027879678
220	0xbd6cb624	-0.05779089
221	0x3d75e88b	0.060036223
222	0x3d4a3ea8	0.04937616
223	0x3d602348	0.054721147
224	0x3c9de95a	0.01927631
225	0x3b84b277	0.004049595
226	0x3bca4c5d	0.006173654
227	0x3d7f338a	0.06230501
228	0x3d6f005b	0.05834995
229	0x3ce07026	0.027397227
230	0xbd8235f8	-0.0635795
231	0xbb189125	-0.0023279872
232	0x3b4997fa	0.003076075
233	0x3d7a5766	0.061118506
234	0xbd34eb51	-0.044169728
235	0xbc88e014	-0.016708411
236	0x3d01f827	0.031730797
237	0x3d2395f9	0.039937947
238	0xbd230b96	-0.03980597
239	0xbd22e396	-0.039767824
240	0xba6c62cb	-0.0009017407
241	0xbbdb07c9	-0.0066842777
242	0x3cd8d434	0.026468374
243	0x3d7b32cc	0.06132774
244	0xbd22a1d1	-0.0397051
245	0x3c556c15	0.013026257
246	0x3d5e918b	0.05433802
247	0x3d298559	0.041386936
248	0x3d2481e0	0.04016292
249	0x3ca58a3f	0.020207522
250	0x3d584942	0.05280424
251	0xbd06b34c	-0.032885835
252	0x3c295439	0.010335022
253	0xbd659918	-0.056054205
254	0xbd58bd45	-0.052914876
255	0x3d3e7cdc	0.046505794

linear_relu_stack.2.bias f4 [96]
0	0x3d725458	0.059162468
1	0xbd772362	-0.060336478
2	0xbb17c143	-0.0023155964
3	0xbd72b8a8	-0.059258133
4	0x3d13db70	0.036097944
5	0xbd02b6d5	-0.031912643
6	0xbd303a2d	-0.04302423
7	0xbaa7e433	-0.0012809098
8	0xbd6641f4	-0.05621524
9	0xb95bea97	-0.00020972859
10	0xbbe3646f	-0.006939463
11	0xbd1f1bf7	-0.03884503
12	0x3c65f5a8	0.01403562
13	0x3d55449f	0.052067395
14	0xbc8c16f9	-0.017100798
15	0x3d164a5e	0.036692016
16	0x3d0e5e41	0.034757856
17	0xbcbb8a31	-0.022893043
18	0x3d5b2ce9	0.053509627
19	0xbbff5b9d	-0.0077929036
20	0xbb573cb7	-0.0032842585
21	0x3d78aa04	0.060709015
22	0x3aca06f0	0.0015413444
23	0xbd04e057	-0.03244051
24	0x3ce0720a	0.027398128
25	0xbd33256d	-0.043736864
26	0x3d4c28af	0.049843486
27	0x3cc59191	0.024117263
28	0xbd6e133a	-0.058123805
29	0x3b7ed352	0.003888328
30	0xbb813cff	-0.003944039
31	0x3d7c44e8	0.06158915
32	0x3d7d9d9d	0.06191789
33	0x3d527b24	0.051386967
34	0x3ac3da45	0.0014942369
35	0xbca550cf	-0.020180134
36	0xbd68f6dd	-0.056876052
37	0x3b3f7707	0.0029215233
38	0xbce7c917	-0.02829413
39	0xbc64601c	-0.01393893
40	0xbcbccafc	-0.02304601
41	0x3d443508	0.047902137
42	0xbd1e088e	-0.038582377
43	0xbcbe904f	-0.023262171
44	0xbc0ff59c	-0.008786585
45	0x3c77a7ba	0.015115673
46	0x3cb1c940	0.021702409
47	0x3d57cd90	0.052686274
48	0x3ae40791	0.0017397274
49	0x3bf42046	0.0074501364
50	0x3d2c04a1	0.041996602
51	0xbd388002	-0.045043953
52	0xbd0f7e86	-0.03503277
53	0x3d8e0200	0.06933975
54	0x3bc2d071	0.0059452583
55	0xbc50c60d	-0.0127425315
56	0x3d544d74	0.051831678
57	0x3c838df6	0.016058903
58	0x3d8734bd	0.06601856
59	0x3d874271	0.066044696
60	0x3d3149c7	0.04328325
61	0xbcda6178	-0.026657805
62	0xbd7637e6	-0.060111903
63	0x3c194874	0.009355653
64	0x3cd93e04	0.02651883
65	0x3d7c2114	0.061554983
66	0x3d60ff94	0.05493124
67	0xbd713bf5	-0.05889507
68	0xbc058b17	-0.008150837
69	0xbd4fc58d	-0.05072551
70	0x3d7d502d	0.06184404
71	0xbcbb2966	-0.022846889
72	0x3d2b5971	0.041833345
73	0xbcd6930b	-0.026193162
74	0xbd55deaa	-0.052214302
75	0xbc222c1c	-0.009898212
76	0xbc8a0d00	-0.016851902
77	0xbd078bb7	-0.033092227
78	0x3d45d77a	0.048301198
79	0x3b9bbaf7	0.0047525126
80	0xbbe4c797	-0.006981801
81	0xbd09c8bc	-0.0336387
82	0xbb1d8f22	-0.0024041613
83	0xbd63a143	-0.055573713
84	0xbd419b2c	-0.047267124
85	0xbd5556a8	-0.052084595
86	0xbc012799	-0.007882976
87	0xbd5ce94e	-0.053933434
88	0xbd7cf708	-0.061759025
89	0x3b853e02	0.00406623
90	0x3c2f2d7c	0.010691997
91	0x3d25fd43	0.040524732
92	0x3d10e388	0.03537324
93	0x3d766156	0.06015142
94	0xbd62ffb8	-0.055419654
95	0xbcf5e740	-0.030017495

linear_relu_stack.4.weight f4 [16, 96]
0	0xbda25235	-0.07925836
1	0xbdb7afe6	-0.08969097
2	0xbdbb3635	-0.091411985
3	0x3c58a4d1	0.013222889
4	0xbb9217a4	-0.0044583846
5	0x3da502a9	0.08057148
6	0xbc6d28b4	-0.014475036
7	0xbdb6fafe	-0.08934592
8	0xbd9e4d11	-0.07729543
9	0xbd4f609b	-0.05062924
10	0xbd5f7e83	-0.05456401
11	0xbd85dbc7	-0.0653606
12	0xbd17b844	-0.037040964
13	0xbd13ab44	-0.036052004
14	0x3d85a2f1	0.06525219
15	0x3cd54e9f	0.026038466
16	0x3dc1585a	0.0944068
17	0xbdafd3ac	-0.08585295
18	0x3ca396a6	0.019969296
19	0x3d78e2fc	0.060763344
20	0x3d44dbdb	0.048061233
21	0xbd240dee	-0.040052347
22	0xbbc60545	-0.0060431086
23	0x3c31063b	0.010804708
24	0x3dca31fa	0.098728135
25	0xbcf9e2f4	-0.030503727
26	0x3d81fe41	0.06347323
27	0x3da28c4b	0.07936915
28	0x3db4b883	0.08824255
29	0xbb59656f	-0.0033172031
30	0xbdae8192	-0.08520807
31	0x3dad5469	0.084633656
32	0x3d0a7b20	0.033808827
33	0xbd960b0c	-0.07326326
34	0xbd882f0a	-0.06649597
35	0x3cf3c006	0.02975465
36	0x3d0679cc	0.032831
37	0x3cdffc08	0.027341858
38	0x3dbb5171	0.09146393
39	0x3d08af2e	0.03337019
40	0x3d4b5391	0.049640242
41	0xbdab2914	-0.083574444
42	0x3dac2096	0.08404653
43	0xbd9932bf	-0.07480382
44	0x3d5f9a4a	0.0545905
45	0x3da992c1	0.08279944
46	0xbb660800	-0.0035099983
47	0x3c18083f	0.00927931
48	0x3c8bd508	0.017069355
49	0xbd2f0a5f	-0.0427345
50	0x3cef9b5a	0.029248882
51	0x3c268270	0.010162935
52	0x3d484c84	0.048901096
53	0x3c8507ab	0.016239008
54	0xbdcdd70c	-0.100507826
55	0xbdc31f1f	-0.0952742
56	0xbd6eb6dc	-0.058279857
57	0xbda28157	-0.07934826
58	0xbd3cd1e0	-0.04609859
59	0x3da4eea6	0.08053331
60	0xbdc6a048	-0.0969854
61	0xbcc569a0	-0.024098217
62	0xbc386ee8	-0.011256911
63	0xbc060ec9	-0.008182236
64	0xbd83e511	-0.06440175
65	0xbd8a3d00	-0.06749916
66	0x3d93e3fd	0.0722122
67	0x3d745d2b	0.059659164
68	0x3cddb7a6	0.02706511
69	0x3dab32c7	0.083592944
70	0x3d2840dc	0.04107748
71	0xbcbc4440	-0.022981763
72	0x3dbab30c	0.09116182
73	0x3c45cc2f	0.012072607
74	0xbdb2ce18	-0.087307155
75	0xbb265958	-0.0025382843
76	0xba98783f	-0.0011632516
77	0x3d9b2868	0.07576066
78	0xba4c51ca	-0.000779417
79	0xbd30ebf8	-0.043193787
80	0xbd849aa2	-0.06474806
81	0xbd2d59b1	-0.042321865
82	0xbdcae73a	-0.09907384
83	0x3d42d958	0.047570556
84	0xbd7a4297	-0.06109866
85	0xbd754d50	-0.059888184
86	0x3d83132c	0.06400141
87	0x3c1efa27	0.009703196
88	0x3d8fae3c	0.070156544
89	0xbdb642d0	-0.08899462
90	0xbb1a418d	-0.0023537606
91	0xbd5a4f83	-0.053298485
92	0x3d6a3c8d	0.057186652
93	0xbd201513	-0.039082598
94	0xbd119cfb	-0.0355501
95	0x3da8ce21	0.08242441
96	0x3d02aa5d	0.031900752
97	0x3d978cbb	0.07399889
98	0xbd46a316	-0.048495375
99	0xbdc351aa	-0.095370606
100	0x3d208481	0.039188866
101	0xbd97e587	-0.07416826
102	0x3dba83da	0.0910718
103	0x3d64db25	0.055873055
104	0x3d9c66ef	0.076368205
105	0x3d17c590	0.037053645
106	0xbd724a20	-0.059152722
107	0xbd39637e	-0.0452609
108	0x3cc83fde	0.024444517
109	0x3da49d17	0.08037775
110	0xbd615c48	-0.055019647
111	0x3d6279c7	0.055291917
112	0xbccbafd8	-0.024864122
113	0x3d7d2417	0.061801996
114	0xbcb4f6e6	-0.022090387
115	0x3daae0e9	0.083436795
116	0x3d27eaf9	0.04099557
117	0x3d95d9ca	0.073169306
118	0xbdbca37a	-0.09210868
119	0x3d35bef9	0.04437158
120	0x3d8b9ad3	0.0681664
121	0xbd9f775e	-0.07786439
122	0xbd6ad154	-0.057328537
123	0xbd1fa314	-0.038973883
124	0xbc81236e	-0.015763965
125	0xbb528e2a	-0.0032128193
126	0x3d78170a	0.060568847
127	0x3dac2f21	0.084074266
128	0x3d6e1f20	0.058135152
129	0x3d803b74	0.0626134
130	0xbcf77b42	-0.030210141
131	0x3db418c2	0.08793785
132	0xbd86468a	-0.06556423
133	0xbc2d9b40	-0.0105960965
134	0x3d147c26	0.03625121
135	0x3d68647b	0.05673645
136	0x3cada658	0.021197483
137	0xbd0a8ec8	-0.033827573
138	0xbd869bd6	-0.06572692
139	0x3dd10138	0.102053106
140	0xbda6ce75	-0.08144847
141	0xbd83331b	-0.06406232
142	0xbdc9f2ff	-0.09860801
143	0xbc3c7126	-0.011501586
144	0xbdc022be	-0.093816265
145	0xbdaa31d1	-0.08310283
146	0xbdbaad55	-0.09115092
147	0x3dac59bc	0.08415553
148	0xbdb9955c	-0.09061691
149	0x3dbb74c8	0.09153134
150	0x3d449b16	0.047999464
151	0xbd9bd441	-0.076088436
152	0x3baac2a5	0.0052111917
153	0xbd975880	-0.07389927
154	0x3d0f6d9e	0.03501665
155	0x3dcf636b	0.10126384
156	0x3da96cd3	0.0827271
157	0x3d53600f	0.05160528
158	0xbceb6f82	-0.028739695
159	0x3dc68667	0.09693604
160	0xbc5d1406	-0.0134935435
161	0x3d222f46	0.039595865
162	0x3b9042c0	0.0044024885
163	0x3d927dc6	0.07152896
164	0xbccb4127	-0.02481134
165	0xbce9ffd7	-0.028564377
166	0x3d1a1ba6	0.037624024
167	0x3d182f76	0.037154637
168	0xbc509b04	-0.012732271
169	0x3dab9e2e	0.0837978
170	0x3db8e7c9	0.090285845
171	0x3ceb4b84	0.028722532
172	0xbdbdfa04	-0.09276202
173	0xbcd1fe9e	-0.025634106
174	0xbd8dc65d	-0.069226004
175	0xbd16d5dc	-0.036825046
176	0xbd287ae5	-0.041132826
177	0x3d9a8e57	0.075466804
178	0xbcd25c01	-0.025678637
179	0xbd8aa847	-0.067703776
180	0x39d625fe	0.00040845567
181	0xbdb016d5	-0.08598105
182	0xbd9375da	-0.07200213
183	0x3d41204a	0.047149934
184	0xbdcb42b1	-0.0992483
185	0x3c57461d	0.013139275
186	0xbd30a75f	-0.043128368
187	0x3d286768	0.04111424
188	0xbd96f4b9	-0.07370896
189	0xbd6f06ec	-0.05835621
190	0x3dbe8a66	0.09303741
191	0xbd879c71	-0.06621636
192	0x3bcb0cf3	0.006196612
193	0x3d446edb	0.047957283
194	0x3c03cebf	0.008044898
195	0x3c9f3f3c	0.019439332
196	0x3d0fa08b	0.035065215
197	0xbcddcca5	-0.027075121
198	0x3d48e935	0.04905053
199	0x3d2448bb	0.040108424
200	0xbc58cbee	-0.013232214
201	0x3d236400	0.03989029
202	0xbcc80228	-0.02441509
203	0x3cfdddbe	0.030989524
204	0x3bfa1f53	0.0076331287
205	0xbd27ed91	-0.040998045
206	0x3b458d1d	0.0030143925
207	0x3ca0c08d	0.019623065
208	0xbd2b563b	-0.041830283
209	0x3d3076fd	0.043082226
210	0x3d9c2168	0.07623559
211	0xbdcad07c	-0.099030465
212	0x3d438158	0.047730774
213	0x3d56845a	0.052372314
214	0x3d489bd6	0.04897674
215	0xbabbf759	-0.0014340683
216	0xbdb9432b	-0.090460144
217	0x3d9062b6	0.070500776
218	0x3d95530e	0.07291232
219	0xbd741861	-0.059593562
220	0x3ca2d92e	0.01987895
221	0x3dbc97a3	0.0920861
222	0xbd94e632	-0.07270469
223	0xbca2de73	-0.019881463
224	0x3cd5e579	0.026110398
225	0x3d339900	0.043847084
226	0xbc3f7aa3	-0.011686954
227	0x3daddd9b	0.084895335
228	0x3d8003f6	0.062507555
229	0x3cf81629	0.030284004
230	0x3d152fb3	0.036422443
231	0xbdb0e81b	-0.086380206
232	0xbd81bb4f	-0.063345544
233	0xbdc15759	-0.09440488
234	0x3d25b01d	0.040451158
235	0xbdcafbea	-0.0991133
236	0x3d899566	0.067179486
237	0xbd8f86b4	-0.070081145
238	0xbd11504b	-0.035476964
239	0x3d51b737	0.051200118
240	0xbd31e6c2	-0.04343296
241	0xbd32ff4d	-0.043700505
242	0x3a7d4b29	0.0009662384
243	0xbd06de0c	-0.032926604
244	0x3d1df7f0	0.03856653
245	0x3d1cbe28	0.038267285
246	0xbd8b5751	-0.06803764
247	0xbd80dd46	-0.062922046
248	0xbc947990	-0.018124372
249	0x3d35a92d	0.04435079
250	0x3d66def0	0.056364954
251	0xbb2fa62d	-0.002680193
252	0xbcee5e32	-0.02909765
253	0xbbc187b5	-0.00590607
254	0x3dc67e68	0.09692079
255	0x3d3e65c8	0.046483785

linear_relu_stack.4.bias f4 [16]
0	0xbc121ab8	-0.008917503
1	0xbd105f70	-0.035247266
2	0x3be8b291	0.007101365
3	0xbc74999c	-0.014929201
4	0x3ddc2847	0.1074987
5	0x3d8ec82e	0.06971775
6	0xbd7e249d	-0.062046636
7	0xbd43cf16	-0.047804914
8	0xbdad1358	-0.08450955
9	0x3d61ad21	0.05509675
10	0xbdb12c8a	-0.08651073
11	0x3d7cfc5a	0.0617641
12	0xbcd08dc8	-0.025458232
13	0x3bba9520	0.0056940466
14	0x3d96f83d	0.073715664
15	0x3da75eff	0.08172416

linear_relu_stack.6.weight f4 [4, 16]
0	0x3dc334d2	0.09531559
1	0xbe2fb486	-0.17158708
2	0x3e52e6c0	0.20595837
3	0xbe187c7b	-0.14891236
4	0x3e38fd72	0.18065432
5	0x3c912312	0.017716918
6	0xba35d0f9	-0.00069357414
7	0x3df2b3e1	0.118507154
8	0xbd918f0d	-0.07107363
9	0xbe4550c2	-0.19269088
10	0xbe48008d	-0.1953146
11	0x3e4621a8	0.19348776
12	0xbe662c07	-0.22477733
13	0x3e3567ee	0.17715427
14	0xbe5ef48c	-0.21772975
15	0xbda08642	-0.07838108
16	0x3e6b6b5e	0.22990176
17	0x3dbdb6e7	0.092634015
18	0xbce79954	-0.028271355
19	0xbe3ed876	-0.18637261
20	0xbe36d82e	-0.17855904
21	0x3da34ba4	0.07973412
22	0x3e7429f6	0.23844132
23	0x3d6d2bab	0.057902973
24	0xbdca3541	-0.098734386
25	0xbda9dcc1	-0.082940586
26	0xbdd9e51a	-0.10639401
27	0xbe4aca08	-0.19803631
28	0xbdf82650	-0.121166825
29	0xbcdeaab0	-0.027181
30	0xbe453627	-0.19258939
31	0x3cf810c7	0.030281438
32	0xbd17f901	-0.037102703
33	0xbd841e11	-0.06451047
34	0xbd40c8bd	-0.04706644
35	0x3e1a8040	0.15087986
36	0x3cf8972d	0.030345524
37	0xbba17eaf	-0.004928432
38	0x3e2573e4	0.1615749
39	0x3e77b1b0	0.24188876
40	0xbe410c20	-0.18852282
41	0x3d937cb7	0.07201522
42	0x3d94a88e	0.07258712
43	0x3e5f1c7e	0.21788213
44	0x3d93de0c	0.072200865
45	0xbe1a0b02	-0.15043262
46	0xbd940ab3	-0.07228603
47	0x3d608967	0.054818537
48	0xbe65e49c	-0.22450489
49	0xbe151c20	-0.1456151
50	0xbdc6d4d1	-0.0970856
51	0xbd9dbe2f	-0.0770229
52	0xbe0e19c2	-0.13877013
53	0x3e1cd425	0.15315302
54	0xbd25da75	-0.04049154
55	0xbe1084ae	-0.14113113
56	0x3db27c9b	0.08715173
57	0xbdc581e9	-0.09643919
58	0x3dd10faa	0.10208066
59	0x3e135736	0.14388737
60	0xbdebe720	-0.11518693
61	0xbd7c5868	-0.06160775
62	0xb9d0f588	-0.00039855787
63	0x3e1141e6	0.14185295

linear_relu_stack.6.bias f4 [4]
0	0xbdd03545	-0.1016641
1	0x3dab632b	0.08368524
2	0x3e2b4726	0.1672636
3	0xbda70f59	-0.08157224

exp_avg f4 [256, 16]
0	0xb966dd5b	-0.0002201697
1	0xb970ce36	-0.00022965003
2	0xb93718b6	-0.00017461446
3	0xb94367be	-0.00018635296
4	0xb9c94fa6	-0.0003839705
5	0xb9d9e8d0	-0.00041562924
6	0xb9c4d02c	-0.00037539133
7	0xb9ae7fb5	-0.00033283015
8	0xba0cb974	-0.0005368211
9	0xba1156d4	-0.00055442494
10	0xba052e55	-0.00050804514
11	0xba01789f	-0.00049389334
12	0xba3c5bec	-0.0007185328
13	0xba384edf	-0.00070307957
14	0xba313cb3	-0.0006761059
15	0xba299fd6	-0.0006470656
16	0x39845a93	0.00025244485
17	0x39966138	0.00028682663
18	0x395767bc	0.00020542642
19	0x394f444e	0.00019766504
20	0x39e69ce7	0.0004398592
21	0x39fcf1e8	0.0004824542
22	0x39df5168	0.00042594527
23	0x39b5a3a4	0.00034644932
24	0x3a1f2f49	0.00060724147
25	0x3a280266	0.0006409049
26	0x3a1641c8	0.0005731848
27	0x3a0908c3	0.0005227441
28	0x3a54573e	0.00081001583
29	0x3a525d18	0.00080247363
30	0x3a46f1ff	0.0007589161
31	0x3a39e2e4	0.0007090999
32	0x38047781	3.158255e-05
33	0x3753d716	1.2626659e-05
34	0x375deb32	1.3227387e-05
35	0x38229ef8	3.877186e-05
36	0x388e782a	6.79347e-05
37	0x3864a04c	5.4508724e-05
38	0x386cae22	5.642896e-05
39	0x38aeb266	8.330196e-05
40	0x38bf6c67	9.127781e-05
41	0x38a35426	7.7881195e-05
42	0x38a70efd	7.965972e-05
43	0x38ed95c7	0.00011328939
44	0x39044a86	0.00012616263
45	0x38e2edaa	0.00010820788
46	0x38ecad45	0.00011285631
47	0x39130e98	0.00014024449
48	0x39adf015	0.00033176006
49	0x39d9a6d7	0.0004151377
50	0x399b9992	0.00029678323
51	0x39719f99	0.00023043006
52	0x3a113423	0.000553908
53	0x3a28dd21	0.0006441642
54	0x3a0e828b	0.00054363225
55	0x39c09b5b	0.00036736843
56	0x3a47d1c8	0.00076225074
57	0x3a5dac60	0.0008456167
58	0x3a411ef5	0.00073669787
59	0x3a187cca	0.0005816935
60	0x3a831bf8	0.0010002842
61	0x3a894b3c	0.0010474692
62	0x3a7b9ae2	0.00095979695
63	0x3a51a3a8	0.0007997104
64	0xb5903cd4	-1.0746539e-06
65	0xb5ea26ac	-1.7445614e-06
66	0xb55941c8	-8.0934524e-07
67	0x348e6fbb	2.6530856e-07
68	0xb5a2f515	-1.2141269e-06
69	0xb6103cd4	-2.1493079e-06
70	0xb5a2f3e2	-1.214092e-06
71	0x350e6595	5.3046944e-07
72	0xb5d94bf3	-1.6189864e-06
73	0xb62b6650	-2.554054e-06
74	0xb5921545	-1.0884038e-06
75	0x34d1daa2	3.908836e-07
76	0xb607c876	-2.0233251e-06
77	0xb611290f	-2.1630583e-06
78	0xb64ef43b	-3.0838553e-06
79	0xb55cd917	-8.2272294e-07
80	0xb9a07b43	-0.00030609415
81	0xb9b98d83	-0.00035391384
82	0xb987de25	-0.00025914717
83	0xb97a3fef	-0.00023865675
84	0xba0bd795	-0.00053345534
85	0xba1a9cf5	-0.0005898022
86	0xba095004	-0.00052380585
87	0xb9db192e	-0.00041789695
88	0xba42cb67	-0.0007430822
89	0xba4e99b6	-0.0007881181
90	0xba39e24e	-0.0007090912
91	0xba267228	-0.0006349408
92	0xba81ba7a	-0.0009897493
93	0xba8173eb	-0.0009876465
94	0xba75a033	-0.000936988
95	0xba649e14	-0.0008721065
96	0xb915a9ca	-0.00014272999
97	0xb93fd04c	-0.00018292776
98	0xb8f75eea	-0.00011795557
99	0xb8bdaa7f	-9.04398e-05
100	0xb976ec13	-0.00023548333
101	0xb9906664	-0.00027542107
102	0xb964b055	-0.00021809463
103	0xb913eacd	-0.00014106483
104	0xb9a617a5	-0.00031679604
105	0xb9bb15af	-0.00035683575
106	0xb99aef8c	-0.00029551645
107	0xb96d7007	-0.00022643815
108	0xb9da2214	-0.0004160559
109	0xb9e3cc4e	-0.00043449033
110	0xb9ca9275	-0.0003863756
111	0xb9a3a515	-0.00031212778
112	0x39274387	0.00015951517
113	0x3949cafd	0.00019244473
114	0x390e3321	0.00013561222
115	0x3902b2aa	0.00012464324
116	0x398edf5d	0.0002725077
117	0x39a15186	0.00030769053
118	0x3989ae60	0.00026260596
119	0x3951ceb6	0.00020008799
120	0x39c22608	0.000370309
121	0x39d39c8e	0.00040361698
122	0x39b92c5b	0.00035318997
123	0x399f2dca	0.0003036096
124	0x3a0084f5	0.00049026246
125	0x3a032ec1	0.00050042203
126	0x39f2ba56	0.00046296668
127	0x39d1b8f2	0.0004000138
128	0x22eb1a3c	6.3724654e-18
129	0x233053c1	9.558715e-18
130	0x17a3e572	1.0591548e-24
131	0x2295234b	4.04239e-18
132	0x233053a7	9.558693e-18
133	0x236b1a57	1.2744953e-17
134	0xa177754e	-8.3842107e-19
135	0x1efb508e	2.6608975e-20
136	0x236b1a3c	1.2744931e-17
137	0x2392f060	1.5931154e-17
138	0x226a72eb	3.177375e-18
139	0xa16f9a9b	-8.118097e-19
140	0x2392f060	1.5931154e-17
141	0x23b053b8	1.9117415e-17
142	0x22ebc1e3	6.3902163e-18
143	0x2330a797	9.576468e-18
144	0x33948fae	6.917922e-08
145	0x3394dd4d	6.9320414e-08
146	0x34147c44	1.3828782e-07
147	0x33948fae	6.917922e-08
148	0x345daab3	2.0644329e-07
149	0x34147c44	1.3828782e-07
150	0x345ec41d	2.0746707e-07
151	0x34148fae	1.3835844e-07
152	0x349485f8	2.7664623e-07
153	0x345f3294	2.0786894e-07
154	0x34de64f0	4.1424164e-07
155	0x349485f5	2.7664615e-07
156	0x34b96e8f	3.4539377e-07
157	0x3501bf93	4.833502e-07
158	0x33920aba	6.800606e-08
159	0x350151dc	4.8175366e-07
160	0x00000000	0.0
161	0x00003319	1.833e-41
162	0x00000000	0.0
163	0x00000000	0.0
164	0x00000000	0.0
165	0x00000000	0.0
166	0x00000000	0.0
167	0x00000000	0.0
168	0x00000000	0.0
169	0x00000000	0.0
170	0x00000000	0.0
171	0x00000000	0.0
172	0x00000000	0.0
173	0x00000000	0.0
174	0x00003319	1.833e-41
175	0x00000000	0.0
176	0xb58544f8	-9.929345e-07
177	0x37711016	1.4368465e-05
178	0x36b243dc	5.3127133e-06
179	0xb4b218a0	-3.3173e-07
180	0x374b5593	1.2119667e-05
181	0x376f2f05	1.4256458e-05
182	0xb69942e2	-4.5675415e-06
183	0x36943ca4	4.417803e-06
184	0x376db3f4	1.4168199e-05
185	0x37f68eb0	2.939193e-05
186	0x377e5c9d	1.5161143e-05
187	0x370ec80b	8.510436e-06
188	0x37c2227e	2.3142664e-05
189	0x3810fbec	3.4566896e-05
190	0x37a0d0e0	1.9170751e-05
191	0x377207f9	1.442618e-05
192	0x38aa761f	8.1282335e-05
193	0x38f9544f	0.00011888949
194	0x389dd6b6	7.5263364e-05
195	0x382da7bf	4.140264e-05
196	0x3900728b	0.00012249702
197	0x39281421	0.00016029227
198	0x38f4aaa9	0.000116666146
199	0x384c7fd8	4.8756454e-05
200	0x392bdc79	0.00016389963
201	0x395363c8	0.000201597
202	0x39255a5a	0.00015769285
203	0x38bcb3b7	8.998013e-05
204	0x395cfcdf	0.00021075037
205	0x39766289	0.00023497095
206	0x3951f385	0.00020022511
207	0x3904279e	0.0001260326
208	0x36bfb391	5.713148e-06
209	0x370fc6ac	8.569721e-06
210	0x36bfb391	5.713148e-06
211	0x21817b94	8.774091e-19
212	0x370fc6ac	8.569721e-06
213	0x373fb391	1.1426296e-05
214	0x370fc6ac	8.569721e-06
215	0x2004fae7	1.1263852e-19
216	0x373fb391	1.1426296e-05
217	0x376fa076	1.428287e-05
218	0x373fb391	1.1426296e-05
219	0x363fb391	2.856574e-06
220	0x376fa076	1.428287e-05
221	0x378fc6ac	1.7139442e-05
222	0x376fa076	1.428287e-05
223	0x373fb391	1.1426296e-05
224	0xb60babaf	-2.0812547e-06
225	0x35da8aa3	1.6282614e-06
226	0xb5790cac	-9.277817e-07
227	0xb4bcd51a	-3.517278e-07
228	0xb55479f0	-7.9153597e-07
229	0xb6230c22	-2.4295955e-06
230	0xb51b02d6	-5.7746126e-07
231	0xb53bb326	-6.9923624e-07
232	0xb59a3bc4	-1.1491288e-06
233	0xb5a96b92	-1.2622788e-06
234	0xb5f6d107	-1.8389263e-06
235	0xb59b5dae	-1.1575664e-06
236	0xb5c62ed6	-1.4765781e-06
237	0xb6023c04	-1.9406443e-06
238	0xb5d0c1ed	-1.5553647e-06
239	0xb5e64f98	-1.71595e-06
240	0xb82b7ae4	-4.0884028e-05
241	0xb82e496a	-4.1553205e-05
242	0xb791b2a5	-1.7368535e-05
243	0xb817d767	-3.6201815e-05
244	0xb880ccce	-6.1416635e-05
245	0xb893d6b2	-7.049496e-05
246	0xb8434550	-4.6556175e-05
247	0xb820bd0c	-3.8323036e-05
248	0xb8865429	-6.405294e-05
249	0xb89b4da4	-7.405438e-05
250	0xb84f7e37	-4.9470193e-05
251	0xb84cd93e	-4.8839713e-05
252	0xb8ab1b2f	-8.158979e-05
253	0xb8bbad03	-8.949081e-05
254	0xb88b6c45	-6.648203e-05
255	0xb7fc118b	-3.004891e-05

exp_avg_sq f4 [256, 16]
0	0x345ab6d2	2.0369342e-07
1	0x349e8554	2.9526802e-07
2	0x3459a2d0	2.0268931e-07
3	0x34283660	1.5666001e-07
4	0x352341c6	6.0817945e-07
5	0x353caf93	7.029095e-07
6	0x350c537d	5.2275556e-07
7	0x3502c5b8	4.871649e-07
8	0x35b1c571	1.3244991e-06
9	0x35cf5295	1.5446736e-06
10	0x35c2abec	1.4504162e-06
11	0x359bdc8a	1.1612585e-06
12	0x36153931	2.223602e-06
13	0x3630a67c	2.632295e-06
14	0x362dc002	2.5890772e-06
15	0x3617d09e	2.2622185e-06
16	0x347f5ed2	2.3783221e-07
17	0x34b9bd51	3.459668e-07
18	0x34addcdc	3.2384457e-07
19	0x3473a33d	2.2690524e-07
20	0x353a0742	6.930096e-07
21	0x355b753e	8.175447e-07
22	0x355548fe	7.94549e-07
23	0x35364cc0	6.791197e-07
24	0x35d1ee84	1.5641131e-06
25	0x35ef1f3b	1.7815977e-06
26	0x360985a9	2.0492391e-06
27	0x35d2bce8	1.5701198e-06
28	0x3631a78a	2.6472576e-06
29	0x365a53b4	3.2533253e-06
30	0x366fa601	3.5710402e-06
31	0x36430c9c	2.9064604e-06
32	0x32b69a5c	2.1257783e-08
33	0x330e111e	3.307752e-08
34	0x3384c3a3	6.182315e-08
35	0x3353ced9	4.9315393e-08
36	0x338901f6	6.379916e-08
37	0x339656a2	7.000678e-08
38	0x3418a15c	1.4214805e-07
39	0x340c9464	1.30925e-07
40	0x34234618	1.5206058e-07
41	0x3422cf70	1.5162891e-07
42	0x349a4a31	2.8738717e-07
43	0x348c76b6	2.6163406e-07
44	0x347f28aa	2.3763519e-07
45	0x34a269f3	3.025194e-07
46	0x350cb8b9	5.242287e-07
47	0x34f8bb98	4.6330092e-07
48	0x34b1d07f	3.312052e-07
49	0x34c46143	3.6578612e-07
50	0x34be2f80	3.542482e-07
51	0x347bf40f	2.3464985e-07
52	0x35759809	9.149085e-07
53	0x357c7dd2	9.406041e-07
54	0x3581d71d	9.673855e-07
55	0x3537d5c7	6.84839e-07
56	0x3602252f	1.9393153e-06
57	0x360d7be2	2.1082747e-06
58	0x36429883	2.8997026e-06
59	0x3602d851	1.9497422e-06
60	0x363d8feb	2.8246966e-06
61	0x368f4f02	4.27093e-06
62	0x3683861f	3.919718e-06
63	0x367ff792	3.8142066e-06
64	0x316adf6c	3.4178482e-09
65	0x31a1d273	4.709642e-09
66	0x328131cd	1.5040223e-08
67	0x31daf885	6.3728884e-09
68	0x3226ab21	9.701382e-09
69	0x325b45a6	1.2763314e-08
70	0x32fa227f	2.9119517e-08
71	0x327dc389	1.4770998e-08
72	0x330df22f	3.3049385e-08
73	0x32d05a53	2.4255462e-08
74	0x33bb692e	8.726998e-08
75	0x335c7e90	5.133785e-08
76	0x33a858ec	7.8392844e-08
77	0x340138dd	1.2034748e-07
78	0x3308b89e	3.1832876e-08
79	0x33fbe8fc	1.1730478e-07
80	0x34abd6f9	3.2007645e-07
81	0x34eda5e3	4.4265389e-07
82	0x34cb0011	3.7811745e-07
83	0x3498d822	2.8469464e-07
84	0x357f53a6	9.5116627e-07
85	0x35911986	1.081077e-06
86	0x35866b51	1.0015011e-06
87	0x3568166b	8.645936e-07
88	0x360edb43	2.1287276e-06
89	0x36216aec	2.4053106e-06
90	0x3637e9c5	2.7405197e-06
91	0x360c01ea	2.086274e-06
92	0x36751897	3.6522158e-06
93	0x3695da5e	4.4659673e-06
94	0x36956a92	4.4529525e-06
95	0x3686d97d	4.01883e-06
96	0x33d04548	9.698357e-08
97	0x33f35880	1.1331667e-07
98	0x33f732a2	1.1511044e-07
99	0x339498e1	6.9195956e-08
100	0x348bad22	2.6016738e-07
101	0x3496e488	2.8105956e-07
102	0x34a55783	3.0797318e-07
103	0x34537d4b	1.9696488e-07
104	0x3510f8e7	5.400638e-07
105	0x351dd95d	5.8803363e-07
106	0x35768ad0	9.184414e-07
107	0x351627f5	5.59375e-07
108	0x3566424e	8.5778163e-07
109	0x35b0d767	1.3175712e-06
110	0x3586659a	1.0013348e-06
111	0x359cbccd	1.1677854e-06
112	0x3396ed76	7.028113e-08
113	0x33d3cbab	9.8625e-08
114	0x33dfb340	1.0416852e-07
115	0x339c45d4	7.277018e-08
116	0x34594639	2.0235247e-07
117	0x346f7b47	2.2303458e-07
118	0x348762a2	2.5217474e-07
119	0x345c6a4f	2.0527771e-07
120	0x34f63c5f	4.5864996e-07
121	0x35082d71	5.0730074e-07
122	0x3535f871	6.7789284e-07
123	0x35085af3	5.0796297e-07
124	0x35457a6a	7.3566355e-07
125	0x35849791	9.878878e-07
126	0x3592df58	1.0942849e-06
127	0x3576114c	9.166731e-07
128	0x3336a5ec	4.2526082e-08
129	0x3393618c	6.8629646e-08
130	0x321e7dc0	9.225403e-09
131	0x3101832b	1.884653e-09
132	0x33cd81ff	9.5697025e-08
133	0x340df3c8	1.3220335e-07
134	0x309acf96	1.1263974e-09
135	0x312dbb6f	2.5281357e-09
136	0x34381608	1.714435e-07
137	0x34789150	2.3149664e-07
138	0x325a0ec6	1.2692629e-08
139	0x3285f9da	1.5596857e-08
140	0x349cff07	2.924282e-07
141	0x34a070c6	2.9884376e-07
142	0x33b46e91	8.402015e-08
143	0x33aa5cda	7.9331315e-08
144	0x3002cafc	4.758218e-10
145	0x3105a7cb	1.9449427e-09
146	0x3054b566	7.7382933e-10
147	0x310736f7	1.967633e-09
148	0x30f56c1a	1.785682e-09
149	0x3182b0a3	3.8035792e-09
150	0x31185ee7	2.2172857e-09
151	0x3123e5b6	2.3850197e-09
152	0x31a77482	4.873585e-09
153	0x3182e884	3.809932e-09
154	0x32628c6f	1.3186862e-08
155	0x32027baf	7.595118e-09
156	0x32b62f31	2.1209049e-08
157	0x32ccc983	2.3840363e-08
158	0x3296d2f9	1.7558238e-08
159	0x32db18ba	2.55062e-08
160	0x00000000	0.0
161	0x2ee9b5b7	1.0627892e-10
162	0x00000000	0.0
163	0x00000000	0.0
164	0x00000000	0.0
165	0x00000000	0.0
166	0x00000000	0.0
167	0x00000000	0.0
168	0x00000000	0.0
169	0x00000000	0.0
170	0x00000000	0.0
171	0x00000000	0.0
172	0x00000000	0.0
173	0x00000000	0.0
174	0x2ee9b5b7	1.0627892e-10
175	0x00000000	0.0
176	0x323aca3a	1.0872606e-08
177	0x32a43d82	1.9120083e-08
178	0x33023187	3.031303e-08
179	0x329710bd	1.7586325e-08
180	0x32ac3d16	2.0051214e-08
181	0x3309c19e	3.2073892e-08
182	0x3374fa48	5.7038307e-08
183	0x334cb63c	4.7663193e-08
184	0x3387144f	6.2901215e-08
185	0x3362082c	5.2627158e-08
186	0x342a0019	1.583252e-07
187	0x33ee7159	1.11033565e-07
188	0x34174745	1.4088899e-07
189	0x34510d4a	1.9469476e-07
190	0x3459f854	2.0300041e-07
191	0x3443c9fa	1.8234269e-07
192	0x32ad5663	2.0179135e-08
193	0x33195ad0	3.5705682e-08
194	0x32a958d3	1.9714582e-08
195	0x322b148d	9.958183e-09
196	0x33502856	4.846546e-08
197	0x33a0c6d2	7.486746e-08
198	0x3365e819	5.352931e-08
199	0x32c3ad53	2.2779806e-08
200	0x33cf4e6f	9.6534556e-08
201	0x34132931	1.3705427e-07
202	0x3406d88d	1.2558503e-07
203	0x3379ae62	5.813343e-08
204	0x343adcd2	1.7402934e-07
205	0x34818787	2.4126732e-07
206	0x3413d7ae	1.3768906e-07
207	0x33f92c9f	1.16030826e-07
208	0x31e131aa	6.554008e-09
209	0x324ee916	1.2043776e-08
210	0x3115ab62	2.1779774e-09
211	0x2f92ce9c	2.670405e-10
212	0x327c796a	1.4695937e-08
213	0x32c1c1b3	2.2556241e-08
214	0x310926ca	1.9958173e-09
215	0x2f11f9ad	1.3276376e-10
216	0x32f35d18	2.8331257e-08
217	0x332530a0	3.846128e-08
218	0x323a3e10	1.0840736e-08
219	0x31348805	2.6270766e-09
220	0x3362e68c	5.2829407e-08
221	0x338c699e	6.53847e-08
222	0x33077cf4	3.154578e-08
223	0x32dd900b	2.579329e-08
224	0x31d84d5e	6.295223e-09
225	0x319ebc9e	4.6198485e-09
226	0x31ee15ca	6.929189e-09
227	0x31a1cdd3	4.709116e-09
228	0x328e624b	1.6575674e-08
229	0x323bc068	1.0928581e-08
230	0x329eaff3	1.8473633e-08
231	0x326f0adc	1.39141e-08
232	0x331544fb	3.4754503e-08
233	0x330cfa15	3.282374e-08
234	0x339df7fb	7.3559896e-08
235	0x3346bda2	4.6272937e-08
236	0x33346427	4.2000604e-08
237	0x33c454f3	9.1424134e-08
238	0x3408c3a9	1.2737168e-07
239	0x33a37e45	7.613247e-08
240	0x32a512d8	1.9217097e-08
241	0x330e6893	3.315706e-08
242	0x33aea24d	8.132029e-08
243	0x336ad388	5.4674757e-08
244	0x3354d7a2	4.9556213e-08
245	0x33666cda	5.3650048e-08
246	0x3426b7a4	1.5526763e-07
247	0x34022eb5	1.2124185e-07
248	0x340907a5	1.27619e-07
249	0x34063049	1.2497289e-07
250	0x34ae47bd	3.2462222e-07
251	0x3486df80	2.5122063e-07
252	0x34718211	2.2492192e-07
253	0x34a57635	3.0819652e-07
254	0x3508ee13	5.101039e-07
255	0x34e6dfa8	4.300357e-07
