Version_1/v1_TrainAI_ep20.pth (torch, 375663 bytes, 24 tensors)

linear_relu_stack.0.weight f4 [256, 16]
0.21338634 0.046044845 -0.018842917 -0.23535325 -0.06290858 -0.17704318 -0.07379252 -0.013813777
0.20519735 -0.02660784 -0.19121626 0.13611308 0.07464275 0.22857216 0.1331422 0.03728327
-0.07851969 0.15938368 -0.005037365 0.05822172 0.16170464 0.15996782 -0.23290783 -0.18265176
0.13238424 0.2475452 0.14869438 -0.15306959 -0.09456065 0.14313984 0.082485974 -0.087650836
0.09465458 -0.033192225 0.10111842 -0.1309319 -0.246853 0.19883955 0.08455628 0.07945055
0.14085409 0.059374426 0.0067826523 0.21995267 -0.13038352 -0.07307122 -0.14615926 0.06296754
0.049590807 -0.19060649 0.14188412 -0.057323527 -0.23033811 0.018818993 0.022388088 0.06458493
0.011959852 -0.01110948 0.051436387 0.18789573 -0.15510161 0.116229795 0.112682156 0.13757408
-0.08575514 -0.032685697 -0.24135405 -0.18904522 0.031263024 -0.24928662 -0.20847008 -0.19755888
0.0034879148 -0.18609533 -0.16297981 -0.07188675 0.031020135 -0.15847266 0.03388983 -0.088891
0.18903342 -0.10852776 0.11944081 -0.07019089 -0.1675939 0.05071429 0.09316065 0.06576146
0.058381975 0.10581237 -0.15771705 -0.1699156 0.22556517 0.07322809 0.1965975 -0.010551504
-0.18821727 0.037628572 -0.06566802 -0.23744412 0.0030289527 -0.048503686 0.11864407 -0.12599792
-0.13540733 0.19177116 0.10199588 -0.036432054 0.2031829 0.112466864 -0.23359981 -0.21552016
-0.012547258 0.18032776 0.18153553 0.0524629 -0.011598371 0.113357134 0.19290015 -0.028708924
0.2474141 -0.046901815 -0.136725 -0.2082991 0.025780719 -0.025140055 0.21741192 0.0118810935
-0.10248791 0.022380637 0.15932386 -0.11611655 0.107907504 0.2194426 -0.018806236 -0.046620455
-0.15100953 -0.00914078 -0.203263 -0.18997079 -0.093813375 0.23289005 -0.20486498 -0.1486927
-0.09789514 0.17991419 0.12145475 -0.17512137 0.09780006 0.016527317 -0.051721096 0.049054686
0.017294005 0.11379027 -0.04714765 0.23503864 0.08220842 0.012754815 0.1167938 0.18368025
0.0275479 -0.13697377 0.21671739 0.19974346 0.14517136 -0.06203548 8.405614e-06 0.22595647
-0.13968903 -0.22171308 -0.015715221 0.023769792 0.044918306 -0.20211403 -0.03961816 -0.052458618
-0.20119582 -0.15984903 0.054990012 0.15620804 -0.17056698 0.0049018404 0.09916655 -0.0743083
0.15744983 0.105391786 -0.030495793 -0.1378011 0.085362114 0.24133185 0.17966798 0.11073318
0.008522292 0.14712444 -0.055855576 -0.1469765 0.025383154 0.041005332 -0.22203892 0.1039062
-0.03911076 -0.08863576 -0.0009940014 -0.14361587 0.09604593 -0.03862314 -0.113041125 0.21511933
-0.17316744 -0.16701569 0.03159126 -0.028928552 -0.05138101 -0.01304748 -0.095342115 -0.023601323
0.14939499 0.09686038 -0.20598702 -0.2394923 -0.2407304 0.09804964 0.120091654 -0.22159168
0.09470023 0.124896675 0.14093497 0.17857532 0.07263291 -0.23979387 0.11389274 -0.2325846
0.1530711 0.09756393 -0.24366182 0.23179424 0.22602603 -0.024472097 -0.001734587 0.011180483
0.22994348 -0.10206113 0.23746783 -0.097539805 0.082471155 -0.11352727 0.23973311 -0.084646374
0.12859416 0.13742946 0.048528083 -0.15321304 -0.067292586 0.17067471 0.18518366 0.1041201
00000000: f381 5a3e 8599 3c3d 765c 9abc 7100 71be
00000010: 37d6 80bd cf4a 35be 8820 97bd 2e53 62bc
00000020: 411f 523e aff8 d9bc 32ce 43be 3a61 0b3e
00000030: 4cde 983d d20e 6a3e 6e56 083e 58b6 183d
00000040: eece a0bd 7a35 233e 7b10 a5bb e679 6e3d
00000050: e795 253e 9bce 233e 647f 6ebe 1009 3bbe
00000060: bc8f 073e 7d7c 7d3e 5743 183e 46be 1cbe
00000070: 04a9 c1bd 4093 123e 68ee a83d 4882 b3bd
00000080: 43da c13d 92f4 07bd 2d17 cf3d 0313 06be
00000090: 08c7 7cbe 989c 4b3e d82b ad3d f8b6 a23d
000000a0: 0e3c 103e 9932 733d 0341 de3b 463b 613e
000000b0: 4283 05be 5da6 95bd c6aa 15be 20f5 803d
000000c0: bb1f 4b3d 592e 43be 124a 113e 13cc 6abd
000000d0: c1dd 6bbe 4a2a 9a3c 3967 b73c 1b45 843d
000000e0: 41f3 433c 8904 36bc f6ae 523d bd67 403e
000000f0: f5d2 1ebe e309 ee3d e7c5 e63d 38e0 0c3e
00000100: 64a0 afbd 70e1 05bd 8425 77be 1295 41be
00000110: a80d 003d fe44 7fbe 2e79 55be e04c 4abe
00000120: 8095 643b c68f 3ebe 2ee4 26be 5c39 93bd
00000130: f01d fe3c a846 22be 10d0 0a3d 7c0c b6bd
00000140: fa91 413e cd43 debd 629d f43d 3ec0 8fbd
00000150: bc9d 2bbe cab9 4f3d 03cb be3d f2ad 863d
00000160: f021 6f3d 28b4 d83d 9480 21be 5bfe 2dbe
00000170: 8efa 663e 9cf8 953d db50 493e 37e0 2cbc
00000180: 07bc 40be 6b20 1a3d f47c 86bd 8d24 73be
00000190: 6581 463b cdab 46bd aafb f23d 9905 01be
000001a0: 38a8 0abe a95f 443e 37e3 d03d c739 15bd
000001b0: 2e0f 503e 0755 e63d ca34 6fbe 51b1 5cbe
000001c0: 0493 4dbc d7a7 383e 73e4 393e 56e3 563d
000001d0: 1807 3ebc c927 e83d 9e87 453e fa2e ebbc
000001e0: 1f5a 7d3e 1e1c 40bd a301 0cbe 5c4c 55be
000001f0: 1632 d33c 84f2 cdbc 3ba1 5e3e eba8 423c
00000200: 2ee5 d1bd 9957 b73c cb25 233e 84ce edbd
00000210: 9cfe dc3d 90b5 603e 890f 9abc 17f5 3ebd
00000220: 3ea2 1abe 36c3 15bc 2d24 50be b487 42be
00000230: 3a21 c0bd bb7a 6e3e 20c8 51be e642 18be
00000240: 3f7d c8bd 6d3b 383e 45bd f83d 0453 33be
00000250: 664b c83d 4c64 873c 80d9 53bd 91ed 483d
00000260: 28ac 8d3c e00a e93d e51d 41bd f8ad 703e
00000270: e35c a83d 92f9 503c 9631 ef3d ad16 3c3e
00000280: 22ac e13c da42 0cbe 2aeb 5d3e 8d89 4c3e
00000290: cda7 143e ea18 7ebd d605 0d37 2261 673e
000002a0: a40a 0fbe c108 63be 35bd 80bc deb8 c23c
000002b0: 42fc 373d fbf6 4ebe a746 22bd d9de 56bd
000002c0: 4706 4ebe 77af 23be 353d 613d 00f5 1f3e
000002d0: 1ca9 2ebe 9e9f a03b d517 cb3d f32e 98bd
000002e0: 873a 213e a6d7 d73d 50d2 f9bc bb1b 0dbe
000002f0: 55d2 ae3d b21f 773e e2fa 373e 14c8 e23d
00000300: 15a1 0b3c caa7 163e d1c8 64bd 0281 16be
00000310: 55f0 cf3c 35f5 273d 2c5e 63be c6cc d43d
00000320: 9b32 20bd aa86 b5bd 2749 82ba 0a10 13be
00000330: bbb3 c43d 4c33 1ebd 1b82 e7bd 3e48 5c3e
00000340: ce52 31be 2906 2bbe d665 013d 92fb ecbc
00000350: e574 52bd 19c5 55bc ba42 c3bd 9057 c1bc
00000360: 00fb 183e bc5e c63d 43ee 52be 783d 75be
00000370: 0882 76be 40ce c83d 9df2 f53d eee8 62be
00000380: 32f2 c13d d4c9 ff3d 4251 103e 73dc 363e
00000390: 90c0 943d 868c 75be 9940 e93d a82a 6ebe
000003a0: acbe 1c3e 99cf c73d 7c82 79be 785b 6d3e
000003b0: 5e73 673e b579 c8bc 155b e3ba 582e 373c
000003c0: 4e76 6b3e 6d05 d1bd c42a 733e f3c2 c7bd
000003d0: a3e6 a83d fc80 e8bd 997c 753e 145b adbd
000003e0: 30ae 033e 4fba 0c3e 62c5 463d e1e3 1cbe
000003f0: b2d0 89bd 5ac5 2e3e c9a0 3d3e eb3c d53d

linear_relu_stack.0.bias f4 [256]
-0.21587469 0.13893193 -0.052211616 -0.15934993 -0.029923648 0.11385491 -0.17030805 0.22907473
0.15574983 0.02072396 0.21211663 0.22251584 -0.1920879 0.21793346 -0.10043967 -0.037267867
-0.010427542 -0.24910137 -0.17393048 -0.07861676 0.02499763 -0.092652634 0.157397 0.06216483
0.052946538 -0.00419928 0.08884288 -0.20372285 -0.2364151 0.15111473 0.12118258 -0.0032085017
0.060028274 0.0688214 -0.21609467 0.09798775 -0.14332996 -0.238715 0.12200886 -0.09124359
0.13661727 -0.21742238 -0.07063413 -0.030700604 -0.11039276 -0.026372023 -0.012621191 -0.2172733
-0.10080938 -0.12273125 -0.19078542 0.17732592 0.20766772 -0.039278682 -0.14956984 -0.15488437
0.23424327 -0.20542489 -0.22431895 0.084276296 -0.09018101 0.1898467 0.0058823195 0.10744911
-0.16336499 0.02768726 0.19553062 -0.20784579 0.22551404 0.22082682 -0.19121513 -0.0029370852
-0.075814165 -0.007141693 0.1926015 -0.0128905885 -0.038144477 -0.19448331 0.084827 -0.18994185
0.022229848 -0.20766425 0.043621756 -0.0048894295 0.15905178 0.2186841 0.047397986 0.06576935
0.1647427 0.1121584 -0.17658626 -0.19440573 0.10003731 -0.12062762 -0.20317422 -0.16634378
-0.0031084416 0.022876704 0.05044829 -0.12630115 0.13411334 -0.037186794 -0.23532742 -0.22405154
-0.032919858 -0.23239292 0.25148726 -0.13484879 0.1777015 0.010252727 0.14734168 0.04178637
0.09417836 -0.019791525 -0.15599695 -0.03534307 -0.012567745 0.15874507 -0.042489532 0.014055135
-0.11139777 0.07164613 0.23704271 -0.16920161 0.21383427 -0.14539629 -0.19045213 0.06431802
-0.1834707 0.11896631 -0.19914706 -0.052408304 -0.15616886 0.14861138 0.016809788 0.23885377
0.1819868 -0.1736551 0.07539348 -0.23953545 -0.20647943 0.2288477 0.09860508 0.003212791
-0.17948511 -0.010378405 -0.1512084 -0.02931929 -0.23646563 -0.09623555 -0.19996198 0.1420366
-0.0846398 0.08227946 -0.051751386 0.0574858 0.024632478 0.063446514 -0.030032016 0.1892227
0.019882798 -0.14126498 0.19331875 0.2026109 -0.08644736 -0.029570853 -0.12292479 -0.057386912
-0.2130757 -0.0008192659 -0.13995126 -0.082587406 -0.105159804 -0.018934624 -0.007979232 0.13526835
-0.008418874 -0.05028975 -0.23613565 -0.15047297 -0.17743817 -0.13522369 0.117241174 0.21114449
-0.0055670417 -0.20631024 -0.19177584 -0.06524215 -0.22228669 0.0028873908 -0.07795102 -0.12062305
-0.015789036 0.07836871 -0.15677902 -0.23124166 0.19284593 0.09720508 0.24496387 -0.0274143
-0.16540875 -0.09829987 -0.10941152 -0.20419845 0.1427751 0.20072669 0.24903508 -0.2336298
-0.027709818 0.056352716 -0.0033905217 0.1827727 0.08267082 0.070114814 -0.17711568 0.07560777
-0.21364313 -0.053686425 -0.18398783 0.06399396 -0.21429393 0.111822374 -0.101505876 -0.14043283
-0.23628931 0.075094864 -0.24642779 0.01981514 0.09036255 0.069249086 0.22379263 0.2103358
-0.014090839 0.18759216 -0.21902163 0.02551989 -0.048215054 -0.2171336 0.22083168 0.026387177
-0.07019339 0.19354658 0.052267924 -0.101011865 -0.0072101504 0.19243838 0.011293948 0.2142902
-0.07359513 0.03366004 0.20741425 0.038668618 -0.011681326 -0.16989954 -0.21316193 0.009221234
00000000: 410e 5dbe 2c44 0e3e d9db 55bd a12c 23be
00000010: 7022 f5bc c32c e93d 3c65 2ebe 9192 6a3e
00000020: e27c 1f3e 4bc5 a93c 1a35 593e 31db 633e
00000030: b1b2 44be f329 5f3e 50b3 cdbd 31a6 18bd
00000040: 48d8 2abc 6e14 7fbe d51a 32be d301 a1bd
00000050: d4c7 cc3c aac0 bdbd ae2c 213e 8ca0 7e3d
00000060: 78de 583d 1d9a 89bb 42f3 b53d b99c 50be
00000070: cd16 72be d2bd 1a3e 932e f83d ba45 52bb
00000080: 35e0 753d 3cf2 8c3d ec47 5dbe cdad c83d
00000090: 17c5 12be b471 74be c8df f93d ebdd babd
000000a0: 66e5 0b3e f9a3 5ebe a0a8 90bd d57f fbbc
000000b0: 9915 e2bd 240a d8bc 1dc9 4ebc e47c 5ebe
000000c0: 2675 cebd 865a fbbd 415d 43be ed94 353e
000000d0: d9a6 543e afe2 20bd d628 19be 029a 1ebe
000000e0: 78dd 6f3e e75a 52be deb3 65be 0d99 ac3d
000000f0: d2b0 b8bd 2c67 423e 79c0 c03b 470e dc3d
00000100: 2749 27be 65d0 e23c 2e39 483e 87d5 54be
00000110: 27ed 663e 6d20 623e e6cd 43be 1d7c 40bb
00000120: 7544 9bbd dd04 eabb 5439 453e 0c33 53bc
00000130: 623d 1cbd a226 47be c7b9 ad3d 1e80 42be
00000140: 5f1b b63c f0a5 54be baac 323d 8237 a0bb
00000150: 78de 223e baee 5f3e 6424 423d 15b2 863d
00000160: 4fb2 283e 4eb3 e53d 07d3 34be 4c12 47be
00000170: 5ce0 cc3d 9d0b f7bd e70c 50be 0656 2abe
00000180: ffb6 4bbb ed67 bb3c dea2 4e3d 1755 01be
00000190: 0255 093e 2e51 18bd acf9 70be c46d 65be
000001a0: f9d6 06bd 69f8 6dbe f0c2 803e cd15 0abe
000001b0: 62f7 353e 0efb 273c bde0 163e 2f28 2b3d
000001c0: 96e0 c03d d621 a2bc aabd 1fbe e5c3 10bd
000001d0: f1e8 4dbc 118e 223e 8109 2ebd 8247 663c
000001e0: 8424 e4bd 35bb 923d 53bb 723e 3043 2dbe
000001f0: 5ff7 5a3e c4e2 14be e205 43be 2bb9 833d
00000200: bedf 3bbe 9ca4 f33d 35ed 4bbe 17aa 56bd
00000210: bbea 1fbe 952d 183e aeb4 893c 1596 743e
00000220: bf5a 3a3e a4d2 31be e667 9a3d c848 75be
00000230: 586f 53be 0d57 6a3e 76f1 c93d b08d 523b
00000240: f2ca 37be 300a 2abc 60d6 1abe 022f f0bc
00000250: 0c24 72be 2517 c5bd d5c2 4cbe 0b72 113e
00000260: a257 adbd 2282 a83d 43f9 53bd 3b76 6b3d
00000270: 0dca c93c 3ff0 813d b405 f6bc 98c3 413e
00000280: 40e1 a23c c4a7 10be 5af5 453e 3b79 4f3e
00000290: 500b b1bd 933e f2bc febf fbbd 8a0e 6bbd
000002a0: 8430 5abe 01c4 56ba 624f 0fbe 9623 a9bd
000002b0: 065e d7bd c91c 9bbc 53bb 02bc c983 0a3e
000002c0: 51ef 09bc a0fc 4dbd 8bcd 71be 9615 1abe
000002d0: 5ab2 35be 1478 0abe 241c f03d 4336 583e
000002e0: bb6b b6bb fe42 53be e360 44be ad9d 85bd
000002f0: 1f9f 63be 613a 3d3b c9a4 9fbd 3809 f7bd
00000300: 0258 81bc c67f a03d ae8a 20be 9dca 6cbe
00000310: 6779 453e 7513 c73d cfd7 7a3e f493 e0bc
00000320: e960 29be 7151 c9bd 2613 e0bd 6619 51be
00000330: a333 123e 4c8b 4d3e 0d03 7f3e a63c 6fbe
00000340: b3ff e2bc 1bd2 663d 8433 5ebb c428 3b3e
00000350: 524f a93d 5b98 8f3d d05d 35be 3fd8 9a3d
00000360: 44c5 5abe 4ce6 5bbd 4e67 3cbe 440f 833d
00000370: de6f 5bbe 2103 e53d 50e2 cfbd a0cd 0fbe
00000380: d3f5 71be 56cb 993d 9157 7cbe 5c53 a23c
00000390: 0010 b93d 77d2 8d3d e529 653e 4562 573e
000003a0: 43dd 66bc 2918 403e 3547 60be 170f d13c
000003b0: 267d 45bd 4558 5ebe b321 623e ec29 d83c
000003c0: 8dc1 8fbd 1331 463e e416 563d 4fdf cebd
000003d0: 2043 ecbb 910e 453e 400a 393c e46e 5b3e
000003e0: 0bb9 96bd 1cdf 093d 6764 543e fc62 1e3d
000003f0: 0863 3fbc 25fa 2dbe 1f47 5abe a914 173c

linear_relu_stack.2.weight f4 [96, 256]
0.045481395 0.015691556 -0.0020060379 -0.007963563 -0.0374363 -0.009975954 0.05197378 -0.05284147
0.027198363 0.037251487 0.04205534 0.027758379 -0.0196169 0.060756255 -0.006698515 0.029384423
-0.02812981 -0.026464028 -0.027594348 0.009405171 -0.052823253 0.01992918 -0.03376239 -0.04708525
-0.047252163 0.061100036 -0.011859357 -0.023048723 -0.014232469 -0.0232427 -0.049275823 0.0508006
-0.036823593 -0.019795595 0.017111847 -0.057073243 0.044517387 -0.0037831236 -0.050521303 -0.026387857
-0.01952396 -0.058175027 -0.05642732 -0.017257053 -0.019591995 0.031774864 0.058293372 -0.022533843
-0.052876193 0.020656116 -0.049591597 0.05770702 -0.011928497 0.056929637 0.060946263 0.0026622806
-0.023808818 0.04127595 -0.03853851 0.01647209 0.011101459 0.01054557 -0.031385783 0.014409732
0.01412818 -0.0444979 -0.046779744 -0.047180742 0.055885166 -0.01337098 0.057428923 0.038877606
-0.030100578 0.0037684413 -0.046161518 -0.03201265 0.0039151646 0.056700323 0.021448774 -0.057639226
-0.06019635 -0.005294077 0.019442985 -0.037118975 0.059265375 0.040990815 0.022858914 -0.02013984
0.027218435 -0.011506624 -0.05952222 0.06050485 0.008482273 -0.055938296 -0.0011002776 0.0032739167
-0.025642496 0.0027114379 -0.03792891 -0.0017045157 0.026445258 -0.0538926 0.055656474 -0.04199764
-0.043437444 0.046027817 0.05745692 -0.061445076 -0.032404978 -0.051831804 0.03655912 -0.0215753
0.02924148 -0.022760564 0.025344344 -0.032119807 -0.025705492 -0.023262346 0.019214608 -0.0398638
-0.05210998 -0.018521521 -0.058582377 0.062279418 0.007477706 0.058317136 0.021745434 -0.013741082
-0.030644821 0.054985363 -0.021319412 -0.034074765 0.04078998 -0.022761853 0.019617956 -0.048277967
0.024233885 0.0067668953 0.06309759 0.004179832 -0.042515684 -0.03047808 0.013600446 -0.053945977
-0.027398914 0.04642199 -0.010470476 0.05275114 0.047050145 0.009478914 -0.044770855 0.045675542
-0.0011335814 -0.023876727 -0.01217186 0.031404983 -0.032160107 0.038418427 0.045656264 0.046138596
0.003870219 -0.040277787 -0.026641399 0.00045141124 -0.044165675 0.060394302 -0.013896263 0.046823595
-0.010192168 -0.05112574 0.05853681 0.03605503 0.021395538 0.0113903815 0.060650203 -0.028758898
0.007577984 0.02948026 -0.0024886834 -0.05998493 -0.009895699 -0.006390237 0.05684007 0.05685045
0.022750596 0.036804732 -0.036131706 -0.02268987 0.028975958 0.006220035 0.05250276 -0.047934048
0.018979656 0.01114431 -0.05393559 -0.03532941 0.038424306 -0.024882648 -0.029912878 0.030565547
0.020893669 0.021209925 0.04573166 0.026049122 0.007891 0.040339593 0.039751064 0.017452557
-0.05503422 -0.038275003 0.05491836 0.02206677 0.04197318 -0.055724394 -0.045315865 -0.046907216
-0.039857022 0.037837163 -0.022666015 0.025283258 -0.032041244 0.038066342 0.054560196 -0.040526498
0.01221066 0.03689167 -0.038411092 0.021401731 0.06263106 -0.011819126 -0.013390512 -0.038454965
0.049494512 -0.018463377 -0.04294303 0.008724088 0.055350807 -0.04286339 0.0045007085 -0.044578653
0.02255279 -0.036424097 0.047466606 9.72147e-05 0.051273007 0.026080286 -0.0036855629 -0.050114088
0.018738441 0.028507587 -0.019301698 0.028792297 -0.044277452 -0.042352956 0.048822667 0.034448646
00000000: b34a 3a3d 948b 803c bb77 03bb 9b79 02bc
00000010: ce56 19bd 2f72 23bc 75e2 543d 4c70 58bd
00000020: 1acf de3c 0495 183d 3842 2c3d 8a65 e33c
00000030: 9fb3 a0bc 8ddb 783d 377f dbbb 9ab7 f03c
00000040: 7d70 e6bc 17cb d8bc 8b0d e2bc 2518 1a3c
00000050: 325d 58bd 8542 a33c 6f4a 0abd 77dc 40bd
00000060: 7c8b 41bd 0844 7a3d c04d 42bc add0 bcbc
00000070: 4d2f 69bc 7a67 bebc 72d5 49bd 4a14 503d
00000080: 56d4 16bd 5f2a a2bc 252e 8c3c a2c5 69bd
00000090: dd57 363d 48ee 77bb 6def 4ebd 592b d8bc
000000a0: b6f0 9fbc f048 6ebd 5520 67bd aa5e 8dbc
000000b0: 647f a0bc 5c26 023d 08c5 6e3d e598 b8bc
000000c0: b594 58bd 0437 a93c 8f20 4bbd 325e 6c3d
000000d0: be6f 43bc 0d2f 693d caa2 793d a879 2e3b
000000e0: b60a c3bc f810 293d 8fda 1dbd 7af0 863c
000000f0: e5e2 353c 54c7 2c3c 618e 00bd cc16 6c3c
00000100: e279 673c 6e43 36bd 1e9c 3fbd 9840 41bd
00000110: d8e7 643d f411 5bbc 973a 6b3d 203e 1f3d
00000120: 7d95 f6bc f4f7 763b dc13 3dbd b21f 03bd
00000130: c84a 803b 993e 683d 57b5 af3c 1c17 6cbd
00000140: 7390 76bd f079 adbb e546 9f3c 110a 18bd
00000150: 40c0 723d fce5 273d 9e42 bb3c 4efc a4bc
00000160: 32f9 de3c 4786 3cbc 92cd 73bd efd3 773d
00000170: 3bf9 0a3c 8e1f 65bd 3137 90ba 358f 563b
00000180: 3610 d2bc 61b2 313b 585b 1bbd 0e6a dfba
00000190: baa3 d83c 7dbe 5cbd 0bf8 633d b805 2cbd
000001a0: 76eb 31bd aa87 3c3d f357 6b3d d5ad 7bbd
000001b0: 15bb 04bd 964d 54bd 04bf 153d afbe b0bc
000001c0: d48b ef3c 5d74 babc f19e cf3c 0f90 03bd
000001d0: 5394 d2bc ad90 bebc f467 9d3c 3948 23bd
000001e0: 4671 55bd 72ba 97bc 13f4 6fbd b418 7f3d
000001f0: 8b07 f53b f3dd 6e3d 7b23 b23c 4622 61bc
00000200: d90a fbbc 5538 613d 0ca6 aebc fb91 0bbd
00000210: 6513 273d 1177 babc d6b5 a03c 1ebf 45bd
00000220: 2486 c63c d5bc dd3b 4f39 813d f9f6 883b
00000230: ed24 2ebd 2bad f9bc 68d4 5e3c 75f6 5cbd
00000240: b073 e0bc fc24 3e3d 5c8c 2bbc 9411 583d
00000250: a7b7 403d 724d 1b3c a561 37bd 4716 3b3d
00000260: ae94 94ba 2099 c3bc 7b6c 47bc 83a2 003d
00000270: 51ba 03bd a45c 1d3d 1002 3b3d d3fb 3c3d
00000280: 80a3 7d3b 52fa 24bd 103f dabc 64ab ec39
00000290: 11e7 34bd 0460 773d 27ad 63bc 19ca 3f3d
000002a0: 0dfd 26bc 3969 51bd 4bc4 6f3d 70ae 133d
000002b0: b245 af3c b99e 3a3c 596c 783d c897 ebbc
000002c0: bd50 f83b 9680 f13c 2e19 23bb c2b2 75bd
000002d0: 9221 22bc 3165 d1bb 22d1 683d 04dc 683d
000002e0: 755f ba3c 8fc0 163d d7fe 13bd 1be0 b9bc
000002f0: fd5e ed3c 6fd1 cb3b 220d 573d 7e56 44bd
00000300: 397b 9b3c a096 363c 91eb 5cbd 92b5 10bd
00000310: ce62 1d3d b2d6 cbbc da0b f5bc 9964 fa3c
00000320: 3329 ab3c 70c0 ad3c 1f51 3b3d f864 d53c
00000330: 4149 013c 213b 253d 03d2 223d aaf8 8e3c
00000340: 906b 61bd 40c6 1cbd 13f2 603d 5fc5 b43c
00000350: 12ec 2b3d 433f 64bd 219d 39bd c821 40bd
00000360: 1e41 23bd 24fb 1a3d 14ae b9bc d61e cf3c
00000370: ae3d 03bd 74eb 1b3d 837a 5f3d 1dff 25bd
00000380: 380f 483c b81b 173d f354 1dbd af52 af3c
00000390: b744 803d 02a5 41bc e163 5bbc f482 1dbd
000003a0: c2ba 4a3d 8240 97bc 08e5 2fbd 7aef 0e3c
000003b0: 87b7 623d 8691 2fbd ae7a 933b 1b98 36bd
000003c0: a1c0 b83c 6f31 15bd 586c 423d bfdf cb38
000003d0: a503 523d 53a6 d53c 7c89 71bb 6e44 4dbd
000003e0: 5c81 993c be88 e93c 981e 9ebc d3dd eb3c
000003f0: 465c 35bd 4b7a 2dbd 47fa 473d 061a 0d3d

linear_relu_stack.2.bias f4 [96]
-0.053432055 0.026267514 0.020596832 -0.015274245 -0.040099766 -0.025790086 -0.042855043 -0.060159966
-0.05004794 -0.054519773 -0.0037652343 0.028414948 -0.010493431 -0.060926624 -0.009502731 0.00850043
0.0029578954 -0.0052569243 -0.05625302 0.06478251 0.024934717 0.0015812491 0.007117223 -0.046831254
-0.02194204 -0.05916038 0.05406498 0.0012745041 0.041519832 0.06535585 -0.044361852 0.05779185
-0.030491058 -0.059278026 0.02181631 -0.034516796 -0.045852043 0.045845717 -0.06364121 0.059318792
-0.017942479 -0.00491547 -0.05960442 -0.003975545 -0.045650817 0.035060167 0.028199019 -0.0557371
-0.031778496 -0.0021068729 -0.028263342 0.06238258 -0.031063229 0.0010216624 0.022799999 -0.015403781
0.051877297 0.056425635 -0.023555003 -0.018588344 -0.0061989212 -0.050677698 -0.0152827315 -0.015904708
0.035853297 0.047049608 0.02130193 -0.012918854 -0.0032952419 -0.06216751 0.003546027 -0.041963074
0.06342786 -0.03476703 0.027898826 0.0298329 0.0024499304 0.033428404 0.0025763148 0.046679575
0.028916236 0.030167455 -0.012085765 -0.03200228 0.011368218 -0.04562697 -0.025810953 -0.05666406
0.03880561 -0.031823657 0.0072663724 -0.018682227 0.03425219 0.0018032161 0.04727727 -0.027097123
00000000: 92db 5abd f82e d73c b0ba a83c d440 7abc
00000010: a73f 24bd bb45 d3bc c588 2fbd 4c6a 76bd
00000020: 12ff 4cbd 2050 5fbd 26c2 76bb 77c6 e83c
00000030: a4ec 2bbc 328e 79bd 58b1 1bbc 6345 0b3c
00000040: 40d9 413b 4742 acbb 9169 66bd b1ac 843d
00000050: e443 cc3c ea41 cf3a 9837 e93b 21d2 3fbd
00000060: cbbf b3bc 2852 72bd 3e73 5d3d 430d a73a
00000070: b310 2a3d 4ad9 853d c6b4 35bd 26b7 6c3d
00000080: 62c8 f9bc 84cd 72bd 1eb8 b23c 7c61 0dbd
00000090: 5acf 3bbd b8c8 3b3d 5356 82bd 43f8 723d
000000a0: 1bfc 92bc f311 a1bb c423 74bd 4a45 82bb
000000b0: 5afc 3abd 409b 0f3d a101 e73c 964c 64bd
000000c0: 2b2a 02bd 7613 0abb 8688 e7bc e084 7f3d
000000d0: 5078 febc 4de9 853a 10c7 ba3c 2460 7cbc
000000e0: 4a7d 543d 911e 673d 6cf6 c0bc 9546 98bc
000000f0: 5220 cbbb 6b93 4fbd 6c64 7abc 974a 82bc
00000100: e8da 123d 17b7 403d 6381 ae3c 9aa9 53bc
00000110: fcf4 57bb 5ca3 7ebd 7664 683b 79e1 2bbd
00000120: 77e6 813d e067 0ebd 148c e43c 2064 f43c
00000130: 038f 203b 39ec 083d 64d7 283b 1533 3f3d
00000140: bee1 ec3c bd21 f73c 5f03 46bc d314 03bd
00000150: c341 3a3c 58e3 3abd 7e71 d3bc 9318 68bd
00000160: a2f2 1e3d 8659 02bd c01a ee3b 780b 99bc
00000170: 064c 0c3d e459 ec3a d0a5 413d c9fa ddbc

linear_relu_stack.4.weight f4 [16, 96]
0.06047415 0.06341582 0.0026716809 -0.049309824 -0.025633818 -0.028071368 0.07980557 -0.06354504
0.010752159 -0.05643939 -0.068210654 0.047175888 -0.023332868 0.0911437 0.056195468 -0.031500287
-0.05597258 0.07293468 0.08970458 -0.020276552 -0.081880964 0.06592952 -0.09008291 0.07241049
0.05559689 -0.06654607 0.0077474723 -0.0957665 0.051205948 0.069777414 -0.06932727 0.024931533
-0.0068325605 0.005842454 0.033689894 -0.018254405 0.07090781 -0.024033623 -0.005484953 0.0027662313
0.09364184 0.04121165 -0.0060664755 -0.027935429 0.011070741 -0.040980402 -0.018167406 0.07241768
0.09628113 0.035580225 0.08121835 -0.07506394 -0.046546094 0.0041874945 0.10211742 -0.05599499
-0.056539014 -0.05482239 -0.050411675 -0.062173165 0.08755361 -0.039949466 -0.074405745 0.042366963
0.0692883 0.04063092 0.013265572 0.0069745467 -0.015013567 -0.049386177 0.020931434 -0.039622653
0.033148292 0.039291628 -0.020810395 0.025237167 -0.0048013134 -0.07593001 -0.04014956 -0.08386096
0.02147825 0.07185116 0.056133498 0.094189815 0.082375206 0.0078070555 0.005860217 0.07059156
0.034051314 0.09041072 -0.0073459414 -0.08497646 0.087517686 0.021347638 0.09091717 0.041808296
0.024645835 -0.097692765 -0.025354505 -0.09750529 0.012547992 -0.042913374 0.047013402 0.0491017
-0.05059257 0.014729008 -0.085877806 -0.04441042 0.005954519 -0.014127664 0.057821184 -0.059871666
0.04798551 0.04063976 0.049719155 -0.007845886 0.09451753 0.028481841 -0.043188974 0.025984885
-0.0864974 -0.09996776 0.03902337 -0.0031129345 0.099411905 -0.02651423 -0.051371973 0.090114415
0.052420925 -0.04970209 -0.040195685 -0.029745607 0.07834853 0.06165235 -0.08385783 0.004680937
0.059379313 0.0077624824 0.044147283 -0.03995802 0.08339803 0.00230608 0.05812578 0.032785192
-0.039053738 0.0007097022 -0.014320329 0.06314911 0.09708622 -0.08783425 -0.016520848 0.07453789
0.02570747 -0.082605235 0.037884463 0.042810205 0.08971158 -0.06492948 0.04705337 0.058670793
-0.05812486 0.07100269 0.039531887 -0.08319909 -0.07570605 0.057203263 -0.04765856 -0.035381377
-0.013005711 -0.024172775 0.0111524835 -0.048133746 -0.088093214 0.024682539 0.053227935 0.04226542
-0.08357438 0.010226026 0.030384215 -0.050043218 -0.058353495 -0.01062312 -0.08975963 -0.1009684
0.066692784 -0.08186435 -0.047862463 -0.07329869 -0.07321785 -0.053736754 0.0684652 0.02697578
-0.086796455 -0.01089306 0.09982211 -0.06602134 0.05912336 -0.066123925 0.0466326 0.06469888
0.0829539 0.047881756 0.0690863 -0.020538043 0.095127605 0.05403674 0.07932238 0.0069459253
-0.08270184 0.053006113 -0.03130982 -0.09754567 0.084352106 0.08147818 0.061477248 0.039916985
0.046761557 -0.025907567 -0.029758817 -0.042381667 -0.084480345 -0.060494892 0.09739622 0.046423044
-0.05769851 0.03196088 0.06759466 0.0074696117 0.04514571 -0.06366049 0.01286304 -0.05131984
0.03389458 0.04753418 0.035147283 0.05999869 -0.088752374 -0.011250216 -0.030579764 -0.003448762
-0.05042294 0.0064996216 -0.009822898 -0.07223192 0.0023463045 -0.06807669 -0.08114663 -0.020740818
-0.09517521 -0.036418527 0.09911664 -0.045637403 -0.011000171 0.049526405 -0.005804336 -0.09437628
00000000: beb3 773d 27e0 813d 5e17 2f3b 19f9 49bd
00000010: 03fe d1bc edf5 e5bc 1a71 a33d e723 82bd
00000020: d329 303c fd2c 67bd 07b2 8bbd 813b 413d
00000030: 9224 bfbc 8ca9 ba3d 382d 663d 7206 01bd
00000040: 8143 65bd c75e 953d 09b7 b73d 031b a6bc
00000050: 35b1 a7bd 0e06 873d 647d b8bd f34b 943d
00000060: 91b9 633d 4e49 88bd 82de fd3b 3a21 c4bd
00000070: 54bd 513d 76e7 8e3d 75fb 8dbd 373d cc3c
00000080: ace3 dfbb 0e72 bf3b 6afe 093d 438a 95bc
00000090: 1d38 913d 29e2 c4bc 1fbb b3bb a949 353b
000000a0: 4bc7 bf3d 8ccd 283d 49c9 c6bb d7d8 e4bc
000000b0: 0e62 353c 11db 27bd d0d3 94bc b84f 943d
000000c0: 0b2f c53d 92bc 113d ce55 a63d 1fbb 99bd
000000d0: 1ea7 3ebd 4037 893b f022 d13d 015b 65bd
000000e0: 7495 67bd 718d 60bd 797c 4ebd 4aa9 7ebd
000000f0: 4f4f b33d 0da2 23bd 0a62 98bd fb88 2d3d
00000100: 06e7 8d3d 9c6c 263d d757 593c bd8a e43b
00000110: 77fb 75bc 2949 4abd 6678 ab3c 5d4b 22bd
00000120: 81c6 073d 42f0 203d 907a aabc 2dbe ce3c
00000130: 5654 9dbb 3181 9bbd dd73 24bd 4cbf abbd
00000140: 28f3 af3c b326 933d 3dec 653d 97e6 c03d
00000150: 55b4 a83d 54d2 ff3b 1007 c03b 4f92 903d
00000160: 6479 0b3d 4129 b93d 39b6 f0bb 2308 aebd
00000170: 793c b33d 3ee1 ae3c c832 ba3d 2d3f 2b3d
00000180: 10e6 c93c 2513 c8bd 40b4 cfbc dab0 c7bd
00000190: 1896 4d3c efc5 2fbd 2091 403d dd1e 493d
000001a0: 283a 4fbd f051 713c b4e0 afbd b3e7 35bd
000001b0: 201e c33b b877 67bc e8d5 6c3d fe3b 75bd
000001c0: 748c 443d e175 263d 50a6 4b3d 088c 00bc
000001d0: 6892 c13d c052 e93c ece6 30bd 41de d43c
000001e0: 8d25 b1bd e6bb ccbd f8d6 1f3d 6002 4cbb
000001f0: 7898 cb3d 5f34 d9bc 6b6b 52bd e88d b83d
00000200: 53b7 563d 6b94 4bbd 3ba4 24bd 0fad f3bc
00000210: 3275 a03d 2d87 7c3d a7bd abbd 8c62 993b
00000220: b937 733d 6c5c fe3b c8d3 343d 05ab 23bd
00000230: 96cc aa3d 9a21 173b 4c15 6e3d c449 063d
00000240: d0f6 1fbd 4f0b 3a3a d09f 6abc 5254 813d
00000250: 24d5 c63d 71e2 b3bd bb56 87bc 52a7 983d
00000260: 7998 d23c ef2c a9bd bd2c 1b3d c159 2f3d
00000270: b4ba b73d bff9 84bd 09bb 403d c950 703d
00000280: 5514 6ebd dc69 913d 30ec 213d 4964 aabd
00000290: c60b 9bbd f84d 6a3d 9f35 43bd 10ec 10bd
000002a0: e815 55bc fc05 c6bc e8b8 363c e427 45bd
000002b0: 376a b4bd 0933 ca3c 8905 5a3d 811e 2d3d
000002c0: 0b29 abbd 108b 273c 51e8 f83c 1efa 4cbd
000002d0: 1304 6fbd 980c 2ebc e6d3 b7bd 85c8 cebd
000002e0: 3a96 883d 7fa8 a7bd 6e0b 44bd a01d 96bd
000002f0: 3df3 95bd 121b 5cbd 7c37 8c3d 50fc dc3c
00000300: 57c2 b1bd ce78 32bc 896f cc3d 3236 87bd
00000310: 562b 723d fb6b 87bd d301 3f3d d980 843d
00000320: bce3 a93d a91f 443d 1e7d 8d3d 663f a8bc
00000330: 43d2 c23d a155 5d3d c673 a23d a59a e33b
00000340: 955f a9bd f01c 593d ba3e 00bd 06c6 c7bd
00000350: ccc0 ac3d 08de a63d 91cf 7b3d fe7f 233d
00000360: 0c89 3f3d 1b3c d4bc c3c8 f3bc 6698 2dbd
00000370: 0804 adbd 7ec9 77bd ab77 c73d 1726 3e3d
00000380: 4655 6cbd 69e9 023d 126f 8a3d a5c3 f43b
00000390: b5ea 383d 6e60 82bd 80bf 523c c134 52bd
000003a0: 0bd5 0a3d 33b3 423d 99f6 0f3d 30c1 753d
000003b0: cec3 b5bd d352 38bc 6a82 fabc a004 62bb
000003c0: 4988 4ebd c7fa d43b 38f0 20bc 54ee 93bd
000003d0: 75c4 193b cb6b 8bbd 3430 a6bd a6e8 a9bc
000003e0: 38eb c2bd 982b 15bd aafd ca3d 49ee 3abd
000003f0: 103a 34bc 33dc 4a3d 4d32 bebb 5a48 c1bd

linear_relu_stack.4.bias f4 [16]
-0.037140097 -0.09442411 -0.04571662 0.0122064045 -0.06966166 -0.0752781 -0.09540887 0.00014624829
-0.032261066 0.015268973 0.017735312 -0.083921805 0.04144013 0.053717162 -0.012684432 -0.04328468
00000000: 3720 18bd 6e61 c1bd 5a41 3bbd 5ffd 473c
00000010: c6aa 8ebd 682b 9abd ba65 c3bd 3a5a 1939
00000020: 2e24 04bd b72a 7a3c a549 913c 32df abbd
00000030: 20bd 293d 8706 5c3d 5dd2 4fbc 474b 31bd

linear_relu_stack.6.weight f4 [4, 16]
-0.050616503 0.1377842 0.19564372 0.120274924 0.23761016 0.020139256 -0.21175456 -0.17659116
-0.11026736 0.051937424 -0.05197951 0.18629187 0.14618754 -0.011029064 -0.13794135 -0.01995464
-0.19085869 -0.060734957 0.15466473 -0.1311321 0.107748896 -0.1197908 -0.15056232 0.14235893
-0.11470772 -0.0075874305 0.18695533 0.0093535185 -0.006118821 0.19369707 -0.054162554 -0.22696963
-0.007908987 0.14011583 0.10728184 -0.123401426 0.1285811 0.17745666 0.12412871 0.005920351
0.015599471 0.080566764 -0.062725194 0.105986476 0.10322602 0.07503904 -0.1531557 -0.17705193
-0.13682958 -0.034326404 -0.21333691 -0.07796892 0.1254555 -0.023484675 -0.026689017 -0.20535263
-0.14195578 -0.097729504 0.21771479 -0.046498805 -0.020837344 0.04514563 -0.06506005 0.21114436
00000000: 4053 4fbd 4d17 0d3e d456 483e b352 f63d
00000010: 1450 733e 15fb a43c 30d6 58be 50d4 34be
00000020: dbd3 e1bd 56bc 543d 77e8 54bd 4cc3 3e3e
00000030: 30b2 153e 3fb3 34bc 7f40 0dbe ea77 a3bc
00000040: 7670 43be 38c5 78bd 6e60 1e3e 7e47 06be
00000050: 74ab dc3d e154 f5bd 022d 1abe 8ac6 113e
00000060: e2eb eabd fb9f f8bb 3871 3f3e 803f 193c
00000070: 6480 c8bb 8658 463e 8ed9 5dbd ba6a 68be
00000080: b294 01bc 867a 0f3e 95b6 db3d e3b9 fcbd
00000090: c4aa 033e 33b7 353e 3137 fe3d 81ff c13b
000000a0: ec94 7f3c 3000 a53d 1176 80bd 700f d93d
000000b0: 2a68 d33d 11ae 993d d9d4 1cbe 1a4d 35be
000000c0: 0e1d 0cbe d899 0cbd fe74 5abe 2bae 9fbd
000000d0: 6877 003e ef62 c0bc eda2 dabc f647 52be
000000e0: db5c 11be 6826 c8bd a0f0 5e3e 8875 3ebd
000000f0: 14b3 aabc a0ea 383d 343e 85bd 3a36 583e

linear_relu_stack.6.bias f4 [4]
0.16687644 0.12392165 0.07801424 -0.11593701
00000000: a8e1 2a3e a2ca fd3d eec5 9f3d 6270 edbd

exp_avg f4 [256, 16]
-0.45212656 -0.39672267 -0.2470168 -0.14608118 -0.69103503 -0.49182287 -0.29355884 -0.187744
-0.49900147 -0.34904674 -0.34734604 -0.17073795 -0.3797464 -0.47184604 -0.2897185 -0.14313321
-0.013717158 -0.0041078064 -0.011602752 -0.0042426996 -0.0070190607 -0.00769627 -0.015792498 -0.01486259
-0.0115610175 -0.013684487 0.00728975 -0.0011660251 -0.034113757 0.007899059 0.0009387043 0.0003051297
0.04372367 0.034785185 0.01652045 0.011744824 0.04327055 0.023799026 0.02878208 0.020942518
0.04627111 0.040169585 0.019362452 0.016819147 0.04520751 0.009568655 0.017647352 0.007226462
0.0031430742 0.0001360279 -0.00033088628 -0.00027232265 0.0023573018 0.00067431317 0.0013417383 -0.00053620106
0.0021311888 0.0029189845 0.0024248562 0.0012883157 0.0035595356 0.0029020957 0.0017037893 0.0014254019
0.0 0.0 0.0 0.0 0.0 0.0 0.0 0.0
0.0 0.0 0.0 0.0 0.0 0.0 0.0 0.0
0.27868468 0.22154334 0.1353622 0.074741505 0.39858222 0.25286293 0.15378626 0.09618006
0.3176034 0.21839373 0.18408874 0.0979717 0.24053958 0.23199114 0.16653645 0.08039484
0.0041379128 0.012253532 0.008169908 0.004086377 0.016397439 0.012256086 0.008169758 0.0040864144
0.01629253 0.012288812 0.008165361 0.0040820125 0.016353087 0.012269401 0.008145683 0.004121598
-0.62103784 -0.51433533 -0.3103313 -0.18075314 -0.9131062 -0.62021774 -0.35908145 -0.22143553
-0.68808806 -0.47294152 -0.45980647 -0.23093808 -0.49455684 -0.6080977 -0.3850011 -0.19417493
-0.05106963 -0.042450998 -0.027473224 -0.018100232 -0.06672482 -0.048691664 -0.024589904 -0.017436853
-0.042163488 -0.028318169 -0.032334033 -0.015711153 -0.016950756 -0.049971446 -0.025275536 -0.016254993
-0.55516 -0.462216 -0.2684727 -0.15771201 -0.78595394 -0.51564246 -0.3112553 -0.18655026
-0.60633695 -0.41813868 -0.386316 -0.19593887 -0.43602484 -0.49114206 -0.33055818 -0.16599216
0.025074268 0.019232122 0.014614527 0.009765413 0.030748637 0.02640649 0.022948572 0.016354749
0.021715725 0.016415602 0.009968142 0.004651636 0.02109266 0.016108325 0.010258323 0.004817425
0.0017973868 -0.0029316475 -0.0016644669 -0.006375456 0.006544684 -0.006495854 -0.014572276 -0.01396469
0.0060948427 0.0009535823 0.010414875 0.004396671 -0.00987811 0.011402885 0.0071545844 0.0057279402
0.00095190434 -0.0007490856 -0.0007190435 -0.00033708516 -0.0006648529 -0.0007425644 -0.0005368689 -7.864519e-06
0.00034744843 0.00011367775 -0.0005928621 -0.0002158634 -0.0005406885 -0.00085410156 -0.00069529406 -0.00043566764
4.442278e-11 6e-45 4.442278e-11 4.442278e-11 0.0 0.0 0.0 4.442278e-11
1.0802186e-34 4.134519e-34 0.0 0.0 6e-45 1.0802186e-34 0.0 0.0
-0.28175578 -0.2199204 -0.124557376 -0.088187635 -0.3229717 -0.20925821 -0.17960818 -0.10719408
-0.29067427 -0.22126713 -0.14975777 -0.087922335 -0.26476833 -0.15023431 -0.13063203 -0.06634564
-0.07772312 -0.03936415 -0.024255354 -0.01710193 -0.06260279 -0.024241365 -0.030736463 -0.018497212
-0.07615355 -0.059579477 -0.021525076 -0.021934973 -0.07282677 -0.008336769 -0.02213087 -0.0146657685
00000000: 227d e7be 3c1f cbbe f9f1 7cbe 4e96 15be
00000010: ace7 30bf 35d0 fbbe 584d 96be f73f 40be
00000020: 1f7d ffbe 41b6 b2be 57d7 b1be eed5 2ebe
00000030: 1f6e c2be ce95 f1be fc55 94be 8391 12be
00000040: eebd 60bc c79a 86bb 7819 3ebc 5806 8bbb
00000050: 2600 e6bb fe30 fcbb 455f 81bc 3882 73bc
00000060: 6c6a 3dbc e634 60bc dbde ee3b 4fd5 98ba
00000070: deba 0bbd 0e6b 013c 6113 763a d1f9 9f39
00000080: 9717 333d e97a 0e3d e555 873c 5d6d 403c
00000090: 763c 313d 2df6 c23c 66c8 eb3c a58f ab3c
000000a0: c786 3d3d dd88 243d 019e 9e3c 4fc8 893c
000000b0: 832b 393d d9c5 1c3c 2e91 903c f5cb ec3b
000000c0: 09fc 4d3b b6a2 0e39 ce7a adb9 87c6 8eb9
000000d0: f67c 1a3b 64c4 303a 44dd af3a d88f 0cba
000000e0: 6aab 0b3b 6f4c 3f3b 56ea 1e3b b4dc a83a
000000f0: 1947 693b 1631 3e3b af51 df3a 8dd4 ba3a
00000100: 0000 0000 0000 0000 0000 0000 0000 0000
00000110: 0000 0000 0000 0000 0000 0000 0000 0000
00000120: 0000 0000 0000 0000 0000 0000 0000 0000
00000130: 0000 0000 0000 0000 0000 0000 0000 0000
00000140: c2af 8e3e 42dc 623e 639c 0a3e 1312 993d
00000150: f812 cc3e 4077 813e 257a 1d3e 0dfa c43d
00000160: ea9c a23e 9ba2 5f3e c281 3c3e 63a5 c83d
00000170: 0250 763e 168f 6d3e 8888 2a3e 0da6 a43d
00000180: 5497 873b 0ac3 483c 14db 053c 04e7 853b
00000190: ec53 863c c0cd 483c 73da 053c 54e7 853b
000001a0: e977 853c 0357 493c 02c8 053c 67c2 853b
000001b0: e9f6 853c 9905 493c 7975 053c 780e 873b
000001c0: 56fc 1ebf 7bab 03bf bfe3 9ebe 5a17 39be
000001d0: 54c1 69bf 97c6 1ebf 86d9 b7be ffbf 62be
000001e0: 8a26 30bf 6425 f2be c16b ebbe 087b 6cbe
000001f0: 8e36 fdbe 4aac 1bbf dd1e c5be cbd5 46be
00000200: 632e 51bd 19e1 2dbd 870f e1bc f046 94bc
00000210: 06a7 88bd e970 47bd c470 c9bc bbd7 8ebc
00000220: 9fb3 2cbd 81fb e7bc b170 04bd adb4 80bc
00000230: 50dc 8abc dcae 4cbd a40e cfbc 3129 85bc
00000240: f71e 0ebf 93a7 ecbe 4175 89be 427f 21be
00000250: 4734 49bf 2501 04bf db5c 9fbe 0807 3fbe
00000260: e638 1bbf 4616 d6be 36cb c5be 33a4 48be
00000270: a63e dfbe f976 fbbe ec3e a9be d9f9 29be
00000280: 8d68 cd3c af8c 9d3c c571 6f3c 1cff 1f3c
00000290: 91e4 fb3c 6c52 d83c a5fe bb3c 65fa 853c
000002a0: 2de5 b13c 037a 863c 6b51 233c c06c 983b
000002b0: 84ca ac3c 9bf5 833c 8612 283c 7ddb 9d3b
000002c0: 4b96 eb3a e220 40bb 3e2a daba 34e9 d0bb
000002d0: ca74 d63b 2cdb d4bb 8ec0 6ebc 28cc 64bc
000002e0: 3fb7 c73b d3f9 793a 27a3 2a3c f311 903b
000002f0: ccd7 21bc 2bd3 3a3c 0171 ea3b 72b1 bb3b
00000300: 3889 793a 495e 44ba 317e 3cba ceba b0b9
00000310: 8649 2eba a7a8 42ba a9bc 0cba daf1 03b7
00000320: bd29 b639 4766 ee38 4d6a 1bba 6459 62b9
00000330: febc 0dba c9e5 5fba 6544 36ba 526a e4b9
00000340: 9b5f 432e 0400 0000 9b5f 432e 9b5f 432e
00000350: 0000 0000 0000 0000 0000 0000 9b5f 432e
00000360: ef95 0f07 9964 0908 0000 0000 0000 0000
00000370: 0400 0000 ef95 0f07 0000 0000 0000 0000
00000380: 4b42 90be d032 61be f017 ffbd b89b b4bd
00000390: 8c5c a5be c947 56be 35eb 37be 9288 dbbd
000003a0: 42d3 94be da93 62be 1a5a 19be a010 b4bd
000003b0: b78f 87be 06d7 19be 67c4 05be 39e0 87bd
000003c0: 4d2d 9fbd 4e3c 21bd 2ab3 c6bc 5919 8cbc
000003d0: e435 80bd d495 c6bc 09cb fbbc 7787 97bc
000003e0: 64f6 9bbd 9c09 74bd 5b55 b0bc f9b0 b3bc
000003f0: 3426 95bd f296 08bc cc4b b5bc b148 70bc

exp_avg_sq f4 [256, 16]
0.42154965 0.23681773 0.12799844 0.060440466 0.5286342 0.32707974 0.1384686 0.06324242
0.38480896 0.20815198 0.13996883 0.034651414 0.23541266 0.31592375 0.10834264 0.03006134
0.03397212 0.019811489 0.011025081 0.004729201 0.03978266 0.02351218 0.010080079 0.0046426076
0.02383135 0.013062035 0.010039367 0.0024093867 0.014438611 0.020280724 0.006623572 0.0022820125
0.03810448 0.021083873 0.011032152 0.0045580487 0.030945506 0.02188617 0.00947612 0.004335457
0.034219522 0.019237986 0.01033366 0.0039237966 0.019836163 0.015908113 0.0072998577 0.0020911673
0.035556663 0.010931768 0.01938861 0.010284097 0.009578452 0.020685168 0.011131599 0.006749775
0.027269918 0.015889864 0.010744973 0.0046683983 0.009573753 0.011026417 0.008300563 0.0034235565
0.0 0.0 0.0 0.0 0.0 0.0 0.0 0.0
0.0 0.0 0.0 0.0 0.0 0.0 0.0 0.0
0.12614483 0.06657121 0.0380129 0.016929777 0.16361144 0.08112685 0.037873834 0.016992204
0.124902 0.06251619 0.03417325 0.009804987 0.076899506 0.07771432 0.029320594 0.008405386
0.0011107044 0.0027709596 0.0011871513 0.00030399978 0.0065366477 0.0031098106 0.0013373304 0.00036278993
0.00511951 0.0038225064 0.001491136 0.00045149395 0.005940944 0.003235368 0.0012042505 0.000672115
0.79100376 0.44400668 0.21844672 0.10374053 1.0786796 0.58446205 0.2394807 0.10468267
0.74614376 0.38325015 0.27411488 0.063665 0.36274487 0.66628224 0.20812684 0.05823269
0.029285327 0.026710121 0.01689866 0.006235541 0.053982098 0.030575495 0.014742679 0.007636631
0.019650165 0.013337915 0.011891334 0.0032409222 0.012932173 0.027978744 0.007799749 0.0034063226
0.55190665 0.3164646 0.16100825 0.07253872 0.7181455 0.39658266 0.16824847 0.077742994
0.52677214 0.26884785 0.18029687 0.045531366 0.27213523 0.4326439 0.14377157 0.040155023
0.019188987 0.015230315 0.017190779 0.007578032 0.015761545 0.012413443 0.008733869 0.007095316
0.009656058 0.0054973015 0.0041639362 0.0025409649 0.009165761 0.0044151586 0.0028204322 0.0011846084
0.027123826 0.017815368 0.020197611 0.0098671 0.03274661 0.022695417 0.014677409 0.008892894
0.023622027 0.014757562 0.009212967 0.0034355358 0.015039782 0.017362485 0.007100345 0.0024376495
0.002101381 0.0012026319 0.00058104267 0.00015208703 0.0013598748 0.0010254646 0.00029751362 0.0002701359
0.00031674755 0.0004688156 0.00069699984 0.00012204166 0.0014446102 0.00064289384 0.00021636304 0.00038509356
8.9939665e-09 2.4479821e-12 5.9607856e-09 7.4179143e-09 0.0 0.0 0.0 7.5373e-09
1.5508439e-08 1.5508896e-08 0.0 0.0 3.877102e-09 8.723503e-09 0.0 0.0
0.11330376 0.07166038 0.036279112 0.013415333 0.13680674 0.080029376 0.03593804 0.014699422
0.129768 0.07269863 0.039123457 0.01404198 0.10395143 0.064413615 0.029325891 0.010065181
0.030606972 0.019192923 0.011339071 0.0066250227 0.034550104 0.02342204 0.011140451 0.0057508796
0.029202009 0.015421251 0.00953022 0.0028591766 0.013301689 0.023872621 0.009178378 0.0023489245
00000000: 5bd5 d73e 5980 723e 0612 033e 6c90 773d
00000010: 9254 073f ff76 a73e b6ca 0d3e 3e85 813d
00000020: ae05 c53e cb25 553e fd53 0f3e a4ee 0d3d
00000030: 0410 713e c2c0 a13e bfe2 dd3d 3343 f63c
00000040: 5a26 0b3d b44b a23c 8ba2 343c 6af7 9a3b
00000050: 24f3 223d 9e9c c03c ea26 253c 0421 983b
00000060: f739 c33c 2502 563c 287c 243c cde6 1d3b
00000070: ed8f 6c3c c323 a63c 8d0a d93b d18d 153b
00000080: 7113 1c3d 16b8 ac3c 33c0 343c af5b 953b
00000090: 6e81 fd3c a04a b33c ba41 1b3c 7310 8e3b
000000a0: c529 0c3d fb98 9d3c 834e 293c 3193 803b
000000b0: 737f a23c bb51 823c a533 ef3b f70b 093b
000000c0: dda3 113d 291b 333c ddd4 9e3c a17e 283c
000000d0: f1ee 1c3c f173 a93c 4f61 363c 372d dd3b
000000e0: 2a65 df3c 762b 823c af0b 303c 5df9 983b
000000f0: 3bdb 1c3c 25a8 343c 16ff 073c bf5d 603b
00000100: 0000 0000 0000 0000 0000 0000 0000 0000
00000110: 0000 0000 0000 0000 0000 0000 0000 0000
00000120: 0000 0000 0000 0000 0000 0000 0000 0000
00000130: 0000 0000 0000 0000 0000 0000 0000 0000
00000140: 1c2c 013e 7d56 883d 6ab3 1b3d 51b0 8a3c
00000150: c289 273e d525 a63d 9821 1b3d 3c33 8b3c
00000160: 9fcc ff3d 7d08 803d 40f9 0b3d 19a5 203c
00000170: 7d7d 9d3d af28 9f3d be31 f03c beb6 093c
00000180: 0e95 913a fd98 353b 309a 9b3a 2962 9f39
00000190: 6031 d63b f7cd 4b3b 5d49 af3a d734 be39
000001a0: 90c1 a73b 0483 7a3b 3972 c33a 7eb6 ec39
000001b0: 40ac c23b 7808 543b f1d7 9d3a e030 303a
000001c0: 397f 4a3f d854 e33e 7fb0 5f3e ea75 d43d
000001d0: 2c12 8a3f 4e9f 153f 6e3a 753e de63 d63d
000001e0: 4703 3f3f 5d39 c43e c958 8c3e cc62 823d
000001f0: b2b9 b93e 7991 2a3f 341f 553e 6785 6e3d
00000200: c8e7 ef3c 2fcf da3c 0f6f 8a3c 8253 cc3b
00000210: 551c 5d3d 7679 fa3c 478b 713c b43c fa3b
00000220: 62f9 a03c 4587 5a3c dfd3 423c a765 543b
00000230: 77e1 533c ae33 e53c 0995 ff3b 9c3c 5f3b
00000240: c149 0d3f a607 a23e 59df 243e 2e8f 943d
00000250: 62d8 373f e20c cb3e 5449 2c3e b837 9f3d
00000260: 8ada 063f 6da6 893e be9f 383e 197f 3a3d
00000270: 4f55 8b3e 8083 dd3e db38 133e 9879 243d
00000280: 3932 9d3c 9288 793c add3 8c3c 2451 f83b
00000290: 5b1e 813c c161 4b3c 8018 0f3c d37f e83b
000002a0: 7134 1e3c b522 b43b a171 883b 5186 263b
000002b0: fd2b 163c 09ad 903b 00d7 383b dd44 9b3a
000002c0: c932 de3c 89f1 913c 7675 a53c 9ea9 213c
000002d0: 4f21 063d bdeb b93c 8479 703c 80b3 113c
000002e0: fb82 c13c b4c9 713c fcf1 163c ba26 613b
000002f0: 6b69 763c c53b 8e3c 03aa e83b f9c0 1f3b
00000300: 53b7 093b a1a1 9d3a 1d51 183a 8d79 1f39
00000310: d43d b23a e268 863a 9afb 9b39 07a1 8d39
00000320: 2311 a639 5dcb f539 deb6 363a 9ef0 ff38
00000330: 1359 bd3a e087 283a 83df 6239 62e6 c939
00000340: e283 1a32 ed42 2c2c a0cf cc31 aae0 fe31
00000350: 0000 0000 0000 0000 0000 0000 657d 0132
00000360: 6b37 8532 6c38 8532 0000 0000 0000 0000
00000370: 5a37 8531 5fde 1532 0000 0000 0000 0000
00000380: cd0b e83d adc2 923d 6899 143d fccb 5b3c
00000390: 1117 0c3e 71e6 a33d c433 133d d8d5 703c
000003a0: e7e1 043e 05e3 943d eb3f 203d 5510 663c
000003b0: 7de4 d43d 49eb 833d da3c f03c 6ee8 243c
000003c0: 79bb fa3c 7a3a 9d3c 83c7 393c b816 d93b
000003d0: 6984 0d3d 94df bf3c 7086 363c e071 bc3b
000003e0: 0d39 ef3c 6aa9 7c3c a424 1c3c 0661 3b3b
000003f0: 54ef 593c 8490 c33c e860 163c 6af0 193b

exp_avg f4 [256]
-0.1184786 -0.001572164 0.009327945 0.00048779402 0.0 0.06650425 0.0040836013 -0.15513252
-0.012554082 -0.13578126 0.004591558 0.00030308246 2.7541839e-05 4.442278e-11 -0.061057378 -0.012015888
-1.1521573e-30 0.0015944934 0.00069165195 -0.0032396119 0.00087053195 -1.48508e-40 -0.048250753 -0.008148896
-0.040599708 0.016688248 -0.032399606 0.0064000124 -6e-45 -0.014607224 -0.048403136 -0.0003217871
0.00030742266 -0.008596914 -0.0004092594 -1.3551844e-30 -0.016703801 -0.101490684 -7.394662e-06 9.002844e-05
-0.045982905 0.034062926 -0.046187162 -0.08734485 0.011208849 -0.065743625 -0.00027907587 0.045244697
0.0020206028 -0.039467506 -0.17526084 -0.028951382 -0.032733653 0.05320945 -2.7577518e-05 -0.013965433
-0.060014434 0.061444063 0.0013564096 -0.03528211 0.030698135 0.027164552 0.00024023792 -0.013101611
-0.052691877 -0.04680866 0.002003672 -0.027609386 -0.12071421 -0.04324216 -0.032391787 -0.04793144
-0.036834896 2.7516733e-05 -0.048785653 -0.0041861916 -2.6192217e-12 -0.00018398426 -0.065797634 -0.17753167
0.0018578876 -0.039416928 0.0045025907 0.009360159 0.0010575058 -0.020003969 0.00011236563 6e-45
0.03169583 -0.1285362 0.018090248 -0.00068477227 -0.032314263 -0.0032775812 -0.03405182 -0.0002392673
-0.00041675923 0.004728192 -2.7982089e-05 -1.2561676e-30 -0.0032568853 -0.01990023 -0.0013487489 -0.00018165137
5.8698315e-05 -0.005311642 -0.058030058 0.0042299945 -7.285501e-06 -0.2501955 -0.19214523 -0.049865767
-0.078500666 -0.030422252 -0.05126265 0.0016148913 0.05449826 0.023695325 0.030628959 -0.11840142
0.0075301207 0.0010345397 -0.04794087 0.05465909 -0.0026240046 -0.045021757 -0.062730476 -2.1561554e-36
-0.12444949 0.012226989 -0.01552898 -0.009013426 -0.1137482 0.016586032 -0.040744353 -0.022133855
5.110873e-06 -0.0026784376 -0.03450943 1.044639e-07 -0.00033170916 -0.0046082158 -0.0020654784 6.418469e-05
0.0 -5.4182525e-05 -0.0887297 -0.011018566 -8.515296e-05 -0.06835683 0.013421497 7.279168e-24
2.5619215e-20 -0.115952216 0.023394667 -0.0014963779 -0.06811884 -0.0005833476 -0.098907486 -0.032377586
-0.070350446 -0.0012460718 0.023426374 -0.053631876 -0.13312012 0.0005753811 0.013481997 -0.07081442
-0.008947744 4.5628784e-08 -0.02573656 -0.00024592408 -0.09727529 -0.0013715316 -0.00032570845 -0.12002542
-4.642597e-06 -0.0007814612 -0.013361317 0.0069841733 -0.035432898 -0.050084565 -0.036981463 -6e-45
-0.0039660363 -0.009145306 4.900604e-13 0.0001442889 -0.11081666 -0.039739706 -0.0005559602 0.0
-0.044367895 -0.006748511 0.0007105205 0.011144063 -0.055450402 9.717452e-05 -0.067058966 0.00059771846
-0.010660622 0.0003635405 -0.00013081459 2.8658718e-05 0.00025833503 -0.0077001904 7.6863425e-11 -0.0014831478
0.0025183952 -0.12390456 -0.0026488344 -0.00051362254 -0.10308924 -0.064822435 0.0002491307 0.002089058
-0.05293956 -0.1270014 0.0 -0.005787778 -0.063361526 -0.14359686 4.107434e-05 -0.09508043
-0.09163994 0.00055628957 0.026998632 -0.0148496 0.0026938876 -0.09192229 0.030796068 -0.08038651
-0.0008072297 -0.05855498 -0.071518384 0.00349287 -0.00031657348 -0.0006976677 -0.01475287 -0.08754124
-0.0029117393 -0.01542779 0.0004703685 0.0305519 -1.2704003e-05 -0.00019426503 -0.0032303627 -0.06807901
-0.023265222 -6.908884e-07 0.0014133769 -0.0075088246 -0.10843154 -0.0075145955 -0.09300594 0.046160035
00000000: e9a4 f2bd 1211 ceba 3dd4 183c 9bbe ff39
00000010: 0000 0000 6133 883d bbcf 853b 0fdb 1ebe
00000020: a3af 4dbc 3e0a 0bbe c874 963b 0ae7 9e39
00000030: a609 e737 9b5f 432e 4d17 7abd 49de 44bc
00000040: bef2 ba8d 52fe d03a fa4f 353a ab4f 54bb
00000050: 6934 643a fb9d 0180 95a2 45bd f282 05bc
00000060: e14b 26bd cbb5 883c 73b5 04bd 32b7 d13b
00000070: 0400 0080 2353 6fbc 5e42 46bd 89b5 a8b9
00000080: 922d a139 12da 0cbc de91 d6b9 28e4 db8d
00000090: 69d6 88bc 59da cfbd aa1f f8b6 a7cd bc38
000000a0: 9258 3cbd 9185 0b3d c02e 3dbd dbe1 b2bd
000000b0: 52a5 373c 98a4 86bd ee50 92b9 8152 393d
000000c0: 176c 043b aea8 21bd 9477 33be 732b edbc
000000d0: b913 06bd 27f2 593d 4556 e7b7 46cf 64bc
000000e0: b2d1 75bd c5ac 7b3d 8ec9 b13a f983 10bd
000000f0: a87a fb3c 3288 de3c 60e8 7b39 24a8 56bc
00000100: 70d3 57bd 70ba 3fbd 0a50 033b 142d e2bc
00000110: 0339 f7bd b11e 31bd 40ad 04bd c253 44bd
00000120: 30e0 16bd bcd3 e637 77d3 47bd 522c 89bb
00000130: b44f 38ac e6eb 40b9 e9c0 86bd ddca 35be
00000140: 5d84 f33a a573 21bd 788a 933b 5a5b 193c
00000150: 029c 8a3a 5ddf a3bc d7a5 eb38 0400 0000
00000160: 7dd3 013d fe9e 03be 0032 943c 4a82 33ba
00000170: f65b 04bd b0cc 56bb ec79 0bbd d4e3 7ab9
00000180: 7a80 dab9 f3ee 9a3b 14bb eab7 29d3 cb8d
00000190: 7871 55bb cf05 a3bc 81c8 b0ba ab79 3eb9
000001a0: d632 7638 480d aebb edb0 6dbd c49b 8a3b
000001b0: fa75 f4b6 a019 80be b8c1 44be 0c40 4cbd
000001c0: f5c4 a0bd 1638 f9bc c9f8 51bd c3aa d33a
000001d0: 9139 5f3d b31c c23c 95e9 fa3c 727c f2bd
000001e0: 3bbf f63b 6499 873a a55d 44bd 36e2 5f3d
000001f0: 7ef7 2bbb bc68 38bd d678 80bd e86c 3784
00000200: 60df febd b553 483c 436d 7ebc 0cad 13bc
00000210: d1f4 e8bd 6edf 873c 8de3 26bd 0f52 b5bc
00000220: 117e ab36 ba88 2fbb c359 0dbd a355 e033
00000230: 40e9 adb9 8400 97bb fa5c 07bb e59a 8638
00000240: 0000 0000 0b42 63b8 ebb7 b5bd 3787 34bc
00000250: 2694 b2b8 aafe 8bbd d7e5 5b3c b2cc 0c19
00000260: 76f7 f11e 5b78 edbd 2ca6 bf3c 1c22 c4ba
00000270: e481 8bbd cbeb 18ba 0290 cabd 5c9e 04bd
00000280: e513 90bd 3b53 a3ba abe8 bf3c 19ad 5bbd
00000290: a450 08be 2cd5 163a 98e3 5c3c 2707 91bd
000002a0: 8f99 12bc 61f9 4333 7ad5 d2bc 5fef 80b9
000002b0: 4438 c7bd f7c4 b3ba d9c3 aab9 e3cf f5bd
000002c0: 9bc7 9bb6 f9da 4cba 6de9 5abc 7edb e43b
000002d0: 1622 11bd 7925 4dbd e079 17bd 0400 0080
000002e0: 86f5 81bb 32d6 15bc 93f0 092b 424c 1739
000002f0: d8f3 e2bd 1ac6 22bd dcbd 11ba 0000 0000
00000300: 1cbb 35bd 9d22 ddbb 3942 3a3a 9795 363c
00000310: f61f 63bd 2cca cb38 3656 89bd 35b0 1c3a
00000320: e4a9 2ebc 9499 be39 462b 09b9 2168 f037
00000330: 2471 8739 e151 fcbb 4306 a92e 2f66 c2ba
00000340: a90b 253b adc1 fdbd 1198 2dbb a0a4 06ba
00000350: 7420 d3bd a0c1 84bd c29d 8239 94e8 083b
00000360: 27d7 58bd a80c 02be 0000 0000 67a7 bdbb
00000370: b0c3 81bd 0e0b 13be 3d47 2c38 87b9 c2bd
00000380: b9ad bbbd f6d3 113a 3c2c dd3c bd4b 73bc
00000390: ef8b 303b c141 bcbd 0948 fc3c afa1 a4bd
000003a0: 459c 53ba 59d7 6fbd 3b78 92bd a2e8 643b
000003b0: c6f9 a5b9 b0e3 36ba 06b6 71bc d248 b3bd
000003c0: e1d2 3ebb d7c4 7cbc cb9b f639 fa47 fa3c
000003d0: 4723 55b7 9fb3 4bb9 7eb4 53bb 026d 8bbd
000003e0: b596 bebc 7d75 39b5 0f41 b93a 960c f6bb
000003f0: 5b11 debd ff3c f6bb e679 bebd 4e12 3d3d
